hand_gesture_model.pth (torch, 410975 bytes, 26 tensors)

conv1.0.weight f4 [16, 1, 3, 3]
00000000: 3538 f3b9 93a3 df34 f0eb 85bc fde7 1139
00000010: 3650 8d3a 3302 99a5 915a cdbc 485e 8a3a
00000020: 1c11 db39 bcc1 98bd 7f1e e03b 1784 353b
00000030: 2bea 203d 97f5 f6ba b1e1 ef3c 86a9 2838
00000040: 532e 7b3c a763 1bbc d524 2d3d c44e e0bb
00000050: a304 c23b 7053 0abd 7d91 a0bd 9c74 993d
00000060: 1fdc 3cbb b68c 353c 5019 9aba ae97 343b
00000070: 2b9d 893b 1d68 1f3b 99f0 9d3c 25c2 9a3c
00000080: 6fea a13c 3d1e c4bd 4542 96bc bb24 583b
00000090: 03a1 9b3c 0500 143c 89e5 0f3d 4474 babd
000000a0: 94ab 0d3b 33de 59bd 5f4c 2b3d 8f28 163c
000000b0: d080 a9bd 7323 0dbd e546 323d 614e bbbc
000000c0: f162 0fb7 5b4c a3bd eab5 4a22 650a 8a3d
000000d0: bdcf be3c b541 a5bd a0d2 5b3b 788d 46bc
000000e0: e241 b2bd 3c21 2ebd 6d63 4cbc 14c6 aa3c
000000f0: 15a7 993d 95be b33b 4151 393b 369d a13a
00000100: c8a0 8825 c3eb 84bc fe66 7726 04c5 6220
00000110: 454a ec3b 2180 1537 745f 3bbd 7b1b e4bc
00000120: 797d e53b a354 923c 202c c4bd 9191 f3bc
00000130: 1d58 443b 672d dd3c 7d17 8b3c fb5d 043d
00000140: 10b1 8bba b70e e2ba 5fe8 88ba 602e 14b9
00000150: 2366 c23c ad05 213d 6fc0 143d 0122 bfbd
00000160: b6c6 773c 55a6 cfbb e6b3 93bd 2c8a e5ba
00000170: b809 ac3b 3d13 7e33 53d2 8d34 f138 98bc
00000180: b28a 4637 cc18 6bb5 1954 36bd ade1 4cbb
00000190: 12c8 4abb a2ca 253c 5b44 af3b ef17 94bc
000001a0: 9af5 af3d e0ce de39 87ca 6bba b974 f73c
000001b0: 4886 61bd 3b50 683d 74bf 903c 9978 97bc
000001c0: c1ef 8e3d ba8c 94ba 4edd d7b8 6724 453b
000001d0: 78d5 90bd 95a1 ddbc 6389 27bd 821f 1dbb
000001e0: b529 c03a 1e55 723d 07df 7c3c 2bc4 fd3c
000001f0: a5f7 4d3d ecb5 aebd 4c6e a8ba abe1 4dbd
00000200: 8ba1 863d 4827 a7b9 0764 0bbc cf3a cdb6
00000210: 7a57 c4bd 1071 aa3b 34e5 a33d 322f b8bd
00000220: 064a febc 2dc9 433d 451c 1e3a c6ee 9d3d
00000230: a274 66bd da6c 993c 02f6 493c 5e85 873a
-0.0004639045 4.1656003e-07 -0.016347855 0.000139147 0.0010781351 -2.654276e-16 -0.0250676 0.0010556662
0.00041783683 -0.07458827 0.006839573 0.002769714 0.03928582 -0.0018841502 0.029282423 4.0212202e-05
0.015330869 -0.009484208 0.042271454 -0.006845327 0.005920963 -0.03377098 -0.0784025 0.074929446
-0.0028817726 0.011080911 -0.0011756811 0.0027556228 0.004199644 0.002432353 0.019279765 0.018891403
0.019765107 -0.0957608 -0.018342147 0.0032980877 0.018997675 0.009033208 0.03513101 -0.09104207
0.002161716 -0.05319042 0.04182088 0.009164943 -0.08276522 -0.034457635 0.04352464 -0.022864522
-8.546501e-06 -0.07973548 2.747241e-18 0.06740264 0.023292417 -0.08069173 0.003354229 -0.01211869
-0.087039724 -0.042512164 -0.012474877 0.020846404 0.075025715 0.0054853656 0.002827719 0.0012330178
2.370119e-16 -0.016225701 8.583492e-16 1.9208132e-19 0.007211002 8.910924e-06 -0.045745328 -0.027845135
0.007003483 0.017862624 -0.09578729 -0.029732497 0.0029959746 0.026999189 0.016978974 0.03231619
-0.0010657627 -0.0017246817 -0.0010445229 -0.00014131656 0.023730343 0.039312053 0.03631633 -0.093326576
0.01512306 -0.006336967 -0.07212047 -0.0017512492 0.005250182 5.915648e-08 2.6416328e-07 -0.01858184
1.1834012e-05 -8.7580406e-07 -0.044513796 -0.0031262443 -0.0030942005 0.010119112 0.005348725 -0.018077819
0.08591767 0.00042497274 -0.00089947175 0.030207025 -0.0550597 0.05671714 0.017669417 -0.018490123
0.06979323 -0.0011333444 -0.0001029322 0.0030081512 -0.07071966 -0.027054587 -0.040902507 -0.002397508
0.0014660867 0.059163205 0.015434033 0.03097733 0.050285 -0.085307926 -0.0012850254 -0.050264042
0.065737806 -0.0003188199 -0.008507735 -6.1163223e-06 -0.09586997 0.0052014664 0.080027014 -0.08993377
-0.031041157 0.047799278 0.0006031434 0.07711558 -0.056263573 0.018728662 0.012326719 0.0010339429

conv1.0.bias f4 [16]
00000000: f3c6 91bd 1a6c 563b adc6 243a b2b9 b73b
00000010: ab6b 333d df7f 9fbd 1057 033c 835c fbbc
00000020: 229c c63c b2fa 863b 4f42 d7b6 04b6 01bb
00000030: d5f0 9fbd d0eb 2c3d 574b ab3d 8a62 383d
-0.07118025 0.0032718242 0.00062857085 0.0056068534 0.043803852 -0.07788061 0.008016363 -0.030683761
0.024244372 0.0041192407 -6.4152186e-06 -0.0019792328 -0.07809607 0.042217076 0.08363979 0.04501585

conv1.2.weight f4 [16]
00000000: fa91 2e3f 3ef0 2e3f eaa1 2e3f cb49 2e3f
00000010: dc60 2e3f 8a90 2e3f ea99 2f3f 8a90 2e3f
00000020: 937e 2e3f f5ac 2e3f 8b90 2e3f 8148 2f3f
00000030: 171e 2f3f f259 2e3f e605 2f3f 7367 2e3f
0.6819149 0.6833533 0.6821581 0.6808135 0.68116546 0.681893 0.6859423 0.681893
0.68161887 0.6823266 0.68189305 0.6847001 0.6840529 0.68105996 0.68368375 0.681266

conv1.2.bias f4 [16]
00000000: 3ca7 e1b5 ad63 763a 699e 2e3a 39b5 3a3a
00000010: c7cc 763a 68a0 2b36 2031 1138 832f b9b6
00000020: bcba 3a3a 9380 a839 b30c a336 a37c cd38
00000030: ce7c aeb7 e592 4e3a c371 253a d4ca 953a
-1.6812478e-06 0.0009399008 0.0006661178 0.0007122341 0.00094146695 2.5574354e-06 3.4616445e-05 -5.5189607e-06
0.00071231625 0.00032139252 4.859257e-06 9.798377e-05 -2.0800533e-05 0.00078801654 0.00063112023 0.0011428245

conv1.2.running_mean f4 [16]
00000000: 4553 b603 47bf 283c 72ba 013c 2868 323b
00000010: ed79 3b3b 0000 0000 f92b 163b 0000 0000
00000020: ff36 573c 8b4c 7c3c 98e7 8132 aea4 803d
00000030: 1d96 df37 2264 3d3d 7432 a43d cc4a 103d
1.0716116e-36 0.01029951 0.007917987 0.0027222726 0.002860661 0.0 0.0022914393 0.0
0.013135671 0.015399109 1.5122893e-08 0.0628141 2.6653574e-05 0.046238072 0.08017436 0.03522758

conv1.2.running_var f4 [16]
00000000: aeb7 410a 51f1 de38 5598 6b38 ae4c c338
00000010: b42a 9e38 92b7 410a 1e0e 8c38 92b7 410a
00000020: fc12 4339 5073 6a39 93e4 d22c 3052 083a
00000030: 94e2 4235 17a4 8339 0d94 2a3a 2bd1 8339
9.327158e-33 0.000106307336 5.6170236e-05 9.312607e-05 7.541981e-05 9.327138e-33 6.67835e-05 9.327138e-33
0.00018603721 0.00022358936 5.993936e-12 0.0005200235 7.2600346e-07 0.00025108524 0.00065070466 0.0002514211

conv2.0.weight f4 [32, 16, 3, 3]
00000000: cc69 2c37 fa81 4c32 96fd 5835 6d84 1c32
00000010: 127d 4532 e860 7a32 711b 8eb7 3d91 3432
00000020: 20a7 b432 e976 1bbb c7c9 8e3b 48ee e03a
00000030: 0ae9 8aba 1a38 9c3b eedf 04bb 2d0d 8bbb
00000040: 9c52 be3a c934 b93a 421c 3b3b 52ab f538
00000050: 9663 28bb 2c31 f3ba 904a 5eba ca4b 7239
00000060: a328 98bb e8b8 dfb9 3b00 543a 82d1 b33a
00000070: 666c cdb9 d8b0 a7ba a483 823a cfcb 40ba
00000080: 6ef3 08bb d076 343a 41be 3aba f0f6 d9ba
00000090: f738 9f3a 9678 103b 3a82 bfb9 61a3 d9ba
000000a0: 1ad2 8137 8ca3 2c3a 2975 58bb 41cd e7b8
000000b0: 95df 8539 4481 8e36 0d13 1a36 01f5 6eb2
000000c0: 346a 90b7 1726 8bb2 69cf acb2 8d5f 9c31
000000d0: 590a 8ab2 458b 8db2 9157 71ba 4f16 8a3a
000000e0: 3c7d eaba 3349 08ba 2a96 bc39 f664 3db8
000000f0: cf0f 70b6 a0b4 2a3a a2a4 dfb9 7572 ac32
00000100: 3129 4733 c1d9 4933 c33b 9b30 ede6 1233
00000110: f6fd 8433 9c4b b432 7ae9 0137 7a65 c437
00000120: 6b5c 05bb 3068 0fbb 8466 49ba 50de f2ba
00000130: 32e1 a6bb f759 81bb 8066 4239 c0ab 89bb
00000140: a308 12bb 49b4 cbbb bc2c a5b9 616a b73b
00000150: b587 ffbb cecc d6ba 2f57 623b 845f 4abb
00000160: 2347 06bb e1d0 89ba 8452 1bb5 9516 ac33
00000170: 074d 1f34 8731 3a35 cb58 ec35 2c55 d934
00000180: a436 6c32 4501 c233 612d 1835 865c 163b
00000190: 0bbb e43a 2c93 3eb8 f656 e8ba ec29 9eba
000001a0: fe8d 2bba 380a 0fba 41d5 28ba adcf c5b8
000001b0: d32d 2e38 d955 f2b8 3b2c 9db7 628b d0b7
000001c0: c8ac 5aba 33c5 bbb9 34cd 2f38 1b26 afb9
000001d0: 7c01 4f39 bd13 163b 698c 073b 5348 66ba
000001e0: c254 a53b 2a80 253b 9ba7 1cbb 415f 443b
000001f0: 36cc 4d3b 7420 ecb9 d957 81b9 4e9d 2639
00000200: c0a7 323b 28c3 80bb 1220 0238 bce3 193b
00000210: 8329 a3ba df16 27bb 91c6 58ba 3b36 d8b9
00000220: c3c5 9e3b 114f b0b9 8293 383b 565d ae3b
00000230: 5a00 3f3a 7023 6dba 155b 7139 9841 f23a
00000240: 29f7 d631 854a a331 7e48 37b2 4384 0732
00000250: 51c8 cab1 988a 5a32 9331 57b4 e223 ecb5
00000260: 71dc cd31 0339 d13a f059 e1ba 455c a9b9
00000270: d94b 193a edf7 48bb 5966 06ba 3178 2e3a
00000280: 73a1 28bb 6a63 db39 4e5d 3bbb d700 0ebb
00000290: 0d67 d8ba c079 2fbb 48fe 91ba 0397 423b
000002a0: 9119 2439 ca5f 27ba cfae 663b 1e3b d13a
000002b0: 90a2 833a f3f4 473a cfba 243a 9156 663a
000002c0: e9a4 5eb7 faba 053b 2dd3 e73a f37b 683a
000002d0: e0b0 4c3a acb7 10b8 7f63 853a 8c8c 60ba
000002e0: ac45 df39 6fb6 1a3b c188 ecba fc7a eaba
000002f0: 024c 56b9 abb1 3b37 52fa cfb1 eb5b a7b1
00000300: 3973 ddb1 c80c 11b2 d29c 96b2 db55 9a37
00000310: 39a2 4bb2 21a2 39b4 bdf6 30ba 8ea2 9d39
00000320: 1ce8 01ba b1a2 e039 e362 693a 0dc4 0a3a
00000330: 99be 0d3a bcbd 14ba 6d75 ef3a e5ac 94b1
00000340: 43e8 9336 29ef 3737 257e 0ab6 f862 82b2
00000350: e1f8 eeb2 ebf0 95b2 13a9 9b32 20e5 8ab4
00000360: b9f6 c63a 4060 39ba d739 e2ba a796 013b
00000370: 81ec 7939 fc17 f3ba 2a1c 1fba 45ca 0f3b
00000380: 5a2a b139 38d0 873b 413a bcb7 3cce abb8
00000390: 0a65 f33a f75f fdba 09df 6eba 9b18 4f3b
000003a0: 9359 913a 5177 eaba c957 a433 36be 7db4
000003b0: 54b4 e2b3 97a0 ba35 be5d 93b4 ea3a c935
000003c0: be9b 07b4 b27e a233 de57 08b7 50e0 33ba
000003d0: 7b10 1aba bad6 adb9 ae40 a7ba 012c f3ba
000003e0: 8e8c d6b8 22a4 fcb8 d8d3 0fba 856d 7c39
000003f0: 00c3 9239 9b7a 4539 b90d 2138 e23b b6b7
1.0276632e-05 1.1903916e-08 8.0835287e-07 9.110505e-09 1.1495347e-08 1.4573949e-08 -1.6940498e-05 1.0510402e-08
2.1030758e-08 -0.0023722 0.00435755 0.0017160857 -0.0010598016 0.00476743 -0.0020275074 -0.004243514
0.0014520469 0.0014130111 0.0028550779 0.00011714421 -0.0025694123 -0.0018554083 -0.00084797386 0.00023107152
-0.004643516 -0.0004267164 0.00080871925 0.0013719054 -0.0003918141 -0.0012793792 0.0009957445 -0.00073545886
-0.0020897049 0.00068841595 -0.0007123687 -0.0016629379 0.0012147714 0.002204453 -0.00036527385 -0.0016604477
1.5475835e-05 0.00065856497 -0.0033028817 -0.0001105317 0.00025534318 4.2469783e-06 2.2958877e-06 -1.3909131e-08
-1.7215592e-05 -1.6199051e-08 -2.0117755e-08 4.5510604e-09 -1.607002e-08 -1.6477893e-08 -0.0009206469 0.0010535213
-0.0017890106 -0.0005198896 0.00035970035 -4.515514e-05 -3.5771989e-06 0.00065119006 -0.00042656536 2.0075484e-08
4.637076e-08 4.6997005e-08 1.129472e-09 3.42033e-08 6.192924e-08 2.0989141e-08 7.74336e-06 2.3412274e-05
-0.0020349275 -0.002188217 -0.00076828175 -0.0018529389 -0.0050927633 -0.003947492 0.00018539466 -0.0042013824
-0.002228298 -0.00621656 -0.00031504582 0.005597398 -0.00779816 -0.0016387941 0.0034536829 -0.0030879686
-0.0020489178 -0.0010514521 -5.7862076e-07 8.013482e-08 1.4836051e-07 6.936247e-07 1.7609212e-06 4.048137e-07
1.3749432e-08 9.03406e-08 5.669045e-07 0.0022943332 0.0017450763 -4.5436595e-05 -0.0017726112 -0.0012066937
-0.0006544291 -0.000545654 -0.0006440469 -9.432375e-05 4.152751e-05 -0.000115554496 -1.8736455e-05 -2.4860437e-05
-0.00083417865 -0.00035814344 4.191436e-05 -0.00033406992 0.00019741611 0.0022899949 0.0020683056 -0.0008784581
0.0050455043 0.0025253394 -0.0023903612 0.0029964002 0.0031402237 -0.00045037607 -0.0002467025 0.00015889594
0.0027260631 -0.0039295144 3.1024283e-05 0.0023481688 -0.0012448285 -0.002549581 -0.0008269335 -0.00041239135
0.0048453524 -0.00033628245 0.0028164093 0.005321185 0.0007286124 -0.0009046113 0.00023017482 0.0018482683
6.2563186e-09 4.7523963e-09 -1.0668485e-08 7.888107e-09 -5.901747e-09 1.2720783e-08 -2.004147e-07 -1.7593813e-06
5.9913465e-09 0.0015962425 -0.0017192941 -0.00032302938 0.0005847789 -0.0030665353 -0.00051269453 0.0006655483
-0.0025730997 0.00041845004 -0.002858955 -0.002166798 -0.0016510204 -0.002677545 -0.0011138404 0.002969206
0.00015649783 -0.0006384818 0.003519941 0.0015963053 0.0010042954 0.0007627748 0.000628394 0.0008786703
-1.3270627e-05 0.0020405636 0.0017686837 0.00088685675 0.0007808339 -3.4503333e-05 0.0010176747 -0.0008565865
0.00042585784 0.0023607274 -0.0018046127 -0.0017889435 -0.00020436945 1.1187435e-05 -6.052951e-09 -4.8707895e-09
-6.445046e-09 -8.443017e-09 -1.7533612e-08 1.839821e-05 -1.185304e-08 -1.728845e-07 -0.0006750634 0.00030066486
-0.00049555465 0.00042845824 0.000890298 0.0005293496 0.00054071244 -0.00056740246 0.0018269249 -4.3270227e-09
4.40798e-06 1.0963334e-05 -2.0637028e-06 -1.5178998e-08 -2.7820024e-08 -1.745544e-08 1.8121261e-08 -2.5871213e-07
0.001517973 -0.00070715323 -0.0017259669 0.0019773634 0.00023834595 -0.0018546577 -0.00060695654 0.002194063
0.00033791625 0.0041446947 -2.2438473e-05 -8.1923296e-05 0.0018569541 -0.0019330968 -0.00091122143 0.003160036
0.0011089317 -0.0017888342 7.652813e-08 -2.363166e-07 -1.05567466e-07 1.3904818e-06 -2.744909e-07 1.4992813e-06
-1.2629513e-07 7.5667586e-08 -8.12669e-06 -0.0006861733 -0.00058770896 -0.00033157115 -0.0012760365 -0.0018552543
-0.000102304955 -0.000120468685 -0.0005486584 0.00024073392 0.00027992576 0.00018833058 3.839817e-05 -2.1723976e-05

conv2.0.bias f4 [32]
00000000: 479b 09bc 1e24 e3bb bb65 b63a 8a1a 6bbb
00000010: d325 613b 62ae 2738 f274 caba 203b 6cb9
00000020: 402f bcba 1244 ccba 3071 07bc cf3f 0b3b
00000030: 3179 ec3a 6320 523a 5bbf 67ba 8af4 1fbb
00000040: 81ce 033b cf4b efbb 7e4d 3abb 3d94 383b
00000050: 2f1c 6b3b 25d0 7fbb cf06 8dbb 4b10 f539
00000060: 885a 1cbc 21c2 453b 84b3 97b9 6ddf bcba
00000070: 7678 263a 2668 7239 94e5 a739 4a80 47bb
-0.008398837 -0.0069317957 0.0013915816 -0.0035873973 0.003435482 3.997831e-05 -0.0015446229 -0.0002252874
-0.0014357343 -0.0015584251 -0.008266732 0.002124775 0.0018041489 0.000801569 -0.0008840465 -0.0024407231
0.00201121 -0.0073027383 -0.0028427537 0.0028164529 0.0035874953 -0.0039033976 -0.00430379 0.0004674218
-0.009543069 0.0030175524 -0.00028934714 -0.0014409848 0.00063503475 0.00023117717 0.0003202377 -0.0030441456

conv2.2.weight f4 [32]
00000000: b23e 2f3f ac4b 2e3f 8e90 2e3f 8852 2e3f
00000010: 3eb4 2e3f 0d5b 2f3f ff21 2f3f 5cca 2d3f
00000020: c867 2f3f 8928 303f abee 2e3f 1dbd 2d3f
00000030: b3da 2e3f d93a 2f3f db1c 2f3f 06d6 2e3f
00000040: 2f69 2f3f 911c 2e3f 2c04 2f3f c43f 2e3f
00000050: cfb7 2f3f 9109 2e3f 3051 2e3f fb70 2d3f
00000060: 844c 2e3f 2fb3 2e3f 95d9 2d3f 2b45 2e3f
00000070: 2995 2e3f 68d8 2e3f f0cf 2e3f 2a3f 2f3f
0.6845504 0.68084216 0.6818932 0.6809468 0.6824378 0.6849831 0.6841125 0.678869
0.6851773 0.6881185 0.6833293 0.6786669 0.6830246 0.6844917 0.68403405 0.68295324
0.6851987 0.6801234 0.6836574 0.6806605 0.68639845 0.6798335 0.6809263 0.6775052
0.68085504 0.6824216 0.6791013 0.6807429 0.6819635 0.6829896 0.6828604 0.68455756

conv2.2.bias f4 [32]
00000000: 95ab 8238 c80d a039 f79f d939 8862 3f38
00000010: 8a64 6b3a 2a6e b7b9 93ea e339 3b07 0db8
00000020: 6d1c 7239 6e20 f838 31d8 0d3a 4977 3539
00000030: a003 2239 c94a 103a 41ef f939 5327 7138
00000040: 82cf 5339 e41a 2b3a 0bf0 acb9 c4de 8938
00000050: 3c00 d439 1ac2 1437 f4b0 2db9 a78d 083a
00000060: 3851 c438 89dc 5f39 1495 aa39 bb19 2cb9
00000070: e428 ab38 146a 253a 4f10 663a f2b1 0138
6.230843e-05 0.00030527846 0.00041508648 4.5629713e-05 0.000897952 -0.0003498656 0.00043471585 -3.3623754e-05
0.00023089508 0.00011831602 0.0005410938 0.00017305942 0.00015450874 0.0005504308 0.0004767124 5.74955e-05
0.00020199831 0.00065271393 -0.00032985242 6.5741624e-05 0.00040435966 8.86668e-06 -0.00016564486 0.0005209096
9.3611365e-05 0.00021349093 0.00032536 -0.00016412784 8.161532e-05 0.00063100574 0.0008776234 3.092172e-05

conv2.2.running_mean f4 [32]
00000000: fbed 433b dc86 9e3b 8c2b 1a3c fded de3b
00000010: 1be1 5d3c 7550 c73b b6cd c73b ef10 8e3b
00000020: cb51 fb3b 4021 8f3b f4ed 883b 07dc 053c
00000030: 4609 cc3b cc18 e53b 506a b13b 8179 dc3b
00000040: b833 223c fdc1 1a3b 3f8c 9a3b 61cc 1b3c
00000050: d2db 143c 78d3 b33b fdfd a73b 5707 fe3b
00000060: 0894 5f3b 34a5 193c f353 123c 7858 3c3b
00000070: 148f 2e3c 4f4e 193c 4232 0e3c 8b9f ae3b
0.0029896486 0.004837854 0.009409796 0.0068032728 0.013542439 0.0060825893 0.0060975207 0.0043355147
0.0076696626 0.0043679774 0.004178757 0.008170134 0.0062266914 0.0069914814 0.0054142848 0.0067283516
0.009900026 0.0023614161 0.0047164257 0.009509177 0.009085612 0.0054878555 0.0051267133 0.00775234
0.0034115333 0.009377766 0.008931148 0.0028739255 0.01065423 0.009357049 0.008678975 0.0053290776

conv2.2.running_var f4 [32]
00000000: 80f8 7038 3d36 bd38 1cea 2d39 0677 2f39
00000010: 2f36 6c39 c1a1 2039 2e9a c138 3e7d 6438
00000020: fb2c 6239 1dfe 4939 3ba5 d638 21d7 c638
00000030: 60a9 2839 310b 0939 eef5 e238 8978 0d39
00000040: 92a9 0a39 c7fe 1a38 2b38 ed38 67b9 3e39
00000050: b181 1f39 96d1 2139 33af f838 2cef 3239
00000060: 9e2d 8838 eb16 0039 5cac 1639 9b42 9838
00000070: 67a7 0639 e915 9b39 2e2f 4439 0603 4139
5.7451893e-05 9.022325e-05 0.00016585778 0.0001673364 0.00022526899 0.00015319047 9.231675e-05 5.4476077e-05
0.00021569796 0.00019263518 0.00010235092 9.4814466e-05 0.00016084826 0.00013069507 0.00010822328 0.0001349171
0.00013223875 3.695374e-05 0.00011311503 0.0001818888 0.00015211735 0.00015432233 0.00011858195 0.00017064501
6.493482e-05 0.00012215569 0.00014369324 7.260331e-05 0.00012841598 0.00029580228 0.00018709592 0.0001840704

conv3.0.weight f4 [64, 32, 3, 3]
00000000: 7982 64bb 080a 81ba b954 743b 033c 183a
00000010: dab8 6a3a 8e47 9d3a 6aba 8ab9 9023 8e3a
00000020: a654 c939 2840 9bba d49d cf3a 7613 c73a
00000030: 5198 00bb 046e 09bb fe39 1f3b 2bfc c1ba
00000040: 1e56 c3ba afee f33a a594 22ba 273d adba
00000050: 5913 7b39 1c5f 3fbb cc60 97ba cd3d b0b9
00000060: 4ee8 06b8 b602 52bb 8aa7 03b9 987a 5e3a
00000070: 80ce 8cba ae64 7538 e377 d2b9 47f9 88ba
00000080: 2de0 b93a 537d d1ba 9fbc 12bb 1c1c 1b39
00000090: 1143 feba cec5 bcba fc8b c9b9 456c 33bb
000000a0: 3319 4abb a0fc 5c3a 6270 48bb 42f6 5939
000000b0: 66e3 0e3b 50bc 1539 4f03 d639 9930 b1b9
000000c0: 868c 9d39 3cad dbb8 ac13 03ba e04d 0f3b
000000d0: a04a ff39 beb6 1bba d7c2 d338 3435 2a3a
000000e0: 32ee c53a f30b 68ba 27c0 5fba 717e e439
000000f0: 6e54 45ba e988 353b e977 e9ba 4a82 52ba
00000100: 9e8c 95b9 a747 e038 11fe c13a 0ade 6dba
00000110: b8eb 98b9 1391 f63a 777f 933a 0043 a2ba
00000120: cc88 9839 1da2 7138 62a9 123a 1bed abba
00000130: 764f 6fb9 7b7c e239 d4ce aeba f3d6 44ba
00000140: 31c3 cc3a c49a 39ba e14c 8039 702e 5c3a
00000150: 1f71 96ba ed99 48b9 9f75 c53a c6c2 75ba
00000160: c31e cb3a 1499 e63a 9bdf 79ba 8304 833b
00000170: 9d0c 04ba a081 f9ba c5d2 5cba 69a3 2c3b
00000180: f059 d9ba 1d2d 04bb 8d5d 543b 27e4 8aba
00000190: b909 8eba b64c bcb9 7080 b73a 6c77 f7b9
000001a0: 2a27 31b9 c8ea bdb9 10d4 aa3b fd77 f0ba
000001b0: f472 44b8 5e9b e5b8 6263 4d3a e02d 1236
000001c0: 50a9 1d39 b962 3d3a e6af 61b9 b3c0 6a3a
000001d0: 818d 89ba 9c1f 223a ea5c 913a 727c 413a
000001e0: 1ed4 d0b9 73b9 13ba 7c8c 84ba 5a81 c239
000001f0: a38c cdba b36d c1ba f131 4db9 8c75 5a3a
00000200: 5e59 6b3b c48e e5ba c9cf 8438 bc4a 2a3a
00000210: b1ff 543a e82f 07bb 3844 f5b9 4f7f e0b9
00000220: d575 5a39 2d6d 583a 0ff7 edba ba40 6839
00000230: 6c1a 893a 3187 cdba a281 5b3a ce2d df39
00000240: 918e bd3a da19 3dba 2842 ebba 7d7a 4a36
00000250: 3bf6 2039 cb5e a2ba a14e 16bb 1a41 ce3a
00000260: 9d67 773a 8cb5 3939 999f 66b9 4d10 2fb9
00000270: 2fd4 3eba a7af abba 2b8a 0ebb 0e78 8f3a
00000280: a948 31b9 5bc4 39bb ffc1 25ba 2dbd d6ba
00000290: 90b7 06b8 0698 02bb a88f c0b9 d192 a1ba
000002a0: a91a 0239 5eae b53a b998 69ba d316 ec39
000002b0: 9edc 15ba 7dc6 3139 54e5 96ba 461a 36ba
000002c0: d760 b5b9 e96e 9fba 3a23 5d3a ef27 59b9
000002d0: ff5c b7ba 2053 773a 1bee 683b bb47 07bb
000002e0: a4a8 99b9 eed0 b639 67c6 d5ba 4602 eaba
000002f0: d751 4e3a d994 80b9 e520 31b9 8d1c e53a
00000300: 9ef1 b7ba 2a38 08ba 7794 c038 de4b a8ba
00000310: 6ff3 3bba 42c7 b43a 4efe 983a 10a2 9839
00000320: f7a5 8b3a 2117 893a f476 9339 e728 4dba
00000330: 13a2 31ba a723 673a b121 f439 c5a0 8dba
00000340: cd1f 4fba 6a8e 1d3b d374 a1ba 2c3e f0ba
00000350: a6ab beb8 e2b2 abba 336e 69ba bc53 b1ba
00000360: d8f3 b639 853e 84ba 611b 79ba 57d7 c1ba
00000370: 8053 323b 6995 5aba 35e9 96ba 09e6 993a
00000380: c47d a93a 60f7 97ba bc8c 0abb 814d b2ba
00000390: bd95 afb9 7302 a93a 7691 19bb 01eb c2ba
000003a0: 8b06 40ba 1690 123a e973 ca39 85ae ea3a
000003b0: 5d38 803a 646f 41ba bf42 b9b9 af81 153b
000003c0: 51cb 9cba 3246 d0ba 03b0 8cba d4e7 51b9
000003d0: f41b 0bba decc 963a 8add 8dba d3d7 48ba
000003e0: ea6b 4139 2ede 2eb9 a361 de39 913b aeb9
000003f0: 9aa3 deba 8178 e1ba 3b24 d4ba 5a1a d5ba
-0.0034867807 -0.0009844908 0.0037281944 0.0005807282 0.00089539366 0.0011999474 -0.000264603 0.0010844339
0.00038400776 -0.0011844682 0.0015839883 0.0015188295 -0.0019622038 -0.0020970115 0.002429604 -0.0014799883
-0.0014902984 0.0018610562 -0.00062019593 -0.0013217077 0.00023944433 -0.0029200977 -0.0011549233 -0.0003361538
-3.216444e-05 -0.0032045073 -0.00012555547 0.0008486896 -0.0010742694 5.8506317e-05 -0.00040143644 -0.0010450267
0.001418119 -0.0015982784 -0.002239026 0.00014792423 -0.001939865 -0.0014402212 -0.00038442004 -0.0027377766
-0.0030837774 0.0008429978 -0.0030584564 0.00020786471 0.002180302 0.00014279899 0.00040819726 -0.0003379628
0.00030050072 -0.00010475001 -0.0005000185 0.0021866485 0.0004869299 -0.00059400115 0.00010097556 0.0006492913
0.0015100895 -0.0008851878 -0.0008535408 0.00043581755 -0.00075275346 0.0027700013 -0.0017812225 -0.0008030279
-0.00028524263 0.000106944986 0.0014800449 -0.0009073919 -0.00029167323 0.0018811546 0.0011253197 -0.0012379587
0.0002909362 5.7609857e-05 0.0005594698 -0.0013116928 -0.00022822418 0.00043198824 -0.0013336786 -0.00075088366
0.0015622136 -0.0007080252 0.00024471342 0.0008399254 -0.0011477805 -0.00019130828 0.0015064961 -0.0009375032
0.0015496839 0.0017593228 -0.0009531916 0.0039983406 -0.000503728 -0.0019035824 -0.0008423741 0.0026342517
-0.001658259 -0.0020168491 0.0032404393 -0.0010596559 -0.0010836638 -0.00035915308 0.0014000069 -0.00047200487
-0.00016894625 -0.00036223815 0.005213268 -0.0018346306 -4.68371e-05 -0.0001094851 0.00078349386 2.1782398e-06
0.0001503576 0.00072244887 -0.000215232 0.0008955106 -0.0010494442 0.000618452 0.0011090313 0.00073809095
-0.0003983089 -0.0005635239 -0.0010112668 0.00037098938 -0.0015682172 -0.0014757424 -0.00019568928 0.0008333556
0.0035911421 -0.0017513861 6.3329535e-05 0.00064961216 0.0008125259 -0.002062792 -0.00046780868 -0.00042819462
0.00020833996 0.00082560146 -0.0018155294 0.00022149357 0.0010460145 -0.0015680549 0.0008373504 0.00042568002
0.0014462044 -0.000721363 -0.0017948793 3.0171643e-06 0.00015350517 -0.001238787 -0.002293505 0.0015735955
0.0009437742 0.00017710606 -0.00021993964 -0.00016695373 -0.00072795426 -0.0013098613 -0.0021749835 0.0010945813
-0.00016907103 -0.0028345797 -0.0006323158 -0.0016383283 -3.2119045e-05 -0.0019927039 -0.00036728126 -0.001232708
0.00012407698 0.001386117 -0.0008911002 0.00045030433 -0.00057167734 0.00016953978 -0.0011512437 -0.0006946664
-0.00034595162 -0.0012163791 0.000843573 -0.00020709609 -0.0013989507 0.0009434689 0.0035542313 -0.002064212
-0.0002930808 0.0003486941 -0.0016309739 -0.0017853461 0.00078704715 -0.00024524963 -0.0001689229 0.0017479822
-0.00140338 -0.00051963574 9.182927e-05 -0.0012839993 -0.00071697583 0.0013792294 0.0011672468 0.00029112445
0.001065432 0.0010459163 0.00028126652 -0.00078262243 -0.0006776165 0.00088172633 0.0004656441 -0.0010805359
-0.0007901162 0.0024041184 -0.0012318142 -0.0018329076 -9.091878e-05 -0.0013099576 -0.00089046656 -0.0013528983
0.00034895423 -0.0010089433 -0.0009502676 -0.0014788908 0.0027210414 -0.0008338304 -0.0011513593 0.001174153
0.0012931158 -0.0011594109 -0.0021141013 -0.001360342 -0.00033490165 0.0012894407 -0.0023432649 -0.0014871062
-0.0007325194 0.00055909285 0.00038614802 0.0017904794 0.0009782423 -0.0007378964 -0.0003533568 0.0022812893
-0.0011962448 -0.001589006 -0.0010733608 -0.00020018156 -0.00053065945 0.0011505147 -0.001082347 -0.0007661555
0.00018446115 -0.00016676701 0.00042415885 -0.00033232247 -0.0016986013 -0.0017202051 -0.0016185114 -0.0016258464

conv3.0.bias f4 [64]
00000000: fafb 1fbb 28f2 ca39 e79c 05bb d42e 4dbb
00000010: 510e 56ba 9cbb 0dbb f2a6 8fba 397a a0ba
00000020: d08e 08bb a11d 11ba dabb bfba 7d59 11bb
00000030: c2cd 45bb a757 9dba bbc7 0bbc 6d30 b1b9
00000040: 3efc 613a 4d1d 18ba e77a 44bb df9f d4bb
00000050: 180e 2b37 857e 29bb 6141 76ba 7274 84b6
00000060: 29e3 c0ba b71f b3ba 82dc 8bbb ef76 09bb
00000070: 67e9 14bb 28ec 19ba 19e9 b6b9 c1b1 7438
00000080: 1ca4 77ba 0484 6bbb de6b 80ba 4006 e2ba
00000090: da8e 53ba f818 43ba 55f9 8bba f323 8fba
000000a0: 2128 80bb 5fd1 d938 6bd2 0fba 75ef 13bb
000000b0: e339 21b9 23ff 7dba eb49 09bb 5e75 66b9
000000c0: ca1a 43bb 14e0 5bb9 b16c 9d39 1fdf 87ba
000000d0: b414 d9b9 0c2c 80bb 236e 9dba d01b f839
000000e0: 75bf 0cba 3f34 12ba aecc 47ba b9cb b3ba
000000f0: 5c78 c138 7909 4bba 2abd b6ba 1ed5 47ba
-0.0024411664 0.00038708863 -0.002038771 -0.003130843 -0.00081655855 -0.0021626716 -0.0010959788 -0.0012243456
-0.0020837076 -0.0005535726 -0.0014628128 -0.0022178583 -0.0030182456 -0.0012004272 -0.008531506 -0.0003379615
0.0008620656 -0.0005802706 -0.0029980482 -0.0064887847 1.0195676e-05 -0.0025862765 -0.00093938975 -3.9474626e-06
-0.0014716137 -0.0013666068 -0.00426823 -0.002097543 -0.0022722126 -0.0005871677 -0.00034887416 5.833968e-05
-0.00094467564 -0.0035936842 -0.0009797772 -0.0017244294 -0.0008070298 -0.00074423803 -0.0010679165 -0.0010920748
-0.0039110337 0.00010386365 -0.0005486372 -0.0022573147 -0.00015375721 -0.00096892024 -0.00209486 -0.00021978232
-0.0029770606 -0.00020968943 0.00030026355 -0.0010366178 -0.0004140489 -0.003911501 -0.0012010973 0.00047322968
-0.00053691055 -0.0005577243 -0.0007621747 -0.001371733 9.225376e-05 -0.0007745247 -0.0013941873 -0.00076230045

conv3.2.weight f4 [64]
00000000: b984 2d3f f0b6 2e3f 4220 2f3f 3999 2d3f
00000010: 8df5 2d3f 8992 2d3f f47b 2e3f 9c92 2f3f
00000020: 067f 2f3f 7188 2e3f 3270 2d3f d1c8 2e3f
00000030: e18b 2e3f 7eec 2e3f 093d 2d3f e7d8 2e3f
00000040: c217 2e3f 6653 2d3f 12f3 2e3f 321a 2f3f
00000050: 8fa6 2f3f fc1f 2f3f f8c0 2f3f 44f8 2e3f
00000060: 025a 2e3f e8fc 2e3f 0850 2d3f bb8d 2f3f
00000070: 625e 2d3f 8f22 2e3f e6f1 2e3f aafa 2d3f
00000080: aa57 2e3f 9bc0 2d3f 4cab 2f3f e3b9 2e3f
00000090: 3d72 2e3f d509 2f3f 30c5 2e3f 7982 2f3f
000000a0: 276f 2e3f 3558 2f3f 2f8c 2f3f 95d1 2f3f
000000b0: 83ab 2e3f 61ab 2f3f 17a0 2e3f 169d 2f3f
000000c0: c71c 2f3f b0d2 2e3f 386f 2e3f f507 2d3f
000000d0: 59c9 2e3f 37ff 2e3f eeba 2e3f c2b5 2e3f
000000e0: 4589 2e3f 9533 2f3f e836 2e3f dec2 2f3f
000000f0: f25a 2e3f 5529 2f3f 81d8 2e3f e58b 2f3f
0.67780644 0.6824789 0.68408597 0.67811924 0.67952806 0.6780172 0.6815789 0.68583083
0.685532 0.68176943 0.6774932 0.6827517 0.6818219 0.6832961 0.6767126 0.68299717
0.68005 0.6770538 0.68339646 0.68399346 0.68613523 0.6840818 0.6865382 0.68347573
0.6810609 0.68354654 0.67700243 0.6857564 0.6772214 0.6802148 0.6833786 0.6796061
0.68102515 0.6787202 0.68620753 0.6825239 0.68143064 0.6837438 0.68269634 0.6855846
0.68138355 0.6849397 0.6857328 0.6867917 0.68230456 0.6862088 0.6821303 0.6859907
0.68403286 0.68290234 0.68138456 0.67590266 0.6827598 0.68358177 0.6825398 0.6824609
0.68178207 0.6843808 0.6805253 0.6865672 0.6810752 0.6842244 0.6829911 0.6857284

conv3.2.bias f4 [64]
00000000: 8819 4ab9 8561 07b9 cfb4 2cb9 aa1d 92b9
00000010: f727 4cb9 ab06 39b9 4fd9 36b9 acaf 9cb8
00000020: f887 71b9 fcd6 36b9 7d55 65b9 9e3f fdb7
00000030: 25d9 6fb9 5e0e 30b8 b745 d2b9 5f06 b7b8
00000040: 1a9f 9eb8 df59 15b9 01bc ddb8 6eed cdb9
00000050: 7afd 86b8 4683 72b9 e4a9 6ab9 6bea 4bb9
00000060: b8f6 5ab9 ddfa ce38 6cf0 83b9 35d5 5fb9
00000070: 8633 bcb8 29e2 98b6 19b6 cab8 0b45 e3b8
00000080: 753c 29b8 cf70 7bb9 7a6f c7b7 051b 97b8
00000090: 4528 0fb9 2392 77b8 a81f 30b9 b166 cc38
000000a0: 6741 4339 6cdb 19b9 bfcd c6b7 c627 01b9
000000b0: ea55 06b8 cc41 8b38 75ca 9938 baba 46b9
000000c0: 36c1 36b9 aa47 54b9 7661 1cb7 9ab7 2bb9
000000d0: 66c8 c4b8 c439 a6b9 0e64 39b9 07cb b1b7
000000e0: a4d8 25b9 db9f 77b7 f989 b3b8 3b73 1ab9
000000f0: 1c2b ccb8 0139 2db9 e05b 71b9 2bd4 f4b8
-0.00019273732 -0.00012910932 -0.00016470555 -0.00027869391 -0.00019469844 -0.00017645459 -0.00017437826 -7.471381e-05
-0.00023034203 -0.0001743696 -0.00021870989 -3.0189574e-05 -0.00022873709 -4.197505e-05 -0.00040106263 -8.727307e-05
-7.563662e-05 -0.00014243227 -0.0001057312 -0.00039277546 -6.4368316e-05 -0.00023127822 -0.00022379268 -0.00019446916
-0.0002088201 9.8695724e-05 -0.00025165395 -0.00021346363 -8.9741356e-05 -4.5562815e-06 -9.666029e-05 -0.00010837064
-4.0349045e-05 -0.0002397925 -2.3774559e-05 -7.205274e-05 -0.00013652544 -5.902549e-05 -0.00016796461 9.746606e-05
0.00018621013 -0.00014672958 -2.3699247e-05 -0.00012317215 -3.2028103e-05 6.640292e-05 7.333319e-05 -0.00018952313
-0.00017428849 -0.00020244592 -9.3210165e-06 -0.00016376228 -9.3833354e-05 -0.00031705026 -0.00017680248 -2.1194586e-05
-0.00015816331 -1.47595665e-05 -8.5610845e-05 -0.00014729511 -9.735508e-05 -0.00016519801 -0.00023017777 -0.00011674346

conv3.2.running_mean f4 [64]
00000000: 5749 cc3b b170 a83c 773a 803c 920d 733b
00000010: f2a6 623c 82d6 963b ca5b 893c 2b58 fe3b
00000020: 35af 013c 9fec 993c 2445 ba3b 15ac c13b
00000030: 380d 483b 9b37 013c 1799 9f3a 1656 743b
00000040: 4e40 d23c 680f 133c dbef 853b 666d ca3a
00000050: 19c3 ed3b 7650 a33b 4f24 1d3c b84f a93c
00000060: aea9 4d3c 3652 143c 0289 ed3b a9ce 053c
00000070: 943e 993b 29ca a23c ac28 0d3c d39c 073d
00000080: 9a1f c63b 2e0e 1c3b c56b ec3b 1c03 c33a
00000090: 80cc ae3b 6ba3 0d3c c3fa 023c 3eed 7b3b
000000a0: cf87 653b 5c98 113c d3c1 113c 341d 243b
000000b0: b372 023c 6d3c 013c 1ee6 4f3b 6e5e d33c
000000c0: 7c76 1d3b dda1 d23c bd2a af3b 0eb6 b93b
000000d0: 3569 493c 3e74 533b ae5b ca3b c8e6 933b
000000e0: ee95 823c 24fe f43b f46d 663c 7fe7 3e3b
000000f0: 2004 b83b 9413 073c 9185 583c 9fb3 253c
0.0062343287 0.020561548 0.015652878 0.0037086946 0.013833748 0.004603208 0.016767401 0.0077619753
0.007915308 0.018789588 0.0056845117 0.0059104064 0.0030525457 0.0078867925 0.0012176362 0.0037282757
0.025665428 0.008975841 0.004087431 0.001544398 0.0072559235 0.004983957 0.009591176 0.020667896
0.012552662 0.009052804 0.0072489986 0.008166947 0.0046766493 0.019871788 0.008615654 0.033108544
0.0060462477 0.0023812163 0.0072149956 0.0014878246 0.005334437 0.008644919 0.007994357 0.0038440968
0.0035023575 0.008886423 0.008896309 0.002504182 0.007961917 0.007887942 0.0031722854 0.025801864
0.002402692 0.025711948 0.005345671 0.0056674546 0.01229315 0.003226533 0.00617548 0.0045135953
0.015940633 0.007476585 0.014064301 0.0029129682 0.005615726 0.008244414 0.013215438 0.010113626

conv3.2.running_var f4 [64]
00000000: 7490 3439 e83c 263a d27e 013a 8dd9 ea38
00000010: 1afc e839 fe3a 0a39 8786 033a f6ec 4f39
00000020: 4cba 5f39 7cff 0f3a 4e00 4a39 2626 3b39
00000030: 4e5e aa38 a74e 7d39 c2d2 4838 1061 b738
00000040: e148 1e3a c87c b639 cf16 0539 210c 4f38
00000050: 5e34 4239 7b1e 1739 fc26 bb39 43e5 233a
00000060: 6d18 013a 3145 b939 cbbf 7b39 0348 b239
00000070: e0f6 0b39 b7fd 3f3a 00ad 8c39 80f7 503a
00000080: 14b4 2439 b8bd 9538 3305 8139 5f21 4538
00000090: c09c d638 a0d0 aa39 e847 9239 528c 0339
000000a0: ec36 fe38 f160 9539 5e12 8c39 b59b a838
000000b0: ffc6 9039 9ef7 9439 54e6 a838 2c08 443a
000000c0: b13e 4a38 e645 4d3a 9b69 1539 b717 1c39
000000d0: 3b11 e539 1ab0 e138 ed2c 2a39 3098 0239
000000e0: 72f7 f039 f272 7039 660f d339 919e 9138
000000f0: fcd3 2439 b0ac 9839 8b2a 203a c5cc a639
0.0001721995 0.0006341473 0.0004939857 0.000111985115 0.0004443832 0.00013182682 0.00050172996 0.00019829333
0.00021336338 0.0005493087 0.00019264335 0.00017847921 8.123797e-05 0.0002415726 4.788e-05 8.744199e-05
0.00060380815 0.00034806714 0.00012692365 4.936394e-05 0.0001852079 0.00014411837 0.00035696465 0.0006252119
0.0004924599 0.000353375 0.00024008674 0.0003400446 0.00013348041 0.0007323878 0.00026831776 0.00079714507
0.00015707343 7.1402115e-05 0.0002460867 4.699954e-05 0.00010233512 0.00032580364 0.00027900864 0.00012545407
0.00012121894 0.00028491722 0.00026716565 8.039867e-05 0.00027614084 0.0002841325 8.053766e-05 0.00074780243
4.821894e-05 0.0007830545 0.00014249088 0.00014886154 0.0004369112 0.000107616375 0.000162292 0.0001245446
0.00045960728 0.00022931004 0.0004025653 6.943674e-05 0.00015719229 0.0002912036 0.0006109855 0.00031814552

conv4.0.weight f4 [128, 64, 3, 3]
00000000: b0f7 bcba d436 7eba 6109 963a d163 06ba
00000010: d547 6d39 e3eb 8639 5ebc a2b9 ca67 deb9
00000020: df17 b5b9 0414 ae3a a66c 2439 d962 16b9
00000030: a242 ec39 63ed 0fba a67e 05ba 111a e8b9
00000040: 52f2 d239 038d 8938 c99a 4aba 9650 7aba
00000050: d40e 9bb9 6500 b839 4598 dfb9 604c 39ba
00000060: c121 a2b9 b17b b9b9 9233 0bba a47f 213a
00000070: ee02 13b9 8cc4 63b9 673a b939 12d1 87ba
00000080: f820 bdb7 4bf1 a4ba 554f 2eba eece ac3a
00000090: 5935 cd3a 80be c7b9 003d 49b8 bc3a 32ba
000000a0: a436 f1b9 0755 09ba 9ae4 40ba bdec 2538
000000b0: aa64 1cb8 7a17 c3b9 02c0 8db9 91d2 d13a
000000c0: 1060 0cba 4521 1439 1559 4b3a 8fb6 2639
000000d0: 867c b836 8aed 73b8 0427 2439 6768 d0b9
000000e0: 3e14 16ba f87d 0e3a 7fc5 13b9 d4c0 3eba
000000f0: b542 93b8 af91 f5b9 0408 0d3a a35d 6039
00000100: bf59 42ba 6f25 493a 1318 a6b8 f796 0fba
00000110: dfd2 0639 1b4c 3939 5d21 063a 456e 233a
00000120: 9096 c43a eb0e 48ba 45d1 d9b8 4ca8 4fba
00000130: a6b5 5cb9 889c 54b9 973d 83ba a71f 143a
00000140: 4bf3 ae39 5ac5 6a3a 1e2e 2eba b9b3 0538
00000150: 68ed 2a39 14e0 2bba 3a78 093a 97dd 563a
00000160: 05f6 c8b9 51ae 9039 fba2 89ba 0b03 80ba
00000170: e3d4 0a3b 59e0 72ba f506 5938 f12a 123a
00000180: dee3 8bba 4728 deb9 e996 ccba b269 75ba
00000190: dcb0 0b3b 28a9 8b39 a284 4b3a bbce dcb8
000001a0: 1471 34b8 a48c 073a 4020 c3b9 6ffe 82b9
000001b0: 7d94 2439 f6a5 15ba 4b87 bcb9 90cb 48ba
000001c0: a5c3 93ba 698b 5039 40cc 02bb 8819 4eba
000001d0: 76ed 82b9 0b49 67ba e021 3cba f8d5 d43a
000001e0: aef4 feb9 fb08 e939 7324 96b9 a333 22b9
000001f0: 5785 d7b9 7799 4dba fa27 1739 c1ce ccb9
00000200: 543e 613a f536 d0b9 f23e 203a 6a5c e5b9
00000210: b7bc 92ba 6d22 d6b9 0f95 baba 0c18 e8b9
00000220: 7123 5b3a 0b3a de39 b844 12b8 83c6 f439
00000230: 4f24 8b3a 0ce2 91b9 182c 30b9 13bc a93a
00000240: 3bbf 063a b7bc ebb9 8a14 1bba ccd2 2b39
00000250: 439c bab9 aaef 80ba 76cd 9839 da6b d337
00000260: 9e05 09ba a654 25b8 ba13 a2b8 2b00 a2ba
00000270: a0e9 a637 d4f8 72b9 7efa 3e38 2e0c 38ba
00000280: 38c3 1a38 a47a 1e3a 5885 49ba f2ca edba
00000290: a27c 9aba 5a06 55ba a264 e3b7 4420 2439
000002a0: 02b9 c338 2893 d639 4c80 2bb9 a99d abb9
000002b0: 5f0c b4b9 81eb d3b9 b53f 233a cd0f a03a
000002c0: 70d4 04ba 2ae1 1639 2be7 dd39 9cbd 8db9
000002d0: 32ef 5cba 82f2 3cb8 5416 133b 8f04 c8ba
000002e0: db63 98ba 72ad 1ab9 ef0a 783a 656f dbb9
000002f0: 6fa3 55b8 0e98 8eb9 ab61 9a39 da1d 8bba
00000300: 1e6b 6bba 5b97 47b9 27a5 0f39 874b c3ba
00000310: 874a 89b9 4316 02ba ea1c cb39 0472 7a3a
00000320: 826b fb3a 7afc a539 262b acb9 cd47 9d39
00000330: 6d83 3b38 d85b 48b9 3953 2239 6057 813a
00000340: 8305 743a 3378 6139 16b9 0aba 7708 2eba
00000350: 9990 0aba e261 2eba 8d92 8eb9 ecd8 1539
00000360: c10e ec3a 4301 5ab9 0355 1639 c6bf f1b9
00000370: d995 10ba 28be 1f38 c906 51b9 b879 f7b9
00000380: f1fc beb9 de7d a7b9 553d a3ba 63c6 05ba
00000390: 4db4 91ba 208c b5ba a34e c1b8 2109 fbba
000003a0: eadb 9237 9744 a1ba 1786 5d3a 81d0 afba
000003b0: 8915 5cba 3054 26ba 3c14 6e39 9247 a2ba
000003c0: 67a2 34ba 5c47 1fb8 c73d 5b39 f086 0639
000003d0: 7ec2 a4b9 1612 d3b9 7dd7 af39 8a1a 9439
000003e0: 8ee0 4dba 9642 afb9 1a84 8f3a 46ca 03b8
000003f0: 0389 bbba a2ad 2aba 6cb6 1e3a 2f1e 113b
-0.0014417078 -0.0009697501 0.0011446887 -0.0005126568 0.00022628841 0.0002573422 -0.00031039392 -0.00042420469
-0.00034540796 0.0013281112 0.00015680733 -0.00014341938 0.00045063073 -0.00054903905 -0.00050924195 -0.0004426991
0.00040234864 6.5589345e-05 -0.0007728753 -0.00095487514 -0.00029574952 0.0003509551 -0.00042647324 -0.00070685707
-0.00030924196 -0.00035378107 -0.0005310114 0.00061606825 -0.00014020104 -0.00021721626 0.00035329463 -0.001036199
-2.2545908e-05 -0.0012584118 -0.00066493946 0.0013184228 0.0015656158 -0.0003809817 -4.7978945e-05 -0.0006798913
-0.00046007812 -0.00052388053 -0.0007358283 3.9559545e-05 -3.728705e-05 -0.0003721079 -0.00027036673 0.0016008188
-0.00053548906 0.00014126774 0.00077571097 0.00015899002 5.4981238e-06 -5.815694e-05 0.00015654793 -0.00039750637
-0.0005725062 0.0005435641 -0.00014092585 -0.00072766584 -7.0219314e-05 -0.00046838584 0.00053799176 0.00021397187
-0.0007413886 0.00076731195 -7.919981e-05 -0.00054775126 0.00012857791 0.00017671326 0.0005116666 0.0006234388
0.0014998484 -0.00076316175 -0.00010386346 -0.00079215015 -0.00021048504 -0.00020276208 -0.0010012862 0.00056504685
0.00033369134 0.0008955799 -0.0006644445 3.187705e-05 0.00016300904 -0.00065565226 0.00052440504 0.00081964716
-0.00038330271 0.00027595696 -0.0010500842 -0.0009766532 0.002118402 -0.0009264998 5.174331e-05 0.0005575857
-0.0010672768 -0.0004237315 -0.001560894 -0.0009361758 0.0021315133 0.00026638177 0.0007763599 -0.00010528924
-4.3020656e-05 0.00051707984 -0.00037217326 -0.000249851 0.00015695575 -0.0005708629 -0.00035958955 -0.00076597277
-0.0011273517 0.0001988836 -0.0019958168 -0.0007862081 -0.00024972454 -0.0008822835 -0.00071766786 0.0016238084
-0.00048628956 0.00044447914 -0.00028637386 -0.0001546876 -0.00041107342 -0.00078429974 0.00014415375 -0.00039063956
0.00085923565 -0.00039713798 0.0006112895 -0.00043747138 -0.0011195157 -0.0004084291 -0.0014235097 -0.00044268405
0.0008359468 0.00042386385 -3.4873112e-05 0.0004668721 0.0010615679 -0.00027824973 -0.00016801094 0.0012949727
0.000514019 -0.00044963296 -0.00059158413 0.00016386359 -0.0003559311 -0.000983705 0.0002914478 2.5203382e-05
-0.0005226972 -3.94179e-05 -7.728436e-05 -0.0012359669 1.9897532e-05 -0.00023171614 4.553282e-05 -0.0007020858
3.6898273e-05 0.00060454966 -0.0007687411 -0.0018142147 -0.0011786411 -0.00081262516 -2.710737e-05 0.00015652279
9.332785e-05 0.000409269 -0.00016355625 -0.00032733128 -0.00034341493 -0.0004042052 0.00062274496 0.001221174
-0.0005067056 0.00014388995 0.00042324638 -0.00027034886 -0.0008427977 -4.5048546e-05 0.0022443729 -0.0015260148
-0.0011626439 -0.00014751198 0.00094620785 -0.0004185393 -5.0935367e-05 -0.0002719764 0.00029445937 -0.0010613755
-0.00089805 -0.00019034503 0.00013699067 -0.0014899828 -0.00026186203 -0.00049624237 0.0003874072 0.0009553733
0.001918182 0.00031659362 -0.00032838545 0.0002999887 4.4706674e-05 -0.00019107701 0.00015480527 0.0009867959
0.00093086826 0.0002150245 -0.0005291862 -0.00066388346 -0.0005285829 -0.0006652159 -0.0002719354 0.00014290557
0.0018009768 -0.0002079057 0.00014336784 -0.00046109984 -0.0005515493 3.808565e-05 -0.00019934321 -0.000472022
-0.0003642808 -0.000319465 -0.0012454191 -0.0005103109 -0.0011116356 -0.0013850965 -9.2176044e-05 -0.0019152501
1.7506962e-05 -0.0012303767 0.0008450462 -0.001341358 -0.0008395543 -0.00063449424 0.00022704987 -0.0012380949
-0.0006890655 -3.7975013e-05 0.00020908481 0.00012829504 -0.00031425426 -0.0004025853 0.00033539152 0.00028248533
-0.00078535907 -0.00033428211 0.0010949404 -3.1421216e-05 -0.00143078 -0.00065108587 0.00060544047 0.0022143235

conv4.0.bias f4 [128]
00000000: fc7b 92b9 a08f 1539 9273 a23a d310 8fb9
00000010: ff44 703a fa8d 92ba a9fd 70ba 18b7 7ab9
00000020: 31a6 0f39 6224 3f3a 84cb b0b8 9cd7 e739
00000030: 4695 8dba f71c 7aba 92ef 563a 9e08 5cb8
00000040: 23be 9e36 d69d 2cba 9cad 1f3a cecf e038
00000050: d3dd 7bb9 df67 02ba cc36 1eba f7bf ef37
00000060: 44d2 0a39 a62f 5a39 ab08 c5b9 a403 8d36
00000070: f7d1 7eb6 6a2c ebb8 50f7 03ba 8c5b 0fba
00000080: cf94 1839 891a 393a 52ba 3cba c472 fa39
00000090: 5727 243a 9505 c439 981e 113a a016 9bb7
000000a0: f6f2 0f3a 5b28 a6b9 f9b5 ab37 c758 23ba
000000b0: 9e3e 6eba 2f59 553a fd24 d239 64a4 d537
000000c0: 7859 0cb9 55bb 0d3a 55ec b239 bcff 4d3a
000000d0: 6dbe 183a c2e3 78b9 2b4a ae39 4054 3939
000000e0: 4795 95b9 ac66 a839 07ab b6b9 e560 5b3a
000000f0: 85ae a4b9 c1f4 4438 9c7a 07ba 781a f9b8
00000100: 6756 7b3a 140e 37ba b7ba 7f3a 8ef4 cdb9
00000110: 5959 89ba 7704 33b9 23ab 6dba 6ff0 833a
00000120: 55ec 6ab9 cc81 fe38 f0e3 77ba dab7 97b9
00000130: 8849 2bba 929d 2d39 1ebe 25ba 6ac2 4aba
00000140: dd48 a3b8 cb32 3aba 44b1 2fba 9e94 16b9
00000150: 14f4 85b8 e772 fdb9 c64c b7b9 576a c039
00000160: 4074 5e3a 2c84 383a 4582 3bba d4b2 8f39
00000170: dc2f 7e37 894e 50ba 0c8d 7839 8a82 473a
00000180: dd67 6f37 03d1 53b9 54eb 7838 01c1 5b3a
00000190: 1fd2 53b8 75bf 91ba 6924 a8ba 27ee efb9
000001a0: 4aa8 133a 0e21 f739 bdf3 43ba 8469 2fb9
000001b0: 05aa 4f3a ec6f 483a 0495 97ba 1353 213a
000001c0: 28f5 4a38 f492 a9b9 ed84 edb9 597c 063a
000001d0: 3678 6239 758c 96b9 555e 7db9 c80d 6d39
000001e0: b544 f2b9 7d86 83b8 6761 44ba 0131 68ba
000001f0: 6ad1 0d3a 0c03 d4ba 0c6b 1db8 880f 193a
-0.00027939666 0.00014263252 0.0012394062 -0.0002728762 0.00091655547 -0.0011181228 -0.0009193072 -0.00023910066
0.00013699454 0.0007291493 -8.430242e-05 0.00044220395 -0.0010801933 -0.0009541059 0.0008199151 -5.2460113e-05
4.7309018e-06 -0.00065847987 0.00060912385 0.00010719859 -0.00024019861 -0.00049745844 -0.0006035387 2.858041e-05
0.00013239036 0.0002080785 -0.00037581226 4.2025513e-06 -3.7971165e-06 -0.00011213946 -0.0005034106 -0.00054686586
0.00014551285 0.0007061144 -0.0007199395 0.00047769223 0.00062619656 0.00037388192 0.000553587 -1.8487975e-05
0.0005491221 -0.00031692054 2.0469526e-05 -0.00062311854 -0.000908831 0.00081385946 0.0004008188 2.5468129e-05
-0.0001338477 0.0005406638 0.00034126887 0.0007858237 0.00058267155 -0.0002373597 0.00033243126 0.0001767436
-0.00028530715 0.00032119954 -0.0003484117 0.00083686254 -0.00031410545 4.6957986e-05 -0.00051681115 -0.000118781754
0.0009587765 -0.0006982994 0.00097553007 -0.00039282854 -0.0010478898 -0.00017072434 -0.0009066334 0.0010066162
-0.0002240402 0.000121358404 -0.00094562676 -0.00028937944 -0.00065340893 0.00016557265 -0.000632258 -0.00077346584
-7.7860175e-05 -0.00071029057 -0.0006702135 -0.00014360479 -6.387397e-05 -0.0004834153 -0.0003496168 0.00036700323
0.00084859505 0.0007038738 -0.00071528956 0.00027408323 1.5150723e-05 -0.0007946273 0.00023703667 0.00076106994
1.4269693e-05 -0.00020200391 5.9346974e-05 0.0008382947 -5.050201e-05 -0.0011119681 -0.0012828234 -0.0004576307
0.0005632682 0.0004713614 -0.00074749795 -0.00016728608 0.0007921758 0.0007646072 -0.0011564796 0.00061540416
4.8388873e-05 -0.0003234368 -0.000453032 0.00051302236 0.00021597822 -0.00028714878 -0.00024163102 0.00022607215
-0.00046209028 -6.271617e-05 -0.0007491321 -0.00088574 0.0005409928 -0.0016175224 -3.7531412e-05 0.0005838801

conv4.2.weight f4 [128]
00000000: 7725 2e3f 99bb 2d3f d9de 2e3f 5c82 2e3f
00000010: 3ffc 2d3f ddda 2c3f 5756 2e3f b4a7 2e3f
00000020: d046 2d3f 8824 2d3f c6d4 2c3f 49a5 2d3f
00000030: 2d81 2c3f a1ad 2e3f 493a 2f3f 9fbd 2d3f
00000040: b4b1 2d3f 617f 2e3f 9a10 2d3f 5094 2e3f
00000050: 5682 2d3f ae9a 2f3f fa31 2e3f a796 2d3f
00000060: 03b0 2e3f a896 2e3f 482c 2e3f 7eb1 2f3f
00000070: 7434 2d3f 5f70 2e3f 208b 2d3f 1423 2d3f
00000080: 8395 2d3f 9446 2d3f 3cc7 2e3f c7ec 2c3f
00000090: 1bc8 2c3f fada 2d3f 521b 2e3f 16c3 2d3f
000000a0: 49ad 2c3f 08d7 2d3f 0f22 2f3f 4d1b 2e3f
000000b0: 8336 2f3f 3741 2e3f 625d 2e3f 560b 2e3f
000000c0: 5ff5 2e3f 2b32 2e3f 401c 2f3f cf5b 2e3f
000000d0: 4f81 2e3f 79e7 2e3f eba8 2d3f 12f9 2d3f
000000e0: aea2 2d3f 8397 2c3f b54c 2f3f b78f 2f3f
000000f0: 35bd 2c3f 0688 2d3f b900 2e3f 01af 2d3f
00000100: 6025 2f3f 90c0 2d3f 16f2 2d3f 3213 2d3f
00000110: 3a66 2e3f 5e37 2e3f f0ca 2e3f 65e4 2e3f
00000120: abe9 2d3f 7dc7 2c3f e749 2d3f 2ba9 2f3f
00000130: ef1d 2d3f fc4f 2e3f c3ca 2f3f 6761 2e3f
00000140: 235a 2d3f 3b2d 2f3f 9496 2d3f 2316 2f3f
00000150: e426 2e3f cb84 2d3f 0f57 2e3f f805 2d3f
00000160: 2c93 2e3f ddda 2d3f 8bb5 2e3f c101 2e3f
00000170: 8b57 2d3f 08e3 2c3f d5db 2d3f f336 2d3f
00000180: 0cb0 2c3f b8e8 2d3f 535f 2e3f 1277 2d3f
00000190: 1455 2f3f fef8 2c3f 1fb8 2e3f 0fba 2e3f
000001a0: f8c9 2d3f 15c3 2d3f 43e5 2d3f 13bc 2d3f
000001b0: 96e3 2d3f f72c 2f3f 5878 2d3f 38c0 2e3f
000001c0: 60b9 2e3f e97f 2e3f 8db1 2d3f b4cc 2d3f
000001d0: e4c9 2d3f 298e 2e3f 3441 2d3f c9b7 2d3f
000001e0: eced 2e3f a9e1 2f3f a465 2d3f 3564 2e3f
000001f0: 4aea 2e3f 8c84 2e3f 965a 2d3f dcdf 2d3f
0.68025917 0.67864376 0.6830879 0.6816766 0.6796302 0.6752146 0.68100494 0.68224645
0.67686176 0.6763387 0.67512167 0.6783033 0.67384607 0.68233687 0.6844831 0.67867464
0.6784928 0.68163115 0.67603457 0.68195057 0.67777 0.685954 0.6804501 0.67808
0.6823732 0.68198633 0.6803632 0.68630207 0.6765816 0.68140215 0.6779041 0.6763165
0.6780626 0.6768582 0.6827276 0.67548794 0.67492837 0.67912257 0.6801044 0.678758
0.6745191 0.67906237 0.68411344 0.6801041 0.68442553 0.6806826 0.6811124 0.6798605
0.68343157 0.680453 0.6840248 0.6810884 0.6816606 0.6832195 0.67835873 0.67958176
0.67826355 0.6741869 0.6847642 0.68578666 0.67476207 0.6778568 0.6796985 0.6784516
0.68416405 0.6787195 0.6794752 0.67607415 0.68124735 0.68053234 0.6827841 0.6831725
0.67934674 0.67491895 0.6769089 0.68617505 0.676238 0.68090796 0.68668765 0.68117374
0.6771566 0.6842839 0.6780789 0.6839315 0.6802809 0.6778075 0.6810159 0.6758723
0.68193316 0.67912084 0.6824576 0.67971426 0.67711705 0.6753392 0.6791356 0.6766197
0.67456126 0.67933226 0.68114203 0.6775981 0.68489194 0.6756743 0.68249696 0.6825265
0.67886305 0.67875797 0.6792795 0.67865103 0.67925394 0.68427986 0.67761755 0.6826205
0.6825161 0.68163925 0.67849046 0.6789048 0.67886186 0.6818567 0.6767762 0.6785856
0.6833179 0.68703705 0.67733216 0.68121654 0.68326247 0.68171 0.6771635 0.6791971

conv4.2.bias f4 [128]
00000000: b485 a9b8 733f a038 adb0 9038 b982 1bb8
00000010: 5a22 ff38 220c 9fb8 1d6c 31b8 ef35 97b8
00000020: 7496 d1b8 5673 4f38 aeed fab7 6bae 9438
00000030: 2d95 5d37 f963 ccb8 a574 1639 9d8b f837
00000040: efef aa37 6446 13b8 acb3 27b7 a0bb d3b8
00000050: 29a8 2cb8 37f5 a2b8 217e 84b8 d607 d4b8
00000060: f689 5338 8eee 3238 7b58 95b8 2d5c eeb8
00000070: 4eee a237 65b7 b636 7805 a5b8 ebc2 8eb8
00000080: b608 5038 5911 1038 7678 62b8 fdc8 3638
00000090: f14c d238 46ad c1b7 03fa e4b8 dabb 46b8
000000a0: 1c40 31b8 2a2d 60b8 8faf 86b8 5adf fdb7
000000b0: d27d 5ab8 668f be38 fd73 9e37 a72f f037
000000c0: 46b5 cdb6 e183 9538 52fa b7b6 ef75 1cb9
000000d0: 7bf7 b8b8 88fa 4cb8 cced 1238 fc0d 0b38
000000e0: 8cc4 4cb8 e054 1ab8 2fc0 cd36 b8eb cf38
000000f0: 7f9c 06b8 63bd 5838 5c01 3db8 3e48 4534
00000100: f361 8ab8 419b c2b8 280e f938 eafb 9f35
00000110: 61e9 cdb7 7bef 0fb8 110b afb8 f1d0 9d38
00000120: 2ae6 1338 01c1 d137 8ae9 c8b8 9da9 efb7
00000130: 7ac6 b2b8 9ae3 07b7 e63b 2736 4e46 bcb8
00000140: 6df0 d2b6 6268 66b8 9c4c 04b8 b105 fcb7
00000150: 30ef 9eb8 0bec f4b7 9fd7 e4b8 1459 8737
00000160: 34a7 b038 7587 01b8 e7a7 b737 bc12 3c38
00000170: 4cdb 88b8 43bf 6eb8 71da 8738 bedb 5b38
00000180: 6329 f037 9987 a7b8 bdd0 50b8 7ded 8638
00000190: 11fd 03b8 30ff a8b7 677f 90b8 cd15 62b8
000001a0: 0fb7 1bb9 3e6a ad37 23c9 50b8 2d24 43b8
000001b0: 47de 2738 ee56 aa38 695b b0b7 47f6 0cb9
000001c0: 6e0f ffb8 4f26 6bb8 af02 f837 21ff 6638
000001d0: 0134 d7b8 232a 9fb8 f7a8 65b8 a17c c738
000001e0: f317 9eb8 d8e7 eeb7 7278 18b8 7f1d 82b8
000001f0: 8121 afb8 a9a8 a8b8 e443 aeb8 6288 0cb9
-8.083452e-05 7.641213e-05 6.8993635e-05 -3.7076625e-05 0.00012165746 -7.583971e-05 -4.2300777e-05 -7.210287e-05
-9.993921e-05 4.946006e-05 -2.9913e-05 7.089678e-05 1.3207359e-05 -9.7460994e-05 0.00014348568 2.9628916e-05
2.0377307e-05 -3.5113088e-05 -9.995809e-06 -0.00010096212 -4.1164607e-05 -7.770437e-05 -6.317744e-05 -0.00010110407
5.0434806e-05 4.266068e-05 -7.1213544e-05 -0.000113658934 1.9422874e-05 5.4453726e-06 -7.868832e-05 -6.807394e-05
4.9599177e-05 3.434843e-05 -5.3994787e-05 4.3579366e-05 0.00010027912 -2.308808e-05 -0.000109184555 -4.738183e-05
-4.2259795e-05 -5.3447824e-05 -6.422318e-05 -3.0263956e-05 -5.209243e-05 9.086616e-05 1.8889079e-05 2.863242e-05
-6.130579e-06 7.129438e-05 -5.482966e-06 -0.00014921253 -8.8199005e-05 -4.8870716e-05 3.5030578e-05 3.3153206e-05
-4.882044e-05 -3.6795507e-05 6.131849e-06 9.914435e-05 -3.2093838e-05 5.1674793e-05 -4.5062377e-05 1.8373336e-07
-6.598597e-05 -9.279559e-05 0.00011875882 1.191974e-06 -2.454658e-05 -3.431689e-05 -8.3467115e-05 7.525262e-05
3.5261888e-05 2.5004616e-05 -9.580243e-05 -2.8570003e-05 -8.5246706e-05 -8.09962e-06 2.4919805e-06 -8.977634e-05
-6.286477e-06 -5.4933487e-05 -3.15426e-05 -3.0043391e-05 -7.578579e-05 -2.9196983e-05 -0.0001091205 1.6134734e-05
8.423478e-05 -3.088215e-05 2.1893486e-05 4.484014e-05 -6.5258326e-05 -5.692175e-05 6.4779895e-05 5.241832e-05
2.8629502e-05 -7.9884376e-05 -4.9785467e-05 6.4338536e-05 -3.146852e-05 -2.0145992e-05 -6.8901856e-05 -5.3902902e-05
-0.00014850147 2.067268e-05 -4.9778388e-05 -4.6525314e-05 4.0022915e-05 8.1224236e-05 -2.1023401e-05 -0.00013443186
-0.000121622215 -5.6064044e-05 2.9565153e-05 5.507388e-05 -0.000102616854 -7.5895594e-05 -5.4755215e-05 9.5122734e-05
-7.538488e-05 -2.8479772e-05 -3.6351797e-05 -6.204377e-05 -8.350891e-05 -8.04228e-05 -8.309612e-05 -0.00013402247
