hand_gesture_model.pth (torch, 410975 bytes, 26 tensors)

conv1.0.weight f4 [16, 1, 3, 3]
-0.02412689 0.06058058 -0.012373331 0.075105205 0.074502096 -0.019289643 -0.029728375 -0.011650553
-0.023817897 -0.007257992 -0.029916609 0.042268667 -0.0027533642 0.052583784 -0.030212011 -0.059821922
-0.0718495 -3.2206866e-05 -0.0064770216 0.08357372 -8.507585e-05 -0.0070503387 -0.0042936783 0.092494465
-0.0046838294 -0.014978209 0.07120827 0.012971992 -0.0031727361 -0.0039022835 0.05464815 0.04383311
-0.0024454682 0.096392624 -0.003552604 -0.005942349 -0.00916085 -0.031181166 -0.00040916543 0.067283064
-0.0010504227 -0.006868766 -0.038854137 0.04580069 -0.0073688673 0.05295597 0.066014424 -0.0050037513
-0.0067932284 -0.03575562 -0.012805522 0.06913701 -0.059334278 0.050807264 -0.06645998 0.05481296
-0.0810368 0.007019411 -0.07485397 -0.04391678 0.0033314747 0.09233721 -0.08607834 0.032138992
0.00031683798 0.0060598194 -0.036532287 0.0046510957 -0.01798786 0.012493358 0.0029262528 -0.0054577417
-0.02649225 7.257264e-05 -0.0194989 -0.07908165 -0.0014917528 0.000629957 0.053361602 -0.0011386715
-0.005479052 0.033346146 -0.014809651 -3.1647854e-05 0.0070101186 0.019820275 -0.035153795 -0.02448689
0.00809807 -2.8299046e-06 0.011644718 -0.015094936 -0.0033011886 0.07776589 0.08845293 -0.00079949695
0.08546772 -0.011842634 0.07493944 -5.4146894e-05 -0.02435914 0.0020743795 -0.0005803488 0.009602225
0.0042645084 -0.0018031038 0.052494798 -0.016002275 0.017673071 0.010858395 0.012898143 -0.024898294
-0.04242605 0.013487932 -0.0016375679 0.0028166792 0.00085313764 0.001836824 0.02989905 0.0023809252
0.01940437 0.00039300925 0.021795806 -0.014543128 0.069171384 0.0014508248 0.003972471 -0.07641483
-0.014268096 -0.05447226 -0.07710369 0.04641207 -0.04957721 0.0052257115 -3.2484313e-05 -0.0024106046
-0.0074796444 -0.007567273 0.00433509 -0.050571565 0.010592726 -0.017493483 0.03614052 0.027845139
00000000: c1a5 c5bc 5823 783d 83b9 4abc c2d0 993d
00000010: 8e94 983d 5005 9ebc ec88 f3bc f6e1 3ebc
00000020: c01d c3bc 73d4 edbb ad13 f5bc e921 2d3d
00000030: c971 34bb 1862 573d 2e7f f7bc d507 75bd
00000040: d525 93bd dc15 07b8 323d d4bb b328 ab3d
00000050: c06a b2b8 8706 e7bb fcb1 8cbb bd6d bd3d
00000060: cf7a 99bb 2967 75bc a4d5 913d 7a88 543c
00000070: aeed 4fbb 74bd 7fbb bdd6 5f3d 598a 333d
00000080: 2644 20bb 7f69 c53d ced2 68bb 09b8 c2bb
00000090: 6417 16bc a56f ffbc 4185 d6b9 b4cb 893d
000000a0: 56ae 89ba 6313 e1bb 8425 1fbd 8199 3b3d
000000b0: 8a76 f1bb 5ce8 583d 9232 873d 82f6 a3bb
000000c0: bb99 debb 7c74 12bd 41ce 51bc b497 8d3d
000000d0: 8008 73bd 471b 503d 2c1c 88bd 8e83 603d
000000e0: 9ff6 a5bd 1603 e63b 0a4d 99bd 15e2 33bd
000000f0: df54 5a3b 4b1b bd3d d749 b0bd 2da4 033d
00000100: 461d a639 7391 c63b e1a2 15bd 3868 983b
00000110: 475b 93bc f1b0 4c3c 60c6 3f3b dbd6 b2bb
00000120: 4606 d9bc 2432 9838 28bc 9fbc 8ff5 a1bd
00000130: eb86 c3ba b323 253a b291 5a3d 7a3f 95ba
00000140: 9f89 b3bb f895 083d 2ea4 72bc a0bd 04b8
00000150: 23b5 e53b 215e a23c 6dfd 0fbd bb98 c8bc
00000160: c4ad 043c 64e9 3db6 7dc9 3e3c c050 77bc
00000170: c158 58bb b943 9f3d cf26 b53d 5595 51ba
00000180: b309 af3d 9b07 42bc d979 993d c91b 63b8
00000190: d28c c7bc 50f2 073b 8c22 18ba a752 1d3c
000001a0: 4abd 8b3b 2056 ecba c904 573d 3417 83bc
000001b0: 1ec7 903c 69e7 313c bc52 533c 82f7 cbbc
000001c0: f0c6 2dbd 7dfc 5c3c a9a3 d6ba 0998 383b
000001d0: 19a5 5f3a 96c1 f03a daee f43c 4c09 1c3b
000001e0: eaf5 9e3c cf0c ce39 1e8d b23c 4d46 6ebc
000001f0: baa9 8d3d 9a29 be3a 812b 823b 617f 9cbd
00000200: bbc4 69bc 4e1e 5fbd 8ae8 9dbd 951a 3e3d
00000210: 7911 4bbd 723c ab3b c43f 08b8 3cfb 1dbb
00000220: ce17 f5bb e3f6 f7bb 5f0d 8e3b 2124 4fbd
00000230: 1d8d 2d3c 7e4e 8fbc 1508 143d 7d1b e43c

conv1.0.bias f4 [16]
-0.06282834 -0.002548462 0.0044403947 -0.030186493 -0.0016652774 0.0014844649 0.043393478 -0.053707536
0.00037929212 -0.03446582 0.0008593383 -0.03175507 0.021238785 -0.03702092 -0.0006253176 0.0312656
00000000: 25ac 80bd 1904 27bb bb80 913b aa49 f7bc
00000010: 7045 daba 6092 c23a 5cbd 313d 6ffc 5bbd
00000020: badb c639 082c 0dbd 3845 613a 9b11 02bd
00000030: f6fc ad3c 40a3 17bd 5bec 23ba 5c10 003d

conv1.2.weight f4 [16]
0.6851353 0.6851336 0.6841524 0.6828701 0.6853003 0.6809361 0.68284154 0.6865776
0.6818926 0.68356985 0.67598224 0.6859014 0.6832405 0.681528 0.6885896 0.6775867
00000000: 0765 2f3f ea64 2f3f 9d24 2f3f 93d0 2e3f
00000010: d76f 2f3f d451 2e3f b4ce 2e3f 8dc3 2f3f
00000020: 8390 2e3f 6ffe 2e3f 2c0d 2d3f 3c97 2f3f
00000030: d9e8 2e3f 9e78 2e3f 6847 303f 5276 2d3f

conv1.2.bias f4 [16]
0.00087108905 -0.0001742031 0.00040703942 -0.0010220998 0.00024653052 0.0004255549 0.001239641 -0.00020679258
-0.00012316192 -0.00017408462 0.0001634695 0.00016070326 -0.00023807015 0.00081688806 -0.00041657905 0.002334966
00000000: cc59 643a 4aaa 36b9 e867 d539 faf7 85ba
00000010: c440 8139 031d df39 737b a23a 76d6 58b9
00000020: 0725 01b9 7c8a 36b9 0369 2b39 7482 2839
00000030: 78a2 79b9 6e24 563a 4b68 dab9 3b06 193b

conv1.2.running_mean f4 [16]
0.006040238 0.0004331819 0.13144445 0.08443025 0.010906471 0.069967255 0.0021795821 1.4242841e-27
2.786445e-06 1.683924e-06 0.18663931 7.9987556e-05 0.014026712 0.044248734 2.4553344e-06 0.026267031
00000000: 30ed c53b b11c e339 6099 063e c4e9 ac3d
00000010: 0eb1 323c fe4a 8f3d 52d7 0e3b d4af e112
00000020: c3fe 3a36 3003 e235 601e 3f3e febe a738
00000030: 4bd0 653c 293e 353d 53c6 2436 f52d d73c

conv1.2.running_var f4 [16]
0.00014638696 6.5269724e-06 0.0016848822 0.0013856939 5.5626308e-05 0.0007402109 0.000106917934 1.9018471e-29
2.2546592e-08 1.04239675e-08 0.0031031442 5.2757184e-07 3.3999535e-05 0.00047720972 2.4483343e-08 7.324545e-05
00000000: 737f 1939 4402 db36 44d7 dc3a 2ca0 b53a
00000010: 4b50 6938 b60a 423a 2139 e038 c6de c00f
00000020: 7bac c132 1815 3332 1f5e 4b3b 769e 0d35
00000030: b99a 0e38 0132 fa39 714f d232 5a9b 9938

conv2.0.weight f4 [32, 16, 3, 3]
-0.0003807586 -0.00079834234 0.00044035606 0.0006709958 0.00064867 0.00158321 -0.0019756434 -0.0004213255
0.0024240743 3.094714e-05 2.9676648e-05 7.8371304e-05 0.0005868078 0.000580291 0.0001546272 0.00022560875
0.0001941671 0.00015190689 -0.00048539814 -0.00043513352 -0.002969708 0.0007885618 -0.00076351926 -0.0024490957
-0.00010878097 -0.0012288791 -0.0024588055 0.0015811052 0.00041740533 -0.0005591442 0.0016679496 -0.00045941502
-0.00032308462 0.0016348494 0.00014551955 -0.0003978776 0.00057235477 0.0012532301 0.0019122466 -0.00034309685
0.001664065 0.0017733544 -0.0011579198 -0.0004511536 -0.0015307857 0.0011725178 0.00089929404 -0.0018143515
0.00040570056 0.00050594524 -0.0018306173 0.0018821566 -4.6856105e-05 -0.00028324308 0.0013099855 0.0003836506
0.0025251983 1.05415975e-05 4.6297144e-05 0.0038932262 -4.7709014e-05 2.5401048e-05 0.0024576187 -1.7716601e-06
0.00032953246 3.091454e-05 2.358321e-05 0.0004356711 0.00014018378 -3.3875588e-06 -0.0004943981 5.527959e-05
8.801406e-05 -1.9535826e-05 -3.858422e-05 -2.932782e-05 -1.5537187e-05 1.1522736e-05 1.6597647e-05 3.758104e-05
1.0394849e-05 2.4981448e-06 0.00033371395 -3.6020945e-05 -1.767516e-05 0.0003485949 0.00013503386 3.3704234e-06
9.540998e-05 0.00014918901 0.00035453343 -2.9727995e-05 -0.00079440733 0.0017731502 -0.0003170556 -0.00043283062
0.0010745121 -0.000386049 -0.00086679566 0.00040944523 0.00018159398 0.00018933427 3.75782e-07 0.00047479823
-1.6444079e-06 -1.1808079e-06 8.611877e-05 -5.9788494e-05 -0.0028491747 -0.0034397321 -0.002961983 -0.0011226228
-0.001058033 -0.0010591716 -0.0022696846 0.0006133923 -0.00065160537 0.0007720703 -0.00045584238 -0.00066721987
0.001138889 -0.0020675145 -0.00064356107 -8.612486e-05 -0.00085758104 -0.0019019594 1.1798011e-05 -3.38237e-07
1.2365453e-05 5.148498e-06 1.6541976e-06 -3.2857195e-06 8.751822e-06 -3.6321626e-06 -8.720563e-06 0.0005670067
0.00011332775 -0.0010380408 -0.0013132205 -0.0016306866 -0.0017900845 -0.0016525106 -0.0023493634 -0.004757523
-0.00015042546 0.00085436413 8.717506e-06 -0.0012753443 -0.0005431797 0.0015473132 -0.0012511524 0.00015661208
0.0014878578 -7.888733e-05 -4.5082095e-05 -2.8430117e-05 -8.951131e-05 0.00015768223 0.00053058437 -0.0003689198
-0.00047346446 -0.0004072694 -4.7835976e-05 0.0008840488 -0.002813102 0.00073836325 0.0002846991 -0.0031149364
0.0024183607 0.001516064 -0.001887995 0.0010476293 -0.0012832928 -0.0020931952 -0.00076407933 0.00012491111
0.0016044894 -0.0009196906 0.00029803024 0.003132304 0.0019625158 -0.0024373438 -0.0019497252 -1.7117583e-05
-0.0016122736 0.0021767437 0.0009810913 0.0025615513 0.001074943 0.0025025965 9.4439136e-05 -0.00036119737
-0.000380488 -0.0012927167 -0.004338885 0.0008130353 -0.0013241386 -0.0009672277 -0.0011239864 -0.0006126551
0.0008691316 -0.00100112 -0.0008887358 0.0018025716 -0.0009929272 -0.0011192064 0.0008400019 -4.0564988e-05
-1.1406414e-06 0.0011162147 -2.0296888e-07 -1.953334e-06 0.00022482217 -1.5641217e-06 4.000442e-05 2.2843293e-05
-4.027534e-05 -6.4103915e-05 -0.00017015885 1.5559503e-05 -0.0001675408 0.00010126648 7.203433e-06 -2.8853015e-05
-3.41469e-05 -6.149738e-07 0.00044779482 0.00020521609 -6.478277e-06 -5.409578e-06 0.00028853418 -1.2015237e-05
-5.5163982e-05 0.0002574834 0.00032152166 -0.0010981233 -0.0012034028 0.00017949885 -0.000346846 -0.00043939875
0.0018764205 -0.00038722737 0.0024622218 -9.2612216e-05 -9.218831e-05 -0.00014523085 -0.000109458175 -0.00051415164
-5.8479724e-05 -0.0001614478 -3.7015885e-05 -7.469679e-05 0.0001502213 0.0017541462 0.0014421182 0.00078360573
00000000: 8ea0 c7b9 d947 51ba 97df e639 c4e5 2f3a
00000010: 820b 2a3a b683 cf3a cc79 01bb 5ae5 dcb9
00000020: 38dd 1e3b 3dcd 0138 1ef2 f837 465b a438
00000030: 01d4 193a ab1e 183a 6c23 2239 6391 6c39
00000040: 5699 4b39 3249 1f39 097d feb9 a222 e4b9
00000050: 6f9f 42bb 7db7 4e3a e926 48ba 0281 20bb
00000060: 5721 e4b8 5712 a1ba e923 21bb 163d cf3a
00000070: 32d7 da39 8893 12ba 1a9f da3a a4dd f0b9
00000080: af63 a9b9 7148 d63a 9b96 1839 3a9a d0b9
00000090: 140a 163a 6d43 a43a 59a4 fa3a aee1 b3b9
000000a0: c21c da3a e66f e83a 57c5 97ba d088 ecb9
000000b0: a5a4 c8ba 2baf 993a 9abe 6b3a 89cf edba
000000c0: 35b4 d439 69a1 043a 53f1 efba b2b2 f63a
000000d0: 5c87 44b8 3e80 94b9 d2b3 ab3a b624 c939
000000e0: cc7d 253b d1db 3037 2e2f 4238 7f25 7f3b
000000f0: 2a1b 48b8 5614 d537 0010 213b c7c9 edb5
00000100: 19c5 ac39 3caa 0138 8fd4 c537 c96a e439
00000110: 4cfe 1239 d155 63b6 7f9a 01ba 02dc 6738
00000120: 3094 b838 dee0 a3b7 7ed5 21b8 0405 f6b7
00000130: db55 82b7 c651 4137 2d3b 8b37 56a0 1d38
00000140: 8965 2e37 cda5 2736 54f6 ae39 3215 17b8
00000150: 1e45 94b7 9ec3 b639 e097 0d39 6f2f 6236
00000160: d816 c838 9f6f 1c39 ace0 b939 6260 f9b7
00000170: c63f 50ba 0c69 e83a 7b3a a6b9 8bed e2b9
00000180: a5d6 8c3a 9f66 cab9 ac39 63ba cfaa d639
00000190: 436a 3e39 0888 4639 16bf c934 57ee f839
000001a0: 6db5 dcb5 407c 9eb5 aa9a b438 68c5 7ab8
000001b0: 38b9 3abb 216d 61bb d41d 42bb f824 93ba
000001c0: b2ad 8aba e7d3 8aba fdbe 14bb 0fcc 203a
000001d0: 7fd0 2aba c364 4a3a 21fe eeb9 5ee8 2eba
000001e0: c646 953a 237f 07bb a7b4 28ba ef9d b4b8
000001f0: 4acf 60ba 2b4b f9ba 12f0 4537 f096 b5b4
00000200: 3775 4f37 43c1 ac36 cc05 de35 3b80 5cb6
00000210: cad4 1237 14c0 73b6 884e 12b7 2da3 143a
00000220: 5faa ed38 df0e 88ba 5e20 acba c3bc d5ba
00000230: 45a1 eaba 0e99 d8ba c7f7 19bb ffe4 9bbb
00000240: 87bb 1db9 68f7 5f3a 6741 1237 7429 a7ba
00000250: 2c64 0eba 37cf ca3a b5fd a3ba 3c38 2439
00000260: 3904 c33a 5070 a5b8 8816 3db8 367d eeb7
00000270: 05b8 bbb8 8057 2539 ea16 0b3a 946b c1b9
00000280: 533b f8b9 c686 d5b9 7da3 48b8 83bf 673a
00000290: 055c 38bb b88e 413a ab43 9539 f623 4cbb
000002a0: 5c7d 1e3b abb6 c63a 9a76 f7ba 9b50 893a
000002b0: 2934 a8ba fd2d 09bb 7f4c 48ba 92fa 0239
000002c0: bb4d d23a 6417 71ba f140 9c39 5747 4d3b
000002d0: 8d9d 003b d8bb 1fbb ec8d ffba bb97 8fb7
000002e0: ed52 d3ba b3a7 0e3b f697 803a b3df 273b
000002f0: 1ae5 8c3a 9a02 243b a00d c638 175f bdb9
00000300: 3c7c c7b9 6070 a9ba 352d 8ebb e021 553a
00000310: b88e adba 8d8d 7dba ba52 93ba 969a 20ba
00000320: 6fd6 633a 0338 83ba 0dfa 68ba 4444 ec3a
00000330: 1c25 82ba 56b2 92ba 9333 5c3a 5324 2ab8
00000340: 2418 99b5 f34d 923a a9ef 59b4 0616 03b6
00000350: 3ebe 6b39 d0ee d1b5 6bca 2738 999f bf37
00000360: 51ed 28b8 876f 86b8 ab6c 32b9 c785 8237
00000370: e4ad 2fb9 075f d438 05b5 f136 6109 f2b7
00000380: f438 0fb8 ae14 25b5 01c6 ea39 462f 5739
00000390: fa5f d9b6 ec83 b5b6 6746 9739 0d95 49b7
000003a0: e05f 67b8 d6fe 8639 e891 a839 e7ee 8fba
000003b0: 7fbb 9dba db37 3c39 e2d8 b5b9 1a5f e6b9
000003c0: 39f2 f53a c704 cbb9 3a5d 213b ce38 c2b8
000003d0: 3955 c1b8 1c49 18b9 e98c e5b8 22c8 06ba
000003e0: 2048 75b8 504a 29b9 8141 1bb8 89a6 9cb8
000003f0: b984 1d39 61eb e53a 7505 bd3a e46a 4d3a

conv2.0.bias f4 [32]
-0.0015781914 0.00011563929 -0.0014254206 -0.0011090849 -0.0019480998 0.0028703457 0.0022651053 -0.003196321
-0.0008266027 0.003415405 -0.0010768472 0.0003385653 0.00292882 0.0021188336 -0.0042037116 0.0021404612
-0.005676546 -0.0024091525 -0.00045426222 -0.0012355017 -0.0032366721 4.1220166e-05 -0.005326549 -0.0035363475
-0.0049846456 -0.0010237774 -0.0051601497 -0.002141651 -0.0024602588 0.0019258087 -0.001968424 0.0007136265
00000000: 51db ceba 5f83 f238 2ed5 baba b75e 91ba
00000010: 6257 ffba 691c 3c3b 2972 143b 5e79 51bb
00000020: 5eb0 58ba fdd4 5f3b ff24 8dba 7781 b139
00000030: 72f1 3f3b 21dc 0a3b 4abf 89bb fb46 0c3b
00000040: 5202 babb dfe2 1dbb 0b2a eeb9 8ff0 a1ba
00000050: 591e 54bb d1e3 2c38 558a aebb 11c2 67bb
00000060: 3d56 a3bb 4530 86ba 7916 a9bb f15a 0cbb
00000070: 4b3c 21bb 6b6b fc3a ad00 01bb aa12 3b3a

conv2.2.weight f4 [32]
0.6839024 0.6804206 0.6809001 0.67570865 0.6799454 0.6844426 0.68319285 0.6834465
0.681357 0.6824611 0.6786466 0.68522495 0.684046 0.6849197 0.6847293 0.6778339
0.67927957 0.67868936 0.6849327 0.6817488 0.68141663 0.6840454 0.68302554 0.68186444
0.6817516 0.6819882 0.6875957 0.68417424 0.68335176 0.6833294 0.681738 0.6825665
00000000: 3a14 2f3f 0b30 2e3f 784f 2e3f 3efb 2c3f
00000010: e710 2e3f a137 2f3f bae5 2e3f 5af6 2e3f
00000020: 6a6d 2e3f c5b5 2e3f c9bb 2d3f e76a 2f3f
00000030: a31d 2f3f e656 2f3f 6b4a 2f3f 8686 2d3f
00000040: 44e5 2d3f 96be 2d3f c057 2f3f 1787 2e3f
00000050: 5271 2e3f 991d 2f3f c3da 2e3f ab8e 2e3f
00000060: 4687 2e3f c796 2e3f 4606 303f 0b26 2f3f
00000070: 24f0 2e3f adee 2e3f 6286 2e3f aebc 2e3f

conv2.2.bias f4 [32]
0.00023842618 0.000800214 0.0001835888 0.0004899631 0.0011213458 0.00023797396 0.0005172847 0.00010200567
2.9726893e-05 0.00028509973 0.0007793503 3.3228946e-05 0.00057370163 -0.00015796146 0.0007589332 0.0009389973
0.0008601284 0.0008937521 0.0009446178 0.00087843736 0.0005153483 0.0007329257 0.00048012866 0.0005537286
0.0007791282 0.00036289555 -0.0004709726 0.0009107959 0.00036684374 0.00019930981 9.679131e-05 0.0015030382
00000000: 0a02 7a39 74c5 513a be81 4039 de70 003a
00000010: 1ffa 923a a688 7939 639a 073a e1eb d538
00000020: 045e f937 7079 9539 504d 4c3a 4f5f 0b38
00000030: 7764 163a 75a2 25b9 25f3 463a 0b27 763a
00000040: 3d7a 613a b04a 6a3a 3aa0 773a ef46 663a
00000050: 7018 073a d021 403a c7b9 fb39 1928 113a
00000060: 693e 4c3a 0443 be39 dfec f6b9 7ac2 6e3a
00000070: ef54 c039 d2fd 5039 70fc ca38 9801 c53a

conv2.2.running_mean f4 [32]
0.0067448854 0.0073701343 0.005045089 0.005872201 0.0056290105 0.0073645636 0.011571747 0.003132247
0.010395973 0.010243946 0.004780753 0.009513106 0.0084160715 0.008846027 0.004389306 0.011012899
0.004686081 0.007786424 0.0077554514 0.007172797 0.0050647436 0.0047062417 0.004440599 0.0057516852
0.004290543 0.010631874 0.003917803 0.008781494 0.0054706684 0.008568613 0.0047487183 0.007595814
00000000: 3304 dd3b 2b81 f13b 4651 a53b 986b c03b
00000010: 9073 b83b 7052 f13b 6d97 3d3c 6246 4d3b
00000020: df53 2a3c 39d6 273c dda7 9c3b dcdc 1b3c
00000030: 90e3 093c edee 103c 2bd4 8f3b 726f 343c
00000040: b28d 993b 4225 ff3b 7121 fe3b c809 eb3b
00000050: 26f6 a53b d136 9a3b 7282 913b a278 bc3b
00000060: af97 8c3b 5031 2e3c ea60 803b 41e0 0f3c
00000070: 4b43 b33b 5e63 0c3c 239b 9b3b 4ee6 f83b

conv2.2.running_var f4 [32]
0.00021276124 0.0001955333 8.8671106e-05 0.00010163109 9.68148e-05 0.00020695198 0.00019537027 0.00010954663
0.00020300708 0.00012626531 7.64421e-05 0.00017441869 9.8812765e-05 0.00024166856 9.383015e-05 0.00020208443
6.654808e-05 0.00018868211 9.718432e-05 0.00012377 8.909086e-05 6.641651e-05 8.2486964e-05 9.411353e-05
8.906802e-05 0.00029421176 0.00017712811 0.0002169973 9.9336154e-05 0.00021157117 0.00012844443 0.00013276072
00000000: a918 5f39 1208 4d39 f0f4 b938 c722 d538
00000010: 0d09 cb38 4001 5939 4fdc 4c39 66bc e538
00000020: 4cde 5439 1666 0439 8a4f a038 29e4 3639
00000030: b339 cf38 6968 7d39 aec6 c438 a0e6 5339
00000040: ba8f 8b38 f8d8 4539 6fcf cb38 42c8 0139
00000050: 4bd6 ba38 1849 8b38 dafc ac38 d15e c538
00000060: 07ca ba38 6f40 9a39 77bb 3939 c589 6339
00000070: b152 d038 34d9 5d39 0aaf 0639 af35 0b39

conv3.0.weight f4 [64, 32, 3, 3]
0.00017345548 -0.00033982663 -0.001829122 0.0007698755 -5.2894342e-05 -0.0012894948 0.0008460635 -0.0006388986
-0.0007699337 -0.0015168888 -0.00020063232 0.00028119172 -0.0005098227 -0.0015066758 -0.00033637474 -0.0025844034
-0.00090260454 0.0020218748 0.00088708004 2.9477897e-05 -0.0020816773 5.210238e-05 -0.00030096315 -0.00065675087
0.0005529131 -0.00017342195 -0.00047839608 -0.0009917193 0.0018926939 0.0031288944 0.0023089019 0.0019520872
0.00015379363 0.00047020765 0.0010032544 0.001875615 0.00026264775 0.0037756858 0.0033359737 0.0007823926
-0.0004479764 -0.0021313115 -0.002263254 -0.001200824 -0.0005931371 0.00043958522 0.00043379524 0.0013046461
0.0014455005 0.0014040496 0.0025212518 0.0004530311 0.00042376455 0.0010194824 0.00091769785 0.0019586396
-0.00039088834 -0.0030694776 -0.00017693835 0.0009516334 -0.002816478 0.0009926516 -0.00010386852 -0.00067619863
-0.0004927501 -0.00028739765 -0.0010286235 -0.00020549525 -0.0014569366 -0.00024718186 -0.0003173591 -0.0002893763
0.0017357892 -0.0009721837 -0.0042712414 7.095711e-05 -3.9245046e-05 -0.0020882834 0.0013100993 -5.042652e-05
-0.0039058512 0.0012248 0.0008796053 -0.0013584133 -0.0001603099 -0.0012309693 -0.0018954199 0.0013060655
0.0014762394 -0.0011202642 0.0035035335 0.0032341944 0.0015079282 0.00048465424 0.0012469054 0.00019366488
0.002567447 0.00044085924 -0.0027325551 -0.0005780698 -0.0001741133 0.0002925311 -0.0004676237 0.0007022688
0.0004863374 -0.002015313 0.0007274596 0.002146058 0.0025975439 0.0016216735 0.0010348882 -0.00029743323
-0.0014133059 -0.0011984397 -0.0004555762 0.0007422245 2.839791e-05 -0.00038319064 -0.0018044444 -0.0021547163
0.0025947306 -0.0006075995 -0.0009862949 0.0022956615 -0.0008455923 -0.00023348571 0.0038200764 0.0033271054
-0.0029162422 0.002858114 -3.768819e-05 -0.0025212155 0.0027443462 0.0006495559 -0.0017805799 -0.001316184
0.0013805185 -0.0007057191 -0.0018765058 -0.0015942719 0.0010136596 -0.0015990215 0.0005761637 0.0020831262
0.0012940682 0.0028336765 0.0037915467 -0.0025722974 0.0011653727 -0.0011011364 -0.0031637459 0.0013676088
0.000891158 -0.0011795581 -0.0014588193 -0.0017240985 0.0007066432 -0.0001376975 -0.0015707123 -0.0004456221
-0.0014170505 0.00026149562 0.0025437458 0.0011790869 0.001583436 0.00040097476 -7.273037e-06 -0.0004008199
-0.0029400233 -0.0009946818 0.0015402514 0.0015537479 0.0018437447 -0.0002165255 -0.001782039 -0.0013954353
-4.1715288e-05 -0.00023552489 0.00038855945 0.00083150103 0.00075423083 0.0037191757 0.004048038 0.00085913436
0.0025611122 0.0013585594 -0.0008612092 0.0003599541 0.0017884425 0.0020507395 0.0019009184 0.0008435201
-0.0011400802 -0.00049082236 0.00028378103 0.0007022602 -0.00034846034 0.00041389372 0.000589558 0.00067030394
-0.00012766926 0.0012018731 0.0010709629 0.00047767555 0.0010921421 -8.343587e-05 0.00045333855 0.0003722618
-0.0021112654 -0.0023133594 -0.00027584992 -0.0014638592 -0.0004384674 -0.00011906205 -0.001341865 0.00070496823
-0.0013598241 0.0018781639 -0.0027412276 0.0009593602 -0.0010313417 0.00041645244 0.0005815229 -0.00045154517
-0.003435009 0.0013554757 -0.00037585045 -0.0020418728 3.520914e-05 -0.00076529634 -0.0013903393 -0.0013336724
-0.00029816586 0.0013744879 -2.2603655e-05 -0.00096988486 -0.00086621643 -0.00068053306 -0.0006549914 -0.0008500736
-0.0006341306 -0.0006813458 -0.0009938804 0.00059781125 0.003084466 0.0026049193 -0.0011256752 0.0007975036
0.0010187373 -0.0009888519 0.002003219 0.000851492 0.0008707214 0.0012683022 0.0002807076 0.00031455353
00000000: 9ae1 3539 c22a b2b9 26bf efba 78d1 493a
00000010: deda 5db8 4404 a9ba 5cca 5d3a c27b 27ba
00000020: 60d5 49ba 58d2 c6ba d460 52b9 ea6c 9339
00000030: 9fa5 05ba a77b c5ba 745b b0b9 185f 29bb
00000040: c49c 6cba 6e81 043b ef8a 683a 4d47 f737
00000050: c06c 08bb 8188 5a38 97ca 9db9 ce29 2cba
00000060: 5ff1 103a 9ad8 35b9 3cd1 fab9 94fc 81ba
00000070: 4514 f83a 230e 4d3b f250 173b 2ddd ff3a
00000080: aa43 2139 3486 f639 a27f 833a 32d7 f53a
00000090: fcb3 8939 7f71 773b 5aa0 5a3b 7b19 4d3a
000000a0: 60de eab9 79ad 0bbb 1a53 14bb f864 9dba
000000b0: c27c 1bba 2178 e639 036f e339 a900 ab3a
000000c0: f376 bd3a 1608 b83a 963b 253b ce84 ed39
000000d0: b72c de39 27a0 853a a991 703a 855c 003b
000000e0: 25f0 ccb9 4a29 49bb 8788 39b9 0977 793a
000000f0: a994 38bb dc1b 823a fdd3 d9b8 ec42 31ba
00000100: e62b 01ba dcad 96b9 e1d2 86ba 367a 57b9
00000110: aef6 beba 3098 81b9 3863 a6b9 6eb7 97b9
00000120: 6c83 e33a 25da 7eba c5f5 8bbb cfce 9438
00000130: 0c9b 24b8 95db 08bb a3b7 ab3a 1081 53b8
00000140: 4ff9 7fbb 7889 a03a 5095 663a c90c b2ba
00000150: dc18 28b9 7a58 a1ba bd6f f8ba 4930 ab3a
00000160: 607e c13a d4d5 92ba 8a9b 653b c7f4 533b
00000170: ada5 c53a 3119 fe39 346f a33a 8512 4b39
00000180: 9d42 283b 2023 e739 ab14 33bb 9c89 17ba
00000190: 2f92 36b9 dc5e 9939 642b f5b9 7618 383a
000001a0: 1afb fe39 5713 04bb fdb2 3e3a e1a4 0c3b
000001b0: 8e3b 2a3b 558e d43a 16a5 873a d0f0 9bb9
000001c0: ad3e b9ba f714 9dba 67da eeb9 d891 423a
000001d0: 0c38 ee37 fae6 c8b9 1b83 ecba 2436 0dbb
000001e0: 5b0c 2a3b 5047 1fba 9146 81ba cf72 163b
000001f0: bdaa 5dba d8d3 74b9 3f5a 7a3b 910b 5a3b
00000200: 6d1e 3fbb 324f 3b3b 6313 1eb8 fa3a 25bb
00000210: 7dda 333b f546 2a3a 5962 e9ba ce83 acba
00000220: 84f2 b43a 0200 39ba 16f5 f5ba e3f6 d0ba
00000230: c6dc 843a 4296 d1ba b109 173a 0f85 083b
00000240: b99d a93a 34b5 393b 997b 783b fd93 28bb
00000250: 6bbf 983a 0254 90ba d956 4fbb 5641 b33a
00000260: 9a9c 693a 679b 9aba da35 bfba 25fb e1ba
00000270: 063e 393a e462 10b9 5ce0 cdba 63a2 e9b9
00000280: 53bc b9ba 5919 8939 f9b4 263b 978b 9a3a
00000290: 4c8b cf3a ec39 d239 ea0a f4b6 2325 d2b9
000002a0: 68ad 40bb fc5f 82ba 43e2 c93a 21a7 cb3a
000002b0: cea9 f13a 1f0b 63b9 4e93 e9ba 0ae7 b6ba
000002c0: 73f7 2eb8 3bf7 76b9 91b7 cb39 17f9 593a
000002d0: 93b7 453a 6abd 733b 67a5 843b 8837 613a
000002e0: 55d8 273b b011 b23a c5c2 61ba 39b8 bc39
000002f0: 2c6a ea3a b365 063b 3d28 f93a ad1f 5d3a
00000300: be6e 95ba 88aa 00ba 72c8 9439 e217 383a
00000310: 8eb1 b6b9 e0ff d839 918c 1a3a 56b7 2f3a
00000320: f5de 05b9 2b88 9d3a 8d5f 8c3a 8770 fa39
00000330: 3526 8f3a 4bfa aeb8 12ae ed39 222c c339
00000340: 285d 0abb bb9b 17bb f39f 90b9 f7de bfba
00000350: 19e2 e5b9 f4b0 f9b8 85e1 afba 9ecd 383a
00000360: 203c b2ba b92c f63a 2ba6 33bb 937d 7b3a
00000370: 162e 87ba 4d57 da39 5771 183a 5ebd ecb9
00000380: e31d 61bb 38aa b13a cb0d c5b9 f1d0 05bb
00000390: 87ad 1338 2b9e 48ba 0c3c b6ba 9fce aeba
000003a0: 2553 9cb9 2928 b43a fb9c bdb7 df3f 7eba
000003b0: cd12 63ba cd65 32ba bbb3 2bba 79d7 5eba
000003c0: c93b 26ba 589c 32ba 1845 82ba 6fb6 1c3a
000003d0: c124 4a3b 4bb7 2a3b 648b 93ba 900f 513a
000003e0: 2787 853a 5d9c 81ba 7048 033b a936 5f3a
000003f0: 2041 643a 293d a63a f02b 9339 a9ea a439

conv3.0.bias f4 [64]
-0.001141306 0.000836664 -0.0022072874 -0.0022010242 -0.0005794897 -0.00015614154 -0.0037145866 -0.0011392019
-0.0016895218 -0.0012851972 -0.004458887 -0.00011564934 -0.0016947873 -0.0051096235 -0.0018552722 -0.002725582
-0.0020414775 -0.00091347087 -0.002476712 -0.002029618 -0.0011407444 -0.0019085123 -0.002724215 -0.0018893412
-0.0001326914 -0.0016138407 -0.0015322972 -0.0009338941 -0.00695692 -0.0009326791 -0.0006101059 -0.00091333996
-0.0013106518 0.00025184496 -0.0039379424 -0.0016599784 -0.004969023 -0.0011379448 -0.0020147013 -0.0031471022
-0.001445438 -0.0031173574 -0.0033597394 -0.0040125526 -0.0021686598 -0.0035667566 -0.004124897 -0.0005709741
-0.0023298755 -0.00312809 -0.0027968953 -0.003285292 -0.002697936 -0.0016137543 -0.0010141074 -0.0019246906
-0.0025518665 -0.0026632608 -0.000306111 -0.00049798074 -0.0013545273 -0.0031025812 -0.0011331128 -0.0053707436
00000000: e097 95ba 9253 5b3a 23a8 10bb 0f3f 10bb
00000010: e5e8 17ba edb9 23b9 6c70 73bb 4651 95ba
00000020: f272 ddba 1074 a8ba db1b 92bb c488 f2b8
00000030: a023 deba a16e a7bb 9b2c f3ba ae9f 32bb
00000040: 4fca 05bb fe75 6fba 5550 22bb 5703 05bb
00000050: 0885 95ba 0c27 faba be88 32bb c5a3 f7ba
00000060: 1423 0bb9 8287 d3ba 5dd7 c8ba 92d0 74ba
00000070: e0f6 e3bb 097f 74ba 84ef 1fba 356d 6fba
00000080: 2dca abba 0f0a 8439 db09 81bb a293 d9ba
00000090: 30d3 a2bb 1727 95ba 1409 04bb 9d3f 4ebb
000000a0: da74 bdba 944c 4cbb 132f 5cbb bb7b 83bb
000000b0: 1320 0ebb 3fc0 69bb 252a 87bb 6cad 15ba
000000c0: d3b0 18bb a400 4dbb 1e4c 37bb 0e4e 57bb
000000d0: dbcf 30bb 9c84 d3ba cceb 84ba e645 fcba
000000e0: 373d 27bb 1a8a 2ebb 867d a0b9 ec8a 02ba
000000f0: 658a b1ba ad54 4bbb f584 94ba 10fd afbb

conv3.2.weight f4 [64]
0.6854109 0.68356556 0.6763218 0.6849925 0.6785375 0.6832958 0.67902184 0.6852921
0.68436116 0.68629736 0.68485653 0.68218625 0.6809352 0.6808902 0.68512994 0.6821874
0.6845806 0.6851249 0.68311757 0.68408775 0.6841999 0.6797934 0.68767554 0.68260133
0.68594104 0.67931587 0.6803532 0.6813327 0.6835844 0.68316793 0.6852304 0.6768475
0.6840817 0.6813225 0.6820223 0.67437345 0.6842137 0.6850826 0.6813524 0.68123174
0.6808786 0.6801859 0.67867017 0.68658847 0.6834713 0.6837912 0.67849576 0.6854187
0.6834534 0.68206835 0.68059087 0.68284786 0.6827223 0.6813161 0.6863532 0.68030167
0.6822306 0.68247724 0.6849499 0.67736465 0.68344706 0.682654 0.6861303 0.67975694
00000000: 1777 2f3f 27fe 2e3f 6d23 2d3f ab5b 2f3f
00000010: a2b4 2d3f 79ec 2e3f 60d4 2d3f 4e6f 2f3f
00000020: 4b32 2f3f 2fb1 2f3f c252 2f3f c2a3 2e3f
00000030: c551 2e3f d24e 2e3f ad64 2f3f d5a3 2e3f
00000040: ad40 2f3f 5864 2f3f cbe0 2e3f 6020 2f3f
00000050: ba27 2f3f f106 2e3f 810b 303f f6be 2e3f
00000060: d599 2f3f a5e7 2d3f a12b 2e3f d26b 2e3f
00000070: 63ff 2e3f 18e4 2e3f 426b 2f3f e145 2d3f
00000080: fa1f 2f3f 276b 2e3f 0399 2e3f bda3 2c3f
00000090: a128 2f3f 9361 2f3f 1c6d 2e3f 3465 2e3f
000000a0: 0f4e 2e3f aa20 2e3f 54bd 2d3f 43c4 2f3f
000000b0: faf7 2e3f f10c 2f3f e6b1 2d3f 9a77 2f3f
000000c0: cdf6 2e3f 089c 2e3f 343b 2e3f 1ecf 2e3f
000000d0: e3c6 2e3f bb6a 2e3f d8b4 2f3f 4028 2e3f
000000e0: aaa6 2e3f d4b6 2e3f e058 2f3f c567 2d3f
000000f0: 63f6 2e3f 6ac2 2e3f 3ca6 2f3f 8d04 2e3f

conv3.2.bias f4 [64]
-0.00032658566 -0.00023708181 -0.00020142805 -0.00020394694 -0.00024454412 -0.00020357156 -0.00020959663 -0.0003621253
-0.00035448527 -0.00046938186 -0.00042132652 -0.00035748575 -0.0004036753 -0.00012102894 -0.00018613212 -0.00033141908
-0.00021875808 -0.00036944862 -0.00051674095 -0.00037756367 -0.00018896666 -0.00030294666 -7.856792e-05 -0.00015959024
-0.00030570803 -0.00025373313 -0.0005088668 -0.00035039734 -0.0003981086 -0.00038258336 -0.00031513994 -0.0003078792
-0.0003143754 -0.00050021353 -0.00018445443 -3.029889e-05 -0.00022232356 -0.0004549155 -0.00030008127 -0.00036572135
-0.00046433287 -0.0004468272 -0.00045309472 -0.00034418478 -0.00026664423 -0.00034361624 -0.00020564804 -0.0002588347
-0.00046920514 -0.00036382032 -0.00041262558 -0.0003769929 -0.0002472788 -0.00012478082 -0.00038610457 -0.00047693387
-0.00024445078 -0.00019968566 -0.0002672422 -0.000487006 -0.0002920281 -0.00018793193 -0.00031032902 -0.00039419136
00000000: 9639 abb9 2a99 78b9 6e36 53b9 97da 55b9
00000010: 2836 80b9 d375 55b9 2bc7 5bb9 a3db bdb9
00000020: 35da b9b9 5e17 f6b9 7de5 dcb9 ed6c bbb9
00000030: 62a4 d3b9 ebd0 fdb8 762c 43b9 51c2 adb9
00000040: 6d62 65b9 8eb2 c1b9 e675 07ba bdf3 c5b9
00000050: 5a25 46b9 d0d4 9eb9 d5c4 a4b8 ae57 27b9
00000060: 7047 a0b9 7c07 85b9 7965 05ba 89b5 b7b9
00000070: 3bb9 d0b9 7895 c8b9 5e39 a5b9 d96a a1b9
00000080: c0d2 a4b9 c320 03ba 1c6a 41b9 5f2a feb7
00000090: 871f 69b9 ba81 eeb9 3a54 9db9 4abe bfb9
000000a0: b471 f3b9 2244 eab9 588d edb9 b373 b4b9
000000b0: 62cc 8bb9 6427 b4b9 3aa3 57b9 35b4 87b9
000000c0: a6ff f5b9 23bf beb9 ab55 d8b9 21a7 c5b9
000000d0: 33a5 81b9 99d7 02b9 146e cab9 fb0c fab9
000000e0: a129 80b9 b662 51b9 a41c 8cb9 d754 ffb9
000000f0: 591b 99b9 980f 45b9 a8b3 a2b9 78ab ceb9

conv3.2.running_mean f4 [64]
0.02308418 0.007143697 0.004114729 0.006301109 0.00831588 0.0050823907 0.0031307207 0.014370275
0.0057034567 0.012986066 0.0032197507 0.016960174 0.011538592 0.0030203196 0.0031443858 0.00947839
0.0071125296 0.012420198 0.016265497 0.014779596 0.009719363 0.008034957 0.0063700494 0.0032941888
0.021548346 0.0067665144 0.00710818 0.0143445255 0.0019920145 0.01150369 0.008101587 0.023232598
0.01605299 0.037955984 0.0048118844 0.0030989433 0.0032918497 0.014111631 0.006821997 0.012916063
0.011006623 0.0076899463 0.0075826743 0.0032579661 0.009248622 0.0039047108 0.003376854 0.0073288623
0.009906058 0.0077483794 0.0072000255 0.012233165 0.007586461 0.010425498 0.008871902 0.004508977
0.017131068 0.008908725 0.0097231185 0.03251236 0.008861262 0.004168077 0.0076357066 0.0054046004
00000000: 091b bd3c ac15 ea3b d9d4 863b 8979 ce3b
00000010: 543f 083c 2f8a a63b c72c 4d3b 4d71 6b3c
00000020: 10e4 ba3b 82c3 543c 7402 533b 10f0 8a3c
00000030: 5d0c 3d3c 8ef0 453b 0a12 4e3b 404b 1b3c
00000040: 3910 e93b 167e 4b3c 383f 853c 1e26 723c
00000050: f73d 1f3c 0da5 033c d9bb d03b 51e3 573b
00000060: 2886 b03c a3b9 dd3b bceb e83b 4d05 6b3c
00000070: 758c 023b f979 3c3c 85bc 043c 4a52 be3c
00000080: 8f81 833c bc77 1b3d 03ad 9d3b a417 4b3b
00000090: 13bc 573b 7834 673c 0f8b df3b e59d 533c
000000a0: 1f55 343c f2fb fb3b 1578 f83b 9a83 553b
000000b0: 8887 173c 2de6 7f3b 354e 5d3b f426 f03b
000000c0: 054d 223c 1ee6 fd3b 31ee eb3b 9d6d 483c
000000d0: d997 f83b b5cf 2a3c 745b 113c 0ac0 933b
000000e0: 7456 8c3c e7f5 113c b74d 1f3c ae2b 053d
000000f0: d42e 113c 5d94 883b f334 fa3b 1319 b13b

conv3.2.running_var f4 [64]
0.0012659479 0.00018442192 0.00014324632 0.00025010933 0.00030421626 0.00016803703 7.4228155e-05 0.0004983526
0.00017416649 0.0005066652 0.00010363632 0.00048537238 0.00041877903 0.0001040772 7.9672114e-05 0.0003811707
0.00020846934 0.0005200725 0.00064317766 0.0007109563 0.0007127175 0.00032760788 0.000306229 0.00010360234
0.0007202123 0.00021862192 0.00017966842 0.00046944534 5.1301533e-05 0.0005085026 0.0002025821 0.0009502871
0.00049586844 0.001037295 0.0001333907 9.07187e-05 9.980351e-05 0.0004570049 0.00033804972 0.00042601404
0.00040090756 0.00023210362 0.00025265286 9.4428506e-05 0.00028798118 0.00011002731 8.5479114e-05 0.00037953467
0.00026037078 0.00041437102 0.00021488055 0.00040010407 0.00026388644 0.00036291737 0.0003148227 0.00016276208
0.00073928415 0.0004174869 0.0002980471 0.0010400243 0.00026456203 0.00012466415 0.00021417312 0.00024438955
00000000: 2aee a53a 6261 4139 6434 1639 1b21 8339
00000010: 377f 9f39 1933 3039 f0aa 9b38 e0a3 023a
00000020: 76a0 3639 bad1 043a 5357 d938 9479 fe39
00000030: 928f db39 0544 da38 a415 a738 ded7 c739
00000040: 9098 5a39 7a55 083a ec9a 283a 785f 3a3a
00000050: a9d5 3a3a c9c2 ab39 5c8d a039 1545 d938
00000060: a1cc 3c3a e03d 6539 6065 3c39 e31f f639
00000070: 9a2c 5738 084d 053a 386c 5439 b01c 793a
00000080: 2bfd 013a d8f5 873a cbde 0b39 3b40 be38
00000090: 9a4d d138 299a ef39 443c b139 a35a df39
000000a0: e730 d239 d760 7339 7e76 8439 eb07 c638
000000b0: 2efc 9639 76be e638 4043 b338 48fc c639
000000c0: 6082 8839 f03f d939 8f51 6139 0fc5 d139
000000d0: 3d5a 8a39 f245 be39 ca0e a539 1dab 2a39
000000e0: 85cc 413a 25e2 da39 3443 9c39 6d51 883a
000000f0: eab4 8a39 47b8 0239 a993 6039 6921 8039

conv4.0.weight f4 [128, 64, 3, 3]
-0.0009938051 -0.0011218803 7.755195e-05 5.5123214e-06 0.000827849 -0.00048373162 0.001015602 -0.00028841823
-0.0011549114 0.001006746 -0.0012745516 -0.0008635035 0.00012800928 -0.00051562366 -0.0007737257 0.00016550891
-0.0011350565 0.000222517 -0.00040912404 0.00046318263 0.0020011975 -0.0011590322 -0.0022171778 0.0010390336
-0.0009882157 -0.0008536487 0.00071471144 -0.0005283979 -0.0015919156 0.0007880967 -0.0007969356 -0.001895857
0.001149766 -0.0012891634 -0.0011072075 0.0006919056 -0.0001896872 -0.0002957563 -0.0010337146 -0.0008013215
-0.0005119203 -0.0005104086 -0.00039438336 -0.0028718847 0.0009288348 0.001278028 -0.00063531304 -0.001630739
0.00057326286 0.00020928353 0.00024345898 0.0012511474 -0.00031862935 0.00014399175 0.0006040354 -0.0009034744
0.00093060697 -0.00082973606 -0.0021040034 -0.0014449209 -0.0006493237 0.00052517024 0.002843389 0.0011192667
0.0018393631 0.0010921123 -0.0007568823 -0.001293136 0.00037984314 -0.0003803283 -0.000731581 -0.0031794726
-0.00020865808 -0.001836157 9.701488e-05 -0.0005804604 -0.0007859354 0.0006547918 -0.0019130893 -0.0014913013
0.0033128716 0.0010195756 0.000225996 -0.00045066257 -0.0011914041 0.00087127707 -0.0014214895 -0.0013401821
0.0012161393 -0.0011222049 -0.000294244 0.0002155636 2.7019732e-05 -0.00094933686 -0.001409545 -0.0017830083
-0.0016021273 0.0035940183 0.00021492303 -0.0012498612 0.0007099473 0.00087336835 -0.00028023878 -0.00081050716
0.00082355837 4.1979965e-05 -0.00056414166 -0.002020019 0.00047870024 0.0007893281 -0.0005782956 -0.0004807878
-0.0002611242 -0.0018566615 0.00042230947 -0.0008764163 -0.0012281758 0.0005414999 -0.00024119613 -0.00023259831
-0.0009273355 0.000306491 -0.0019775825 -8.567384e-05 -0.0003526177 0.0018830089 -0.0016790094 0.00047852378
-0.0005384423 -2.7546233e-05 -0.0012676874 -0.00077478547 -5.4866472e-05 0.00027560702 0.0022301457 0.0003855184
0.0005797463 -0.0006888713 -0.0014768756 -0.0013663381 -0.0005493884 -0.0009955091 -0.0013666925 -0.00015679063
0.0004491806 -0.00012638187 0.00014734628 0.00032316492 0.0015463814 -0.0010893712 -0.00043742385 0.0010610968
-0.0007336919 0.00022737999 -0.0003433733 -0.0005962755 -0.00044521352 -0.00081668067 -0.0008510572 0.00028818514
-0.0012203609 0.0010590036 -0.0010253574 -1.4578983e-05 -0.000113646085 -0.00023286547 -0.0010119393 -0.0010779859
-0.00065965665 -1.348903e-05 -6.45387e-05 -0.0004891543 0.001961551 -0.00060881453 -0.000314034 -0.0009543897
-0.0008976931 0.00021363575 -0.00039009724 -0.0004861145 -7.788023e-05 0.00046000094 -0.0004608289 -0.00035311043
-4.8942627e-05 -8.665302e-05 -0.00028003327 -0.00031032742 -0.00011032504 0.0002602671 0.00018816457 -0.0017901838
0.00042282153 -0.00011469201 -0.0009963062 0.0002895003 0.0003594367 -0.0006211917 0.000474103 0.0009627867
0.00043367228 0.0005310324 0.00042035204 -0.000615329 0.0007018279 -0.0011272584 -0.0005952931 -0.0009517617
-0.00026933354 9.601658e-05 -0.0010525344 0.0004002198 -0.0016050446 -0.00015219532 0.0005044268 0.00017061195
-0.00039353716 0.00046395382 0.00018027789 -0.00042703838 4.9360122e-05 0.0009882075 -0.0003970043 -0.0008513112
0.0006201221 -0.0006061155 0.0006963594 -0.00025531827 -0.0011593986 0.0010102759 -0.0012610939 -0.0007684343
-0.0011686384 -0.0016107926 -0.00015809415 0.0003179407 -0.0004940413 -0.00013745118 0.0010087711 -0.00045173772
0.0003286609 0.0005555162 -0.0016059359 -0.0008461223 -0.00024030656 0.0004251241 -0.00067063695 0.0004461453
-0.0019339098 -0.00023724 0.0008083764 -0.0006529977 -8.317224e-05 -0.0012657815 0.0005483681 0.0005727786
00000000: 9142 82ba 0e0c 93ba 63a3 a238 7bf6 b836
00000010: 0204 593a 5c9d fdb9 f31d 853a d736 97b9
00000020: 6560 97ba caf4 833a db0e a7ba bd5c 62ba
00000030: 3b3a 0639 eb2a 07ba dad3 4aba 768c 2d39
00000040: 2dc6 94ba 7453 6939 b37f d6b9 52d7 f239
00000050: 8626 033b abea 97ba 124e 11bb 2f30 883a
00000060: 0487 81ba 65c7 5fba 795b 3b3a 2f84 0aba
00000070: d3a7 d0ba 4698 4e3a 71e9 50ba 687e f8ba
00000080: bfb3 963a 25f9 a8ba b81f 91ba 0061 353a
00000090: c5e6 46b9 bd0f 9bb9 b57d 87ba c70f 52ba
000000a0: 6432 06ba f1cc 05ba 3dc5 ceb9 3b36 3cbb
000000b0: 0c7d 733a 8183 a73a 238b 26ba 85be d5ba
000000c0: 0547 163a 1f73 5b39 0649 7f39 8afd a33a
000000d0: b50d a7b9 7efc 1639 2158 1e3a 24d7 6cba
000000e0: faf3 733a a582 59ba 52e3 09bb 8063 bdba
000000f0: 6037 2aba 94ab 093a 2758 3a3b 5cb4 923a
00000100: c916 f13a 3525 8f3a 8369 46ba 727e a9ba
00000110: af25 c739 cd66 c7b9 92c7 3fba b35e 50bb
00000120: 3acb 5ab9 35ab f0ba 7874 cb38 0a2a 18ba
00000130: 3b07 4eba 55a6 2b3a a0c0 faba c577 c3ba
00000140: c31c 593b 48a3 853a 57f9 6c39 e846 ecb9
00000150: e328 9cba 6a66 643a 4651 baba 0da9 afba
00000160: dd66 9f3a f316 93ba c344 9ab9 ea08 6239
00000170: 6fa8 e237 ebdc 78ba 7bc0 b8ba d5b3 e9ba
00000180: 79fe d1ba 9f89 6b3b f65c 6139 62d2 a3ba
00000190: c21b 3a3a c2f2 643a 03ed 92b9 3778 54ba
000001a0: 11e4 573a a513 3038 e8e2 13ba 4c62 04bb
000001b0: 0ffa fa39 eaea 4e3a c398 17ba 3f12 fcb9
000001c0: 7fe7 88b9 395b f3ba 6b69 dd39 4dbf 65ba
000001d0: befa a0ba 71f3 0d3a 98e9 7cb9 a2e5 73b9
000001e0: 6f18 73ba 87b0 a039 549a 01bb cbab b3b8
000001f0: 8cdf b8b9 4bcf f63a 3512 dcba 60e2 fa39
00000200: 4026 0dba 1613 e7b7 8828 a6ba f91a 4bba
00000210: 6d20 66b8 597f 9039 a327 123b 671f ca39
00000220: 1efa 173a 5f95 34ba b993 c1ba b316 b3ba
00000230: d504 10ba be7b 82ba 9722 b3ba 2a68 24b9
00000240: 0080 eb39 6085 04b9 f780 1a39 766e a939
00000250: f3af ca3a 3bc9 8eba 0956 e5b9 8014 8b3a
00000260: 3b55 40ba da6c 6e39 c906 b4b9 5f4f 1cba
00000270: 8c6b e9b9 8316 56ba 7b19 5fba 8e17 9739
00000280: 84f4 9fba 44ce 8a3a 4965 86ba 4198 74b7
00000290: 4755 eeb8 592d 74b9 0ca3 84ba 344b 8dba
000002a0: cfec 2cba f14e 62b7 f358 87b8 973a 00ba
000002b0: 5d8d 003b da98 1fba eea4 a4b9 0230 7aba
000002c0: 2a53 6bba 6903 6039 f785 ccb9 2fdd feb9
000002d0: a153 a3b8 482c f139 689b f1b9 ae21 b9b9
000002e0: bf47 4db8 7cb9 b5b8 6ed1 92b9 71b3 a2b9
000002f0: 4e5e e7b8 7574 8839 0b4e 4539 9aa4 eaba
00000300: 25ae dd39 ce86 f0b8 7d96 82ba 13c8 9739
00000310: c772 bc39 78d7 22ba 0791 f839 8663 7c3a
00000320: 825e e339 fb34 0b3a b262 dc39 084e 21ba
00000330: e0fa 373a 84c0 93ba 720d 1cba a67f 79ba
00000340: 5635 8db9 825c c938 32f5 89ba 98d4 d139
00000350: 5c60 d2ba 9f96 1fb9 823b 043a 4ce6 3239
00000360: aa53 ceb9 d43e f339 fa08 3d39 1fe4 dfb9
00000370: 0708 4f38 be86 813a 0425 d0b9 872a 5fba
00000380: b18f 223a b9e3 1eba e38b 363a 3ddc 85b9
00000390: f6f6 97ba 3c6b 843a 4a4b a5ba c170 49ba
000003a0: ff2c 99ba 3b21 d3ba 13c6 25b9 47b1 a639
000003b0: 8d82 01ba c520 10b9 be38 843a 36d7 ecb9
000003c0: 1f50 ac39 10a0 113a 447e d2ba 4ece 5dba
000003d0: cdfa 7bb9 31e3 de39 afcd 2fba 9ce8 e939
000003e0: 3f7b fdba a1c3 78b9 39e9 533a ef2d 2bba
000003f0: c26c aeb8 94e8 a5ba 5cc0 0f3a 8526 163a

conv4.0.bias f4 [128]
3.784634e-05 0.0004254252 0.00020174713 0.00020195165 -9.733941e-05 0.00055289775 -0.00021716265 5.3760366e-05
-0.00096026156 -0.00013293682 -0.00022154457 -0.00046503273 2.4261397e-05 0.0002227267 -6.499164e-05 7.1894945e-05
0.00058601075 -0.00047150263 6.98503e-06 0.0005068545 -0.00081167725 3.864557e-05 -6.061707e-05 0.00093121623
-0.00090012053 3.3675772e-07 7.208179e-05 -0.0007344008 0.0008404696 0.00061217544 0.0010254043 -3.155688e-05
0.0011064501 6.306786e-05 -7.271193e-05 -0.00071315444 0.00010704605 -0.00034635406 -0.0007244721 0.00012698346
-9.94558e-05 0.0005253377 -0.0006161133 -0.0001011936 0.000363189 5.4685806e-06 0.00026560755 -0.0003057747
-0.00024070831 9.752174e-05 -0.00056537474 -0.0004079309 0.0007950357 -3.9883376e-05 0.00032594384 -0.0005800838
0.00020753592 0.000791512 0.00032453242 0.0006771168 0.0010577604 -0.0006817085 -0.0012317079 -0.00016537737
7.712897e-05 0.00015944714 -0.00038318912 0.00013679182 0.00017149292 0.0002821187 -0.0005344424 0.00042014566
0.0003872755 -9.692539e-05 -4.907264e-05 0.00023966271 0.00057358766 0.00028665652 6.491013e-05 0.00022036681
-0.0002721678 -0.0004413233 -0.0004836987 -0.0005003984 9.349515e-05 0.0003455758 0.00018445573 -0.00045724848
-0.0004125619 0.0005113584 -0.0004948835 -0.000598085 0.00045735892 -0.00073353533 3.3183253e-05 7.4324926e-05
0.0008723781 -0.00014792332 -0.0009357496 -6.0061608e-05 0.00016307725 -0.00014120726 0.0002660138 0.00025335702
3.403337e-05 -0.0002021616 -0.00021180173 -0.00012905907 -0.00050110876 -0.00040956776 -0.00020753696 -0.00030016873
-0.00042117827 0.00045040582 -0.0008212426 0.0006060974 0.0004272842 2.6839723e-05 0.0004445319 -0.0003003708
-0.0011868976 -0.00018544274 2.195619e-06 0.00024048658 5.4978067e-05 -0.0002239693 -0.00086517254 -7.507479e-05
00000000: 33bd 1e38 9b0b df39 158c 5339 fcc2 5339
00000010: b322 ccb8 57f0 103a 28b6 63b9 c17c 6138
00000020: 10ba 7bba f564 0bb9 6b4e 68b9 a3cf f3b9
00000030: f484 cb37 be8b 6939 1f4c 88b8 4ec6 9638
00000040: 849e 193a 0334 f7b9 f360 ea36 6ede 043a
00000050: bdc6 54ba 5d17 2238 153f 7eb8 dd1c 743a
00000060: 11f6 6bba a1cb b434 9e2a 9738 ce84 40ba
00000070: f652 5c3a 667a 203a dc66 863a f15b 04b8
00000080: 4e06 913a 4d43 8438 ec7c 98b8 fcf2 3aba
00000090: e97d e038 db96 b5b9 80ea 3dba dd26 0539
000000a0: ed92 d0b8 d1b6 093a aa82 21ba e637 d4b8
000000b0: 676a be39 c07e b736 3e41 8b39 6350 a0b9
000000c0: a566 7cb9 9684 cc38 a835 14ba 8fdf d5b9
000000d0: f169 503a 7348 27b8 71e3 aa39 c410 18ba
000000e0: 009e 5939 797d 4f3a 0126 aa39 8a80 313a
000000f0: 8da4 8a3a afb4 32ba 4271 a1ba 2669 2db9
00000100: 4dc0 a138 4431 2739 c6e6 c8b9 c66f 0f39
00000110: c8d2 3339 55e9 9339 d319 0cba ff46 dc39
00000120: 3d0b cb39 6c44 cbb8 59d3 4db8 f84d 7b39
00000130: d15c 163a 634a 9639 5c20 8838 4412 6739
00000140: beb1 8eb9 6961 e7b9 f198 fdb9 2b2d 03ba
00000150: d412 c438 662e b539 756a 4139 daba efb9
00000160: 1f4d d8b9 ae0c 063a 12bb 01ba cec8 1cba
00000170: adc9 ef39 b94a 40ba 3f2e 0b38 e4de 9b38
00000180: 4eb0 643a dd1b 1bb9 184d 75ba a9ea 7bb8
00000190: b7ff 2a39 0911 14b9 c577 8b39 01d5 8439
000001a0: 0ebf 0e38 57fb 53b9 1817 5eb9 0854 07b9
000001b0: d75c 03ba 41bb d6b9 479e 59b9 f75f 9db9
000001c0: 97d1 dcb9 7224 ec39 a848 57ba 82e2 1e3a
000001d0: 1d05 e039 de25 e137 1010 e939 167b 9db9
000001e0: ad91 9bba 6873 42b9 7258 1336 202b 7c39
000001f0: 4098 6638 4dd9 6ab9 bfcc 62ba 7971 9db8

conv4.2.weight f4 [128]
0.6799748 0.68262774 0.68280834 0.67681515 0.6811319 0.6772229 0.68383896 0.67456746
0.68016875 0.68454707 0.6748515 0.682744 0.68651557 0.68167937 0.67614186 0.6823592
0.6772424 0.6828047 0.6782258 0.6765434 0.6768225 0.6781534 0.68074495 0.68140286
0.6783635 0.67906076 0.6836107 0.6833661 0.6773858 0.6808624 0.67963284 0.68016356
0.67781377 0.6737774 0.68050236 0.6784874 0.6825065 0.684329 0.68225086 0.6811683
0.6748789 0.6789485 0.68065697 0.67969763 0.6780493 0.6845663 0.6792768 0.6807797
0.6830627 0.6839247 0.68049 0.68043953 0.67743206 0.6756626 0.67510176 0.6839707
0.67597306 0.67511106 0.6790649 0.683796 0.68178934 0.6784145 0.6820405 0.6839384
0.6829029 0.6788641 0.6758305 0.681275 0.6746651 0.6740665 0.6805222 0.6760154
0.68178225 0.6763866 0.6822318 0.67896056 0.67397815 0.68007153 0.6795742 0.6770119
0.67777646 0.6807308 0.6788956 0.6749501 0.6763649 0.6797163 0.68028456 0.68319607
0.6785357 0.6800185 0.68600273 0.67992944 0.67951393 0.68165064 0.6825862 0.68472666
0.6752596 0.6782523 0.6793644 0.6813448 0.6832789 0.68017656 0.6817068 0.6777487
0.68271303 0.6856971 0.6825854 0.6825425 0.6785706 0.6816377 0.6819302 0.6746992
0.67896634 0.68105704 0.6797389 0.67769593 0.67762184 0.67783076 0.6872058 0.6765856
0.6811065 0.6790873 0.6794306 0.67778087 0.6752661 0.68399763 0.6801588 0.6761533
00000000: d412 2e3f b1c0 2e3f 87cc 2e3f c243 2d3f
00000010: a95e 2e3f 7b5e 2d3f 1210 2f3f 74b0 2c3f
00000020: 8a1f 2e3f 7a3e 2f3f 11c3 2c3f 50c8 2e3f
00000030: 7cbf 2f3f 8a82 2e3f a217 2d3f 18af 2e3f
00000040: c25f 2d3f 4acc 2e3f 35a0 2d3f f331 2d3f
00000050: 3d44 2d3f 769b 2d3f 4d45 2e3f 6b70 2e3f
00000060: 3ba9 2d3f edd6 2d3f 1c01 2f3f 15f1 2e3f
00000070: 2869 2d3f 004d 2e3f 6bfc 2d3f 331f 2e3f
00000080: 3485 2d3f ad7c 2c3f 6735 2e3f 5ab1 2d3f
00000090: bfb8 2e3f 2f30 2f3f fea7 2e3f 0c61 2e3f
000000a0: ddc4 2c3f 92cf 2d3f 893f 2e3f aa00 2e3f
000000b0: a494 2d3f bd3f 2f3f 16e5 2d3f 9447 2e3f
000000c0: 32dd 2e3f b015 2f3f 9834 2e3f 4931 2e3f
000000d0: 306c 2d3f 39f8 2c3f 78d3 2c3f b418 2f3f
000000e0: 920c 2d3f 14d4 2c3f 33d7 2d3f 410d 2f3f
000000f0: bf89 2e3f 93ac 2d3f 359a 2e3f 9616 2f3f
00000100: b9d2 2e3f 0aca 2d3f 3a03 2d3f 0a68 2e3f
00000110: dab6 2c3f 9f8f 2c3f b436 2e3f 580f 2d3f
00000120: 4889 2e3f ac27 2d3f bea6 2e3f 5cd0 2d3f
00000130: d589 2c3f 2b19 2e3f 93f8 2d3f a750 2d3f
00000140: c282 2d3f 6044 2e3f 1acc 2d3f 88c9 2c3f
00000150: 4026 2d3f e301 2e3f 2127 2e3f f0e5 2e3f
00000160: 84b4 2d3f b115 2e3f e09d 2f3f db0f 2e3f
00000170: a0f4 2d3f a880 2e3f f8bd 2e3f 3f4a 2f3f
00000180: d0dd 2c3f f1a1 2d3f d3ea 2d3f 9d6c 2e3f
00000190: 5eeb 2e3f 0d20 2e3f 5684 2e3f f080 2d3f
000001a0: 48c6 2e3f d889 2f3f ebbd 2e3f 1bbb 2e3f
000001b0: ceb6 2d3f cf7f 2e3f fa92 2e3f 16b9 2c3f
000001c0: bdd0 2d3f c159 2e3f 5e03 2e3f 7b7d 2d3f
000001d0: a078 2d3f 5186 2d3f b8ec 2f3f b734 2d3f
000001e0: ff5c 2e3f aad8 2d3f 2aef 2d3f 0c83 2d3f
000001f0: 3dde 2c3f 781a 2f3f e31e 2e3f 6218 2d3f

conv4.2.bias f4 [128]
1.11506e-06 -4.2394262e-05 8.455355e-05 2.7099946e-05 7.2187955e-05 1.5666148e-05 -4.1923195e-05 7.117607e-05
-0.00012188156 -6.7137866e-05 -2.1278995e-05 3.8550766e-05 8.216304e-05 4.907873e-05 -1.33686635e-05 -2.1645414e-05
-0.00017420982 -5.877322e-05 -0.00015573284 0.00013132216 -0.0001177868 2.1774874e-06 -1.847385e-05 -0.00012624664
-8.2521976e-05 3.5012235e-06 -1.47303335e-05 6.998432e-05 -7.331306e-05 0.00011360716 5.1811152e-05 -0.00014059362
-5.3844947e-06 2.6659362e-05 -1.983557e-05 1.7095752e-05 7.092482e-05 -6.344314e-05 -8.397599e-05 5.8081554e-05
-9.8179415e-05 8.158666e-05 -9.873295e-05 -2.5854944e-05 5.5075925e-05 0.00011485728 7.741526e-05 -0.00010274294
-0.00015325779 -5.7020763e-05 3.4961777e-05 -6.501465e-05 -0.00015779644 8.898373e-05 -2.8645376e-05 -8.533656e-05
-3.669621e-05 -0.00021920171 0.00011027964 0.00014074134 8.650514e-05 9.581452e-05 -7.354333e-05 -3.5712856e-05
0.0001399843 3.611067e-05 -0.00012350266 -3.9192023e-06 7.4739815e-05 -5.501664e-05 -6.903519e-05 -0.0001460984
-4.5199766e-05 -0.00013252781 -5.06807e-05 8.144091e-05 -7.078544e-05 8.431901e-05 -4.944597e-05 -0.00017573006
6.435601e-06 -6.7495464e-05 1.8343066e-05 -9.566352e-05 -1.9781704e-05 0.00012428689 -3.7065958e-05 -8.7939145e-05
-9.530869e-05 4.4325257e-05 -8.213752e-05 -0.00013249788 -0.00012617478 -0.00010759794 1.787278e-05 -5.286304e-05
-7.739513e-05 -0.000102514765 -0.00013031236 -0.00018839729 -1.9390265e-05 4.766596e-05 -0.0001794949 -0.000116566065
-8.750273e-05 -5.7406913e-05 5.400784e-06 -5.335823e-05 2.189291e-06 2.1718373e-05 -5.3134143e-05 -5.423252e-05
-7.418111e-05 -7.091563e-05 -0.00010994835 0.00013861532 -2.2078944e-05 -6.161248e-05 -0.00015677782 7.782935e-05
-8.235643e-05 -6.503705e-05 0.00016582909 0.00014275163 -4.185571e-05 0.00014203953 -0.00012660459 2.7781956e-05
00000000: 2ba9 9535 7ed0 31b8 5752 b138 b154 e337
00000010: 9d63 9738 cc6a 8337 b0d6 2fb8 5d44 9538
00000020: aa9a ffb8 5ecc 8cb8 4b80 b2b7 92b1 2138
00000030: f24e ac38 e3d9 4d38 f949 60b7 2c93 b5b7
00000040: 18ac 36b9 4483 76b8 374c 23b9 86b3 0939
00000050: 4f04 f7b8 f320 1236 4af8 9ab7 1361 04b9
00000060: a60f adb8 90f6 6a36 4d22 77b7 8cc4 9238
00000070: a6bf 99b8 6140 ee38 cd4f 5938 506c 13b9
00000080: 75ac b4b6 8ba2 df37 9064 a6b7 d968 8f37
00000090: 79bd 9438 c70c 85b8 441c b0b8 989c 7338
000000a0: ace5 cdb8 8119 ab38 d90e cfb8 12e3 d8b7
000000b0: 5301 6738 88df f038 005a a238 b277 d7b8
000000c0: d3b3 20b9 9429 6fb8 eca3 1238 7958 88b8
000000d0: 2976 25b9 c79c ba38 7a4b f0b7 b7f6 b2b8
000000e0: 41ea 19b8 83d9 65b9 ee45 e738 f793 1339
000000f0: 186a b538 07f0 c838 463b 9ab8 63ca 15b8
00000100: c0c8 1239 8975 1738 7e80 01b9 b181 83b6
00000110: a2bd 9c38 abc1 66b8 fcc6 90b8 fe31 19b9
00000120: e194 3db8 2af7 0ab9 fd91 54b8 41cb aa38
00000130: a572 94b8 6cd4 b038 3564 4fb8 2e44 38b9
00000140: 64f1 d736 5a8c 8db8 6fdf 9937 f69e c8b8
00000150: e3f0 a5b7 0253 0239 4577 1bb8 f86b b8b8
00000160: 77e0 c7b8 e2e9 3938 3f41 acb8 21ef 0ab9
00000170: c94d 04b9 34a6 e1b8 81ed 9537 42b9 5db8
00000180: 324f a2b8 32fd d6b8 75a4 08b9 838c 45b9
00000190: 47a8 a2b7 efec 4738 cc36 3cb9 ee74 f4b8
000001a0: ac81 b7b8 34c8 70b8 6238 b536 f7cc 5fb8
000001b0: bceb 1236 da2f b637 5adc 5eb8 ba77 63b8
000001c0: ae91 9bb8 8ab8 94b8 1294 e6b8 4459 1139
000001d0: 2c36 b9b7 f335 81b8 ba64 24b9 5038 a338
000001e0: c6b6 acb8 8064 88b8 68e2 2d39 99af 1539
000001f0: 3a8e 2fb8 72f0 1439 29c1 04b9 4c0d e937
