hand_gesture_model.pth (torch, 410975 bytes, 26 tensors)

conv1.0.weight f4 [16, 1, 3, 3]
000000 36 3a a9 3c af 8c 20 ba eb ec 79 bd 7d e0 5a 3d
       0.02065764 -0.0006124479 -0.06101696 0.053436745
000010 3f ef f9 bb 78 3a 8d b9 3d 44 90 bd 1c ca 45 3d
       -0.0076273973 -0.00026937178 -0.070442654 0.04828845
000020 f8 f9 ce b9 c4 29 b0 3a 61 d3 63 bc e3 17 1a bd
       -0.00039477623 0.0013440182 -0.013905377 -0.037620436
000030 d4 99 27 3b 1d 02 29 bb 4b 20 bf 3b 9e ec ba 3d
       0.0025573866 -0.0025788613 0.005832707 0.091271624
000040 fb dd aa ba fc 32 1f bb 86 a6 5e 3d fc fa 4f bb
       -0.0013036126 -0.0024291864 0.054358028 -0.0031735292
000050 18 54 b7 3d 8e 72 31 bd 99 8b 84 3c f7 a5 8a 3d
       0.089515865 -0.04332214 0.016179847 0.067699365
000060 28 87 ee bb ab 9e 34 bc 8f 08 82 bb f4 2e 10 ba
       -0.0072792955 -0.0110241575 -0.0039683054 -0.00055001606
000070 d4 66 b5 b7 3a 50 b2 3d 07 41 3d ba 67 a8 ed bc
       -2.1624764e-05 0.08706708 -0.00072194677 -0.029010965
000080 b4 2b 35 ba a4 50 29 38 92 f0 38 3b cb bd c4 bc
       -0.00069111143 4.0367842e-05 0.0028219563 -0.024016282
000090 9e 06 72 bd 6b 96 82 bc 8d b2 74 3c 87 1d fa bc
       -0.059088342 -0.015940866 0.014935148 -0.030531658
0000a0 79 d0 84 3c e2 f2 03 3c 17 8f 82 bd 5b 49 ad 3a
       0.016212689 0.008053513 -0.063749485 0.0013220714
0000b0 3e 0f f9 bc 7f 13 88 bd 12 2a 90 bd 13 68 15 bd
       -0.030402776 -0.066443436 -0.07039274 -0.036476206
0000c0 44 fd 54 3b ff f7 b6 ba 26 c7 0d 3b 89 26 e6 3b
       0.003249959 -0.0013959407 0.0021633594 0.0070236367
0000d0 08 0c b9 bd dd 62 7c 3d 23 c9 c8 bc c1 ac 99 bd
       -0.09035498 0.06161772 -0.024509972 -0.07503653
0000e0 4f bb c8 3b 23 c1 1d 3c 05 29 24 3d e7 b8 a6 3d
       0.0061258445 0.009628567 0.04007818 0.08140736
0000f0 24 45 ea ba 5b a6 71 3d 6e 29 c0 bd 96 67 83 3b
       -0.0017873389 0.05899654 -0.09382902 0.004010151
000100 dd 35 b4 bd 1b 8a 56 3b 03 0d 3c bd c4 59 49 3b
       -0.08799336 0.0032736126 -0.045910846 0.003072367
000110 ef 21 66 3b 0f 55 c1 3d dd f7 4e 3c 33 c7 87 bd
       0.003511544 0.09440052 0.012632337 -0.06629791
000120 24 94 5a bc 9b 4b 25 3c d7 85 7e 3c 36 67 29 ba
       -0.013340984 0.0100888265 0.01553484 -0.0006462218
000130 dc 1c 40 3c 2d c4 07 bd 20 7e 5d 3a 20 05 b6 ba
       0.011725631 -0.033146072 0.0008449275 -0.0013887025
000140 08 fe 14 3c 89 54 90 bd 70 ea f8 3c 5c 37 8c bc
       0.009093769 -0.07047374 0.030385226 -0.017116241
000150 51 56 31 3b 62 90 9e bb a3 c2 8f bd 09 4f 84 3a
       0.0027059505 -0.004838989 -0.07019546 0.0010094355
000160 1d b0 6a 3d de 8e 02 b9 59 6f c9 bc 90 51 cc 3c
       0.05729686 -0.00012450988 -0.024589228 0.024941236
000170 91 a2 d0 3c 7a 77 4a bb 60 19 45 3b 5c cd 0f 3b
       0.025468143 -0.0030893967 0.003007494 0.0021942472
000180 d5 6b 11 bb 1c bc 0c 3a bb 72 d2 bc 54 98 a4 bd
       -0.0022189517 0.00053686067 -0.025689473 -0.08036867
000190 4d c4 cb b8 31 14 60 bb 19 6a 88 bc a2 3c d1 b9
       -9.716358e-05 -0.0034191723 -0.016652154 -0.0003990876
0001a0 1c 47 5e ba b6 87 34 bd 58 80 52 bb e8 7f 3c 3d
       -0.0008479224 -0.044074737 -0.0032119956 0.04602042
0001b0 73 0e 37 3d bc 8c e1 bc 96 0e a5 3d 93 cf fc bb
       0.044691514 -0.027532928 0.08059423 -0.0077151745
0001c0 d6 31 8a 3c a9 1a a6 bd 76 f6 14 bc 62 df 88 bb
       0.016869467 -0.08110554 -0.009091964 -0.00417702
0001d0 79 4b e8 bb 91 5d 09 3d 10 1b 06 bb ec 97 db 3c
       -0.007089075 0.033536498 -0.0020462908 0.02680584
0001e0 83 20 48 3c a8 2f cc bb cd ca a8 bd 33 1f 07 3d
       0.012214783 -0.006231267 -0.08241806 0.03298874
0001f0 c7 26 b0 bd ef 70 ed 3b 06 03 6e bd 9d 0f 3e bd
       -0.08601146 0.0072461287 -0.058108352 -0.04640161
000200 82 2e 87 bd 10 66 1c bd 4c dd 9f 3d a3 49 98 3d
       -0.066006675 -0.038183272 0.07805881 0.0743592
000210 3e 06 91 bc 46 db e1 bb 81 aa 81 bb e0 ac e3 3b
       -0.017703172 -0.0068925945 -0.003957093 0.0069480985
000220 d3 6e 67 bc 30 10 b4 3c d9 55 0a bb 4f ec 84 bb
       -0.014125544 0.021980375 -0.0021108298 -0.0040564905
000230 91 46 98 3c 5a 7a f2 39 fa 92 ae 3d 18 7a 00 3b
       0.018588336 0.00046248996 0.08524127 0.0019604024

conv1.0.bias f4 [16]
000000 d7 42 1a bd 3d b8 b3 bc c6 d4 2d 3a 19 a1 22 bd
       -0.0376614 -0.021938438 0.0006631132 -0.039704416
000010 04 6b c6 3b 4d c4 95 3a d5 2c 71 3d 77 cc 73 3d
       0.0060552377 0.00114263 0.058880646 0.059521165
000020 aa 89 b3 3a 77 ab 20 3b 0e 87 6b 3d 2d 3e e4 3b
       0.0013697643 0.0024516264 0.057501845 0.0069654197
000030 9e ff 33 3c 86 db 56 3d 50 fe 22 bd 50 16 ac bc
       0.010986237 0.052455448 -0.039793313 -0.021006733

conv1.2.weight f4 [16]
000000 b9 ea 2e 3f 2b 99 2e 3f c1 be 2d 3f 82 96 2e 3f
       0.6832691 0.68202466 0.6786919 0.68198407
000010 c5 e6 2f 3f a1 16 2e 3f d2 90 2f 3f 93 79 2e 3f
       0.687115 0.6800328 0.68580353 0.6815426
000020 91 31 30 3f 39 4a 2f 3f b8 1e 2e 3f b2 52 2f 3f
       0.6882563 0.6847263 0.68015623 0.6848556
000030 1d f2 2e 3f b4 53 2d 3f fd 2e 2f 3f 26 0a 2f 3f
       0.68338186 0.67705846 0.68431073 0.6837486

conv1.2.bias f4 [16]
000000 14 8e 2b b9 ab a4 7e 3a a7 07 b7 b9 4a 1d 6d 3a
       -0.00016360759 0.00097138685 -0.0003491018 0.0009045197
000010 e1 ce 08 3a 2f 19 9d b9 7b 76 a3 39 a3 8f 35 3a
       0.00052188156 -0.00029964137 0.00031178058 0.00069260056
000020 c5 60 42 3a f6 8d 0e 39 09 9a 27 b9 09 08 b5 39
       0.00074149325 0.0001359506 -0.00015983744 0.00034528997
000030 af b7 74 b9 3e 3e 05 3a 93 46 b9 38 e6 10 8c b9
       -0.00023338081 0.0005082822 8.834633e-05 -0.0002671547

conv1.2.running_mean f4 [16]
000000 37 35 b9 37 44 2e 1a 3c 73 a0 c4 3d 9b e9 4e 39
       2.2078499e-05 0.009410445 0.09600916 0.00019732716
000010 63 78 fe 38 4b 43 e1 36 d5 9b 80 3d ad 4f 62 3c
       0.000121340876 6.7133565e-06 0.062797226 0.0138129415
000020 8a ff b7 3a fb f0 0b 3a d1 11 70 3d 42 fc 98 3a
       0.0014037949 0.0005338338 0.05861074 0.0011671858
000030 40 60 6b 3c 57 e0 73 3c af 21 19 3a 4c ef 48 3d
       0.0143662095 0.01488503 0.0005841506 0.049056336

conv1.2.running_var f4 [16]
000000 3d 3e 84 34 80 33 ee 38 a2 79 ab 3a b9 61 0a 36
       2.46322e-07 0.00011358317 0.0013082514 2.0620485e-06
000010 69 ab 69 35 9e de 6f 33 4d ac 62 39 03 dc 9a 39
       8.70487e-07 5.5848993e-08 0.00021617227 0.0002953709
000020 96 21 a6 36 7e 73 18 37 57 c1 56 38 6f 5d 12 38
       4.9510954e-06 9.086796e-06 5.1201638e-05 3.489613e-05
000030 a5 d0 79 38 19 23 88 39 9c 96 64 37 cd 42 f2 39
       5.956054e-05 0.0002596609 1.36249255e-05 0.00046207607

conv2.0.weight f4 [32, 16, 3, 3]
000000 35 8d c2 b7 ac c6 88 39 7b 50 24 b6 ff 5f d5 37
       -2.3192357e-05 0.00026087963 -2.448475e-06 2.543628e-05
000010 14 cc c6 36 ab 94 c1 b5 81 ec 02 39 9c 4e 16 3a
       5.9246177e-06 -1.4422889e-06 0.0001248587 0.00057337596
000020 89 7e 36 37 b0 3d 3e ba d9 81 83 b9 87 6f 30 ba
       1.0877507e-05 -0.0007257117 -0.0002508301 -0.0006730486
000030 64 44 3f bb a5 00 ae 39 1a 32 ce ba 90 ea 20 bb
       -0.002918505 0.00033188346 -0.0015731484 -0.0024553873
000040 c4 78 8e 3b 7f 30 29 3b f7 da aa ba a9 73 07 bb
       0.0043478925 0.002581626 -0.0013035227 -0.0020668304
000050 11 65 03 3b 2f 97 85 ba 70 28 5f 39 3b 9c a6 3a
       0.0020049254 -0.0010192151 0.00021282001 0.0012711355
000060 ba ed 8e b9 84 ba 12 bb d4 01 bc 39 40 04 3a b8
       -0.0002726147 -0.0022389004 0.00035859516 -4.4349814e-05
000070 28 52 13 38 e2 b5 d4 b7 dd eb 02 b8 f2 6e 87 b9
       3.5124045e-05 -2.5357065e-05 -3.121408e-05 -0.00025831867
000080 83 7d d9 ba ef 24 89 b8 11 2e b0 b9 57 2a 01 ba
       -0.0016593192 -6.5395485e-05 -0.00033603658 -0.00049272686
000090 05 14 eb ba df d0 73 b8 df 5b 0d 3a 25 ec 31 bb
       -0.0017935043 -5.813024e-05 0.0005392413 -0.002714881
0000a0 15 02 18 b9 6c 61 e0 b9 25 d3 1b bb 0f 90 33 b8
       -0.00014496625 -0.00042797194 -0.0023776975 -4.281109e-05
0000b0 2b 11 0e b9 d0 e2 d2 39 32 7f b0 3a e1 81 28 ba
       -0.00013548571 0.0004022331 0.0013465642 -0.0006428045
0000c0 76 e6 2c 39 0f 58 aa 38 a0 51 b6 38 2b f2 37 39
       0.00016489052 8.122634e-05 8.69364e-05 0.00017542455
0000d0 01 39 bb 38 6d 10 1b 39 8f b9 5d bb d3 2d 00 ba
       8.927473e-05 0.00014788071 -0.0033832525 -0.0004889641
0000e0 35 cf 54 3b 90 98 86 b9 68 16 83 ba fb 94 20 bb
       0.0032472138 -0.0002567214 -0.0010001184 -0.0024502862
0000f0 bb ba 0a 39 3a b9 6b ba 2c d8 12 bb b5 e3 33 b9
       0.00013230268 -0.00089921395 -0.002240668 -0.00017155598
000100 4b bf 68 3b 5d 2a 85 3a 1e 12 fa 39 86 ee d7 3a
       0.003551441 0.001015972 0.00047697214 0.0016474284
000110 14 03 15 bb fc c7 95 3a e4 df f6 39 64 0e 88 3a
       -0.002273743 0.0011427398 0.00047087588 0.0010380265
000120 fb 32 b8 3a 35 11 8a bb 07 22 8d 3a 70 ad e5 3a
       0.0014053279 -0.004213477 0.0010767587 0.0017523002
000130 47 94 82 ba 30 86 31 3b 60 7d a3 39 c7 2a 2b 39
       -0.0009962403 0.0027088039 0.00031183194 0.00016323767
000140 7d 63 3d 38 bd 79 67 ba 3a dd c2 ba 35 6f 69 ba
       4.5153767e-05 -0.0008830091 -0.0014866956 -0.0008904816
000150 44 4f 9e ba 8b db 8d b9 62 4e 11 ba 5a 4e 59 ba
       -0.0012078066 -0.00027057188 -0.0005542991 -0.00082895684
000160 fc c3 4f ba 57 c2 fc b9 3d f2 49 3b 0f 2f ee bb
       -0.0007925627 -0.0004820998 0.0030814551 -0.0072687934
000170 fa bb 1e 3a 74 96 36 3b 69 0b 96 bb a0 9b 61 3a
       0.00060552324 0.0027860673 -0.004578997 0.0008606259
000180 18 70 1f ba e0 43 b0 bb 35 39 51 bb 26 3d 19 bb
       -0.0006082072 -0.005379185 -0.0031924967 -0.0023382395
000190 b2 1f 0e b8 ea 54 58 ba e4 5c 00 bb 5f 0d b2 b9
       -3.3884957e-05 -0.0008252399 -0.0019586617 -0.00033960768
0001a0 4b 6d ad b9 d8 e6 19 bb 39 b2 05 ba 55 e2 9d b9
       -0.0003307856 -0.002348354 -0.00051001046 -0.00030114004
0001b0 e9 88 74 bb c9 9e a1 3b 71 68 b1 bb 27 8d 5e bb
       -0.003731305 0.0049322587 -0.0054140617 -0.0033958645
0001c0 01 e2 0f ba 18 3e c4 bb 32 81 ae bb 62 20 e4 ba
       -0.00054886943 -0.0059888475 -0.00532546 -0.001740467
0001d0 20 f9 9d bb d3 be 49 bb 02 44 95 3b 36 76 0c bb
       -0.004820958 -0.0030783906 0.0045552263 -0.0021432764
0001e0 2d ee 57 bb 83 1b 8d 3a 0d c5 e9 b9 97 b1 a7 bb
       -0.003294836 0.0010765645 -0.00044588037 -0.005117606
0001f0 9e 0f 06 b9 e6 84 f5 ba ea b0 89 ba e0 37 fd b9
       -0.00012785054 -0.0018731623 -0.0010504995 -0.0004829755
000200 c7 4c 8b ba d9 88 cd b9 70 fc 86 b9 cd 73 ca b9
       -0.001062774 -0.00039202606 -0.00025746552 -0.0003861472
000210 19 d3 69 b8 2d ae 51 b8 72 42 73 b8 a4 3c 69 ba
       -5.574813e-05 -4.9991697e-05 -5.7997597e-05 -0.0008897281
000220 b2 30 fe b9 3a 0d 45 ba e3 6c 1d 39 95 05 1e 39
       -0.00048482936 -0.00075169245 0.0001501325 0.00015070134
000230 a9 32 56 3a a1 9e 7c ba 4f e3 08 3b c2 5a 97 3b
       0.0008171001 -0.00096366747 0.002088744 0.0046189735
000240 12 e0 8c b7 4d e2 60 3a 1c 79 09 39 b2 2e 69 b8
       -1.6793641e-05 0.00085786433 0.00013110455 -5.5595017e-05
000250 d9 cf 9a b9 e3 38 a7 39 e0 9f 45 37 52 4d 96 b9
       -0.00029528028 0.00031895106 1.1779339e-05 -0.00028667838
000260 18 6d 2c 39 91 60 c4 bb 79 b3 34 b9 50 f8 06 bb
       0.00016443839 -0.005992957 -0.00017232996 -0.0020594783
000270 b7 4b 97 bb 79 f7 e2 ba f6 8e 91 ba 4b 96 ac bb
       -0.00461718 -0.0017316184 -0.0011105228 -0.0052669398
000280 d0 e9 80 36 67 fe 16 3b 7c 15 2e 3b f7 86 d1 3a
       3.8419166e-06 0.002303982 0.0026563099 0.0015985657
000290 8a 42 c3 3a c3 c6 1b 3b 30 ad f1 39 32 a1 1e ba
       0.001489715 0.0023769594 0.00046096137 -0.00060512417
0002a0 db f2 ae 3a 36 04 6a 39 ed ff ee b9 13 4d 80 39
       0.0013347523 0.00022317548 -0.00045585577 0.00024471487
0002b0 d0 1f 87 ba 48 86 05 ba a5 39 b7 ba 04 0d 32 ba
       -0.0010309163 -0.0005093557 -0.0013978971 -0.00067921006
0002c0 1e de 0d bb 01 06 33 b8 8e 2f 6e b9 8e 9d 64 39
       -0.0021647285 -4.2682517e-05 -0.00022715164 0.00021802468
0002d0 98 ac 47 ba a8 a0 f4 ba d9 bc c2 38 de 5a 41 ba
       -0.0007616966 -0.0018663602 9.2858165e-05 -0.0007375906
0002e0 b6 38 bf ba 4c 92 7c b8 26 70 9f ba 3b db 1c ba
       -0.0014589045 -6.021773e-05 -0.001216416 -0.00059835956
0002f0 7b 37 0c b8 d9 6a 5a b9 7b e5 c1 37 ed 89 b3 b8
       -3.343027e-05 -0.00020829904 2.3114253e-05 -8.561076e-05
000300 d5 de 02 b8 a9 bc 40 36 f4 40 da b8 db 35 66 b8
       -3.1201944e-05 2.8720044e-06 -0.000104071485 -5.488643e-05
000310 0e 36 10 b8 06 d8 2c 38 f2 e2 81 bb 70 90 7a 3b
       -3.4382618e-05 4.1209183e-05 -0.0039638216 0.0038233064
000320 52 d4 17 bb dd cf 17 bb a6 77 10 3a 94 28 b2 ba
       -0.0023167324 -0.0023164668 0.0005510993 -0.0013592415
000330 59 1e 6b bb 5a 0e 74 bb ca a9 3e 3b eb fc 75 bb
       -0.0035876243 -0.003724 0.0029092901 -0.0037534784
000340 99 4c 22 bb 84 0e f8 39 65 81 fb ba 14 3c 6c b9
       -0.0024764894 0.0004731306 -0.0019188343 -0.00022529095
000350 ac c8 86 37 8c 27 c7 ba 97 97 cb ba fd 40 be 3b
       1.606749e-05 -0.0015194281 -0.0015532848 0.005806087
000360 fb ec 68 ba 0f 89 01 bb 53 47 18 bb ca 82 93 b8
       -0.00088854105 -0.0019765531 -0.0023235872 -7.0338676e-05
000370 02 bc 06 3b 91 8a d8 b8 da 60 38 3a c8 0d 55 39
       0.0020558839 -0.000103254926 0.0007033475 0.00020318397
000380 c0 a4 7d 3a 24 de bd 38 0e e1 d8 b9 e2 0e a3 3a
       0.0009675734 9.053599e-05 -0.0004136641 0.0012440349
000390 d2 7c f6 38 3b 1d 0f ba 1e 66 5e 3a 5b f6 fd b9
       0.00011753444 -0.0005459373 0.00084838446 -0.0004843947
0003a0 ed b7 a9 3a 76 07 a9 3a 1a 31 c5 39 86 22 ec 3a
       0.0012948491 0.00128959 0.00037611352 0.001801566
0003b0 49 75 67 3b 4c 5e 20 3a 0c 06 0d 3b dc 8f 4a 3b
       0.003531771 0.0006117567 0.0021518497 0.00309085
0003c0 01 fc 4f 3a a8 cd 75 bb 4e 36 f8 ba d3 14 87 ba
       0.0007933975 -0.0037506614 -0.0018937082 -0.0010305889
0003d0 62 de d2 b9 ce a8 1f b9 14 60 01 bb fc b3 ca b9
       -0.0004022001 -0.00015226306 -0.0019741105 -0.0003866254
0003e0 bb cf 3e 39 65 55 02 ba 6d 7e 94 ba 27 70 29 b9
       0.00018197198 -0.0004971831 -0.0011329182 -0.00016158876
0003f0 ad bf 9d b9 93 12 c7 3b 35 58 e1 ba 2a 9a a5 bb
       -0.00030088183 0.0060752123 -0.0017192425 -0.005053778

conv2.0.bias f4 [32]
000000 28 ab 8d 38 10 72 75 ba 3b 1f 22 bb 23 79 41 ba
       6.755284e-05 -0.0009363005 -0.0024737853 -0.00073804165
000010 c3 25 50 bb 24 89 b7 ba d3 fe ee 38 94 37 52 bb
       -0.003176079 -0.0014002663 0.00011396189 -0.0032076584
000020 a1 81 e0 3a 05 67 d9 b9 ab d4 11 3b 86 23 80 3a
       0.0017128476 -0.0004146622 0.0022252004 0.0009776212
000030 ed 86 7b 3a a3 1c 1a 3b d6 73 bd b9 ce 90 b2 ba
       0.00095949956 0.0023515604 -0.00036135194 -0.0013623477
000040 38 58 a4 b8 a5 18 9d 3a dc 02 a9 bb ba 45 50 3a
       -7.8365614e-05 0.0011985494 -0.0051578116 0.00079449604
000050 bd bf 40 bb f0 54 ae 3a 9c a7 93 bb 81 c2 10 ba
       -0.002941116 0.001330046 -0.0045060646 -0.00055221474
000060 79 1d 42 bb 1f 3e 61 bb 88 27 cb b8 a5 3d 5f b9
       -0.0029619618 -0.0034369302 -9.6871576e-05 -0.00021289902
000070 2d ba d4 bb 69 12 21 ba 34 0c 81 b9 3a e3 e6 ba
       -0.0064919204 -0.0006144406 -0.0002461389 -0.0017615326

conv2.2.weight f4 [32]
000000 81 79 2f 3f b0 29 2f 3f 93 1d 2f 3f 55 77 2d 3f
       0.68544775 0.68422985 0.684045 0.6776021
000010 ae 9c 2e 3f 00 7a 2f 3f f6 c5 2e 3f 98 10 2e 3f
       0.68207824 0.6854553 0.68270814 0.6799407
000020 af 08 2e 3f 3d 6a 2e 3f 31 9a 2f 3f be df 2f 3f
       0.67982 0.68130857 0.6859465 0.6870078
000030 45 6c 2e 3f b1 34 2f 3f 19 b3 2e 3f 5f 96 2f 3f
       0.68133956 0.68439776 0.6824203 0.68588823
000040 86 5d 2d 3f 65 c6 2e 3f 15 83 2e 3f 6e 04 2f 3f
       0.6772083 0.68271476 0.68168765 0.68366134
000050 bc c6 2d 3f 2c 11 30 3f 97 db 2e 3f 5f 46 2f 3f
       0.6788137 0.687762 0.6830382 0.6846675
000060 10 49 2e 3f d0 45 2f 3f ff 94 2e 3f 6f 26 2e 3f
       0.68080235 0.684659 0.681961 0.68027395
000070 f7 04 2e 3f 88 13 2f 3f 8b a6 2e 3f f1 2a 2e 3f
       0.67976326 0.6838918 0.68222874 0.68034273

conv2.2.bias f4 [32]
000000 89 b9 8a 3a 5f 8d c2 39 b8 b5 5c b9 5f 78 a2 3a
       0.0010583858 0.00037107893 -0.0002104853 0.0012395493
000010 d2 97 27 3a 6e 45 6a b9 03 76 4d 3a 41 93 51 3a
       0.00063931674 -0.00022341844 0.00078377145 0.000799466
000020 4a ef 8d 3a f1 79 a7 39 72 08 9f 39 42 4d 59 3a
       0.001082876 0.00031943576 0.00030333136 0.00082894054
000030 51 7c 35 3a 73 77 a1 3a c8 1b a2 b8 c1 f5 ca b9
       0.00069231266 0.0012318924 -7.7299366e-05 -0.00038711543
000040 ae 3b 60 37 6b 71 d3 39 c6 6b 9a 3a 53 f2 50 b9
       1.3365336e-05 0.0004032956 0.0011781387 -0.00019926699
000050 93 de 46 3a 90 53 6c 38 1d d3 ed 39 b3 92 a4 38
       0.0007586267 5.634461e-05 0.00045361454 7.847454e-05
000060 16 c3 67 39 1b 6c 20 3a 4f dd 36 39 89 60 84 39
       0.00022102552 0.00061196246 0.00017439316 0.00025248926
000070 0a e5 8a 3a 55 4a 02 b9 fd 84 4d 3a 43 8b 8f 3a
       0.0010596823 -0.00012425457 0.0007839946 0.0010951537

conv2.2.running_mean f4 [32]
000000 8a ab 00 3c 92 bc e1 3b 2c 12 28 3b 13 dd ca 3b
       0.007853398 0.0068889344 0.0025645597 0.006190905
000010 25 5d ae 3b ae d6 4a 3b 02 be e0 3b d6 d3 e1 3b
       0.0053211623 0.0030950713 0.006858588 0.006891708
000020 52 32 03 3c 14 bb be 3b 73 6c 1b 3c 38 70 f4 3b
       0.008007603 0.0058206413 0.0094863055 0.0074596666
000030 98 ed a3 3b 0f 92 08 3c 50 59 b7 3b 76 2e 9b 3b
       0.0050026886 0.008335604 0.0055953637 0.004735763
000040 3f 79 cb 3b 62 55 ac 3b d7 71 5b 3b 70 c3 d1 3b
       0.006209522 0.005259202 0.0033484602 0.006401472
000050 a7 24 af 3b 8c 75 e1 3b cc 90 b3 3b 67 18 f9 3b
       0.0053449455 0.0068804678 0.0054799076 0.007601786
000060 b2 8b f0 3b 40 51 b5 3b b1 47 e7 3b 9e fc e4 3b
       0.0073408717 0.0055333674 0.007058107 0.006988122
000070 d1 e2 62 3b 99 17 bc 3b 21 ff c1 3b 0d 30 ed 3b
       0.0034620056 0.0057401177 0.0059203063 0.007238394

conv2.2.running_var f4 [32]
000000 ab 67 d6 38 5e 21 b5 38 36 8c 72 38 eb 8e df 38
       0.00010223625 8.636968e-05 5.7827878e-05 0.00010660089
000010 6b fe ce 38 25 90 a9 38 f2 5d ce 38 dd 4d de 38
       9.8702345e-05 8.085397e-05 9.840344e-05 0.00010600288
000020 07 92 ee 38 4d 58 c9 38 00 80 02 39 7b 05 f5 38
       0.00011375924 9.600874e-05 0.0001244545 0.00011683531
000030 d7 e8 00 39 94 e2 fc 38 a7 1e 1f 39 a1 75 a0 38
       0.00012293771 0.000120585 0.0001517484 7.6513046e-05
000040 ed 14 23 39 09 24 39 39 ab 6b 72 38 db 9d fe 38
       0.00015552687 0.00017656399 5.779757e-05 0.00012141067
000050 c4 2d e5 38 2e 43 ab 38 42 12 db 38 65 f5 12 39
       0.000109280954 8.1664286e-05 0.000104461345 0.00014015062
000060 58 f3 e0 38 37 81 d4 38 13 d2 01 39 f6 5e b2 38
       0.00010726479 0.00010133016 0.00012380657 8.505389e-05
000070 fd 71 a7 38 75 29 f4 38 5b 95 cf 38 e2 f1 cf 38
       7.9844125e-05 0.000116425486 9.898349e-05 9.915583e-05

conv3.0.weight f4 [64, 32, 3, 3]
000000 ae 14 0b 3b 7f a7 cc 3a 22 b9 ec 3a cc 23 94 b7
       0.0021222043 0.0015613883 0.0018060545 -1.7659644e-05
000010 ce 0b 1d ba f0 45 72 3a 86 de 2c ba 58 1d b8 ba
       -0.0005990834 0.0009241989 -0.0006594438 -0.0014046831
000020 b5 b1 db b9 27 81 42 3a 96 0f 18 ba ed 15 0c 3a
       -0.00041903337 0.0007419758 -0.00058006623 0.00053438434
000030 92 5e fb ba 33 de 8e ba 63 f6 5a b9 f1 76 ee 39
       -0.0019177964 -0.0010899961 -0.00020881886 0.00045483516
000040 33 ac 89 ba 21 b6 a4 3a 63 66 2e 39 66 c8 d0 39
       -0.001050359 0.0012566486 0.00016632075 0.0003982216
000050 34 60 a8 b8 20 a4 17 3a b3 e0 46 b9 3c 84 16 39
       -8.0287835e-05 0.00057846494 -0.00018966458 0.00014354376
000060 4e c2 51 3a f4 5f 1a 3a b6 f2 27 3a dc bf df 39
       0.0008001671 0.0005888932 0.0006406711 0.0004267682
000070 5f d3 4d ba ba d5 81 39 a2 5d 12 bb 29 37 43 ba
       -0.0007851626 0.00024764036 -0.0022333642 -0.0007446879
000080 cb c2 34 ba e9 79 36 ba 26 6e 07 3a f8 3c 19 ba
       -0.00068954815 -0.0006960915 0.00051662547 -0.0005845572
000090 d2 6b 1d ba 74 67 4a ba a8 17 eb b9 0b f3 13 3a
       -0.0006005141 -0.0007721104 -0.00044840318 0.0005643821
0000a0 fc aa 52 b9 3e ac d2 ba 63 22 97 b9 10 a7 22 ba
       -0.00020090857 -0.0016073061 -0.00028826584 -0.0006204704
0000b0 fa d0 89 ba b1 73 da b9 31 1f 16 3a 8d 10 08 39
       -0.001051455 -0.00041666397 0.0005726694 0.00012976136
0000c0 3b 44 45 39 c3 24 64 3a 4a ab 93 b9 58 c7 1b ba
       0.00018812802 0.00087029877 -0.00028165645 -0.00059424853
0000d0 97 eb 03 ba bb f0 2d 39 6a 8b 68 3a 8a 3d 06 3b
       -0.0005032359 0.00016588245 0.0008870872 0.0020483457
0000e0 c4 49 5d 39 d6 c5 a7 3a 37 f4 3a ba a9 bc 8a b9
       0.00021103682 0.0012800049 -0.0007131728 -0.00026461974
0000f0 31 3c 8a ba 4f 6b 03 bb 77 7a 34 ba 9b 78 17 3a
       -0.0010546503 -0.0020052975 -0.0006884704 0.00057781645
000100 a5 24 19 3a 35 69 34 3a 52 7f c9 ba 48 08 02 3a
       0.0005841947 0.0006882132 -0.0015373027 0.00049603404
000110 35 20 c6 b8 46 a1 9d ba 54 2a 13 ba 86 b7 2b 3a
       -9.447375e-05 -0.0012026213 -0.00056139124 0.00065504794
000120 de 5c ca 39 03 ae c2 3a 59 38 88 ba f8 63 e1 39
       0.00038597634 0.0014852885 -0.001039277 0.00042989827
000130 47 90 c5 b9 57 c0 54 b9 17 2e a2 ba 42 e8 42 38
       -0.00037682263 -0.00020289548 -0.0012373355 4.646951e-05
000140 6b 28 9f ba ab 40 f3 39 3d 3f 9a 39 e6 2c ba ba
       -0.0012142783 0.00046396753 0.00029420285 -0.0014204055
000150 2d 90 6a 38 88 17 d2 ba f1 3a ea b9 98 f0 5d ba
       5.592422e-05 -0.0016028741 -0.00044675873 -0.0008466332
000160 d2 0b fd ba 5c 8a 08 bb 05 86 e9 b8 66 75 06 bb
       -0.0019305891 -0.0020834422 -0.00011135269 -0.0020516752
000170 61 69 b6 b9 bc 69 d0 ba 84 13 1a 3a fc 5d 05 ba
       -0.00034792259 -0.0015900652 0.0005877542 -0.0005087552
000180 85 e2 ae 39 63 7c 1a b9 20 67 18 ba 72 5a fd b8
       0.00033356636 -0.00014732922 -0.00058137067 -0.00012080827
000190 65 a6 39 ba e9 10 18 ba dc 14 69 b9 9d 94 20 ba
       -0.00070819847 -0.00058008597 -0.00022228382 -0.0006125661
0001a0 34 62 0e 3a d2 4b 34 3a b5 95 bb b7 38 d0 9d 3a
       0.00054315035 0.0006877753 -2.236185e-05 0.0012040203
0001b0 75 45 89 ba a5 10 03 ba 3f bb a9 ba 27 80 fb b9
       -0.001047297 -0.00049997336 -0.001294948 -0.00047969932
0001c0 4d 51 de b9 35 4a a8 ba 65 2d 89 ba f8 76 90 ba
       -0.00042403713 -0.0012839498 -0.0010465799 -0.0011021784
0001d0 21 5f 7c ba a4 99 f4 38 04 a3 21 3b a4 65 18 b9
       -0.00096272124 0.000116634445 0.0024663815 -0.00014533714
0001e0 70 7b d3 39 be b2 35 3b 4b 82 f8 39 ed ff af ba
       0.00040337024 0.0027724947 0.00047399322 -0.0013427712
0001f0 6e f0 1f 3a 39 6f f0 39 71 75 b4 ba 1a 37 ab 38
       0.00061011955 0.00045859235 -0.001376791 8.164179e-05
000200 40 7f 72 39 a3 3b e7 b9 67 e8 8e b9 67 37 47 38
       0.00023126323 -0.00044104186 -0.00027257504 4.7496895e-05
000210 36 94 26 ba 0b 4b 7a ba eb 39 15 ba 98 57 f2 39
       -0.00063544826 -0.00095479254 -0.00056925294 0.000462231
000220 bc 5d 01 ba 43 8f 84 3a d3 03 41 ba f3 0c 8b 3a
       -0.0004934927 0.0010113496 -0.00073629356 0.0010608718
000230 8d b6 ac 3a 77 53 cb b8 19 d3 10 b9 27 3c 84 b9
       0.0013176963 -9.695341e-05 -0.0001381155 -0.0002522182
000240 ca 07 a1 3a 5c f1 9c b8 ef a8 cb ba e4 9d f5 39
       0.0012285647 -7.483616e-05 -0.0015538017 0.0004684768
000250 65 14 13 ba af e1 a9 ba 66 03 46 ba 15 61 1f ba
       -0.0005610644 -0.0012960936 -0.0007553607 -0.0006079835
000260 e6 71 74 ba 97 23 63 3a 14 a5 4a 39 b9 be 87 3a
       -0.00093248335 0.0008664666 0.00019325718 0.0010356522
000270 fc c2 81 b8 e3 e4 79 39 20 80 92 39 ed 70 1a ba
       -6.187518e-05 0.00023831757 0.0002794275 -0.0005891461
000280 e4 e4 04 ba 7d 04 2a ba af eb a7 ba 73 51 d8 3a
       -0.0005069508 -0.0006485654 -0.0012811328 0.0016503766
000290 00 ec 4b ba 15 37 47 ba 91 4a 9c b9 52 92 3c 3a
       -0.0007779002 -0.00075994554 -0.00029810195 0.0007193434
0002a0 44 9b 63 ba 33 27 00 ba d2 78 1b ba 10 04 c2 b9
       -0.0008682499 -0.00048886536 -0.00059307844 -0.0003700559
0002b0 0e 92 38 3a 1a 23 da b9 e0 5f 32 3a 43 65 21 3a
       0.0007040807 -0.00041606353 0.00068044476 0.0006156752
0002c0 4b 5e 3c 39 c2 8b 3a b8 43 15 2c 3a f9 7c 57 ba
       0.00017964204 -4.4476015e-05 0.00065644475 -0.00082202215
0002d0 30 d2 58 b6 1c 34 ba ba fc b1 80 ba e6 49 bf ba
       -3.2308853e-06 -0.0014206204 -0.0009818668 -0.0014594167
0002e0 72 06 e2 b9 d9 8a 14 ba 34 1f 7e 39 ba 4c 43 ba
       -0.0004311088 -0.0005666442 0.00024234952 -0.0007450093
0002f0 00 b1 53 ba 15 cc 20 b8 e8 06 d6 3a c4 fe f3 39
       -0.0008075386 -3.833704e-05 0.0016328963 0.00046538387
000300 b0 29 98 3a 3b 56 4b 38 18 88 06 3b 40 e6 fa 3a
       0.0011609104 4.847928e-05 0.0020527896 0.0019142106
000310 83 d2 0e 3b be 1c 87 ba 18 b5 e5 ba 5b f2 0c ba
       0.0021792955 -0.0010308248 -0.0017525284 -0.000537669
000320 b6 4e 47 ba 9f 9d 18 bb 2a af 2e 3a af 64 08 ba
       -0.00076029764 -0.002328731 0.0006663675 -0.00052029913
000330 fc cf 02 3a 69 cb fe b9 00 68 23 bb ec 04 f7 39
       0.00049900985 -0.00048598208 -0.0024933815 0.00047115178
000340 83 74 b2 b8 24 fa 22 b9 87 53 0f ba e7 e9 fd 39
       -8.5094034e-05 -0.00015542709 -0.00054674636 0.0004843019
000350 d6 94 80 ba 51 43 15 39 92 61 93 38 3f 19 55 ba
       -0.0009809982 0.00014234825 7.02768e-05 -0.0008129067
000360 f3 e8 e0 ba 94 57 8f ba 9a e8 3f 38 69 c9 c2 ba
       -0.0017159268 -0.0010936134 4.5754576e-05 -0.001486105
000370 81 dc 18 39 4b 13 5a b9 94 00 e8 b9 90 e4 19 3b
       0.00014577994 -0.00020797287 -0.0004425092 0.002348218
000380 b4 98 6a b9 26 38 ae 3a 60 b5 37 ba ab 7e 98 ba
       -0.00022372865 0.001329188 -0.0007007923 -0.001163443
000390 bb 7a 26 ba 3d 6c e2 ba 08 bd 8d ba bf 06 c0 ba
       -0.0006350686 -0.0017274689 -0.0010813782 -0.0014650448
0003a0 89 08 d4 ba 72 82 dd ba ed 1e 18 bb 6e 6b ac b9
       -0.001617686 -0.0016899838 -0.0023211793 -0.00032886438
0003b0 fa 68 99 3a d1 13 4e ba 98 6f 3f 3a 21 d5 4d b5
       0.0011704259 -0.0007861229 0.00073027005 -7.6678594e-07
0003c0 04 03 d4 3a cc d9 d3 3a 7b ed 1e ba 29 d7 52 ba
       0.0016175215 0.0016162931 -0.0006062609 -0.00080429256
0003d0 b9 36 96 b9 4c 29 52 3a ff 90 17 ba d6 4e 4c ba
       -0.00028651 0.0008017018 -0.0005781799 -0.000779373
0003e0 1e 2d 47 3a 5f a6 0c ba 71 c2 3b ba 1d 1d 99 3a
       0.00075979705 -0.00053653674 -0.0007162458 0.001168165
0003f0 1d ae 78 ba da 8c f3 3a 4b f8 20 bb 7f fd fc ba
       -0.0009486394 0.0018581406 -0.0024562057 -0.0019301622

conv3.0.bias f4 [64]
000000 2b c7 43 ba fd 9a 08 bb 3b 54 89 ba 0f c8 e5 ba
       -0.0007468338 -0.0020844333 -0.0010477373 -0.0017530936
000010 7d 5e 0b bb 4f e7 b4 ba f1 1d 03 ba 20 04 36 bb
       -0.0021266036 -0.0013801845 -0.0005001715 -0.0027773455
000020 97 3e 60 bb 46 62 17 ba b6 e4 fd ba 6b ca 7e 39
       -0.0034216994 -0.0005774837 -0.0019370529 0.00024298734
000030 a0 90 b3 ba 0c 04 ee b9 f7 d2 3d bb 83 77 bc b9
       -0.0013699718 -0.00045397913 -0.0028964856 -0.00035947197
000040 c2 19 a3 ba aa 5c 12 bb 19 5f f9 ba 40 4e c7 b9
       -0.001244359 -0.0022333064 -0.0019025534 -0.0003801454
000050 db cc 13 bb ae 07 89 3a c5 b0 74 b9 dd c9 2d ba
       -0.0022552523 0.0010454559 -0.00023335505 -0.0006629506
000060 d1 00 7c bb c8 e0 0c bb c9 54 aa b9 34 af 32 bb
       -0.0038452635 -0.0021496285 -0.00032488097 -0.0027265074
000070 81 78 4a 3a 2e 50 36 ba 9e 4f 16 bb f7 33 09 ba
       0.0007723645 -0.0006954697 -0.002293564 -0.00052338786
000080 10 ad 1a bb d6 da 82 bb 86 1c af ba 94 34 0b bb
       -0.0023601688 -0.0039933724 -0.0013359941 -0.0021241056
000090 d1 fd 0c bb ff ee 34 ba 57 1f 9e b8 55 b8 80 bb
       -0.002151359 -0.0006902068 -7.5398646e-05 -0.003928224
0000a0 6b 9d c4 b5 b3 5b f3 ba 54 59 b9 ba 4e 6d b3 ba
       -1.4648953e-06 -0.0018566757 -0.0014141002 -0.0013689192
0000b0 d8 f9 0d ba 87 27 f3 ba 3a 93 aa ba ef 7a 83 ba
       -0.0005415953 -0.0018551209 -0.0013013848 -0.0010031144
0000c0 57 80 b0 ba fd 09 2d ba 1b 3b 1d bb 28 00 97 bb
       -0.0013465983 -0.00066009146 -0.0023991528 -0.004608173
0000d0 a7 7e d8 ba 25 a6 18 bb 2c 7b 4d bb 32 c3 f3 b9
       -0.0016517238 -0.002329239 -0.0031353934 -0.00046494004
0000e0 14 18 28 ba 5b 7b 72 bb 1d 7b cf ba 52 9a 82 38
       -0.00064122793 -0.0036999795 -0.0015829537 6.2276275e-05
0000f0 01 33 e8 ba 45 bd 76 ba dc 94 94 bb 4b f9 3b bb
       -0.0017715396 -0.00094123586 -0.004534347 -0.0028682526

conv3.2.weight f4 [64]
000000 45 f3 2e 3f 84 73 2e 3f d6 fd 2d 3f 3a 4e 2f 3f
       0.6833995 0.6814501 0.6796545 0.6847874
000010 d6 b3 2e 3f 2d 26 2f 3f e7 6a 2f 3f df f0 2e 3f
       0.6824316 0.68417627 0.68522495 0.6833629
000020 b9 72 2f 3f fe e7 2f 3f a7 ca 2e 3f 72 80 2d 3f
       0.6853443 0.68713367 0.6827797 0.67774117
000030 88 dc 2f 3f 82 cd 2e 3f e1 f1 2e 3f b6 54 2e 3f
       0.6869588 0.6828233 0.6833783 0.6809801
000040 43 9b 2f 3f e8 f6 2d 3f d2 3d 2e 3f ad fd 2d 3f
       0.68596286 0.67954874 0.6806308 0.67965204
000050 c4 bb 2f 3f 39 39 2f 3f 31 9e 2e 3f be 8f 2e 3f
       0.6864588 0.6844669 0.6821013 0.68188083
000060 dd eb 2e 3f 58 8f 2f 3f c0 cc 2d 3f f6 6b 2e 3f
       0.6832865 0.685781 0.6789055 0.68133485
000070 7e 54 2e 3f 26 0f 2f 3f 59 0c 2f 3f 12 ff 2c 3f
       0.68097675 0.6838249 0.68378216 0.67576706
000080 18 0c 2d 3f 29 53 2e 3f 21 c6 2f 3f 3f 41 2e 3f
       0.6759658 0.6809564 0.68661696 0.6806831
000090 3d 85 2e 3f 83 a6 2f 3f 20 41 2f 3f a9 63 2f 3f
       0.68172055 0.6861345 0.6845875 0.68511444
0000a0 25 94 2f 3f 4d 9d 2e 3f ec ea 2d 3f 9d 47 2f 3f
       0.68585426 0.6820877 0.6793659 0.6846865
0000b0 81 9c 2e 3f e4 20 2e 3f ce 4e 2e 3f 7b da 2d 3f
       0.68207556 0.6801894 0.68088996 0.679115
0000c0 f6 9e 2f 3f a1 3f 2e 3f 6e 6e 2d 3f 88 64 2e 3f
       0.6860193 0.6806584 0.6774663 0.6812215
0000d0 1b 54 2e 3f 37 66 2f 3f 99 2d 2d 3f 13 cc 2f 3f
       0.68097085 0.6851534 0.676477 0.6867077
0000e0 37 33 2f 3f 3c 32 2d 3f 07 7a 2d 3f 67 fa 2d 3f
       0.6843752 0.67654777 0.67764324 0.6796021
0000f0 63 c7 2d 3f bd c0 2f 3f 23 e3 2f 3f ed c8 2e 3f
       0.67882365 0.6865347 0.6870596 0.6827534

conv3.2.bias f4 [64]
000000 9d d3 02 b9 f7 67 d6 b8 e6 66 c9 b8 e7 a5 9b b8
       -0.00012476598 -0.0001022368 -9.603593e-05 -7.421878e-05
000010 0e a0 e4 b8 9e de 0c b9 e3 f9 31 b8 a1 00 30 b8
       -0.000109017 -0.00013434372 -4.2432814e-05 -4.1962256e-05
000020 7b 2e c0 b8 84 eb 21 b8 f4 65 a9 b7 5e cc cc b8
       -9.163931e-05 -3.8604732e-05 -2.0193846e-05 -9.7655444e-05
000030 31 c6 d9 b8 d2 35 72 b8 be a1 22 b9 a4 01 0f b8
       -0.00010384282 -5.774742e-05 -0.00015509778 -3.4095385e-05
000040 ec 49 49 b8 59 1b ae b8 8d 16 74 b9 86 05 a8 b8
       -4.799098e-05 -8.3020605e-05 -0.00023278054 -8.011893e-05
000050 9a 9d 1d b9 51 78 c6 b8 6d 27 96 b8 fb 7f e2 b8
       -0.00015031398 -9.4637864e-05 -7.159901e-05 -0.00010800358
000060 39 54 47 b9 d3 09 d5 b8 08 8b 12 b9 8b 95 4c b8
       -0.00019009494 -0.000101584614 -0.00013975438 -4.8776663e-05
000070 9e 46 be b8 00 24 83 38 5f a0 3f b8 fe 7d fa b8
       -9.0730595e-05 6.253272e-05 -4.5687306e-05 -0.00011944397
000080 30 ff 85 b8 21 f9 2a b9 7f b9 88 b8 cf c1 fd b8
       -6.3894666e-05 -0.00016305271 -6.519537e-05 -0.0001210008
000090 2c 85 ce b8 2d 12 b0 b8 e2 8e cb b8 6b d3 ad b8
       -9.847651e-05 -8.3957195e-05 -9.706408e-05 -8.2886625e-05
0000a0 d1 a7 db b8 84 75 43 b8 b6 de 98 b8 fc fe bd b8
       -0.00010473992 -4.6601068e-05 -7.289408e-05 -9.059717e-05
0000b0 76 0a 91 b8 96 41 d3 b8 3b ea 37 b8 ce 9d e1 37
       -6.916087e-05 -0.000100734804 -4.3848744e-05 2.6895574e-05
0000c0 32 90 8b b8 11 e1 31 b9 d1 3b f9 36 64 97 c0 b8
       -6.654895e-05 -0.00016963879 7.427742e-06 -9.183472e-05
0000d0 69 fd 3b b7 77 19 6a b9 1a 8b 41 b9 66 7e a7 b8
       -1.120507e-05 -0.00022325465 -0.00018457734 -7.986724e-05
0000e0 cb 9c 22 b9 cb 93 98 b8 d2 49 04 b9 1b ee 10 b9
       -0.00015507934 -7.2754534e-05 -0.00012616001 -0.00013821611
0000f0 7d 6e 08 b9 81 4a 81 b8 3e 76 19 b7 7a 57 c9 b6
       -0.00013011131 -6.165077e-05 -9.147041e-06 -6.0004504e-06

conv3.2.running_mean f4 [64]
000000 b4 c3 bd 3b 07 96 87 3b 56 55 09 3b f1 e7 e0 3b
       0.005791152 0.0041377577 0.0020955405 0.006863587
000010 f7 54 20 3c e7 f6 28 3c 79 3c ea 3b ba 4f 79 3b
       0.009785882 0.010312772 0.007148322 0.0038041905
000020 c6 fe e7 3a 7d 83 2d 3c 4d cf 8b 3b 71 59 a7 3c
       0.001769983 0.010590431 0.0042666555 0.020428391
000030 db ec ca 3b 3d 21 26 3c b1 68 eb 3b a7 50 c8 3b
       0.006192786 0.010139761 0.007184111 0.00611313
000040 47 41 b0 3b 8c 2e 06 3c d4 9f ac 3b b9 51 88 3c
       0.0053788754 0.008189809 0.0052680764 0.01664053
000050 c4 d2 11 3b a5 e5 c0 3b 30 df 72 3c 2a c4 e8 3b
       0.002225087 0.0058867508 0.01482372 0.0071034627
000060 f1 93 c4 3a cb 66 1e 3b 9d 29 e8 3b 33 17 86 3b
       0.0014997703 0.0024170156 0.007085039 0.004092121
000070 dd ca 14 3c 0e d3 90 3b e5 da 64 3b e5 5b fc 3b
       0.0090815695 0.004419691 0.003492051 0.0077013844
000080 9a 0a 42 3c a5 c8 3a 3b 78 bd ae 3b 7f 2d e5 3b
       0.011843348 0.002850094 0.005332645 0.006993949
000090 f3 e3 89 3b 20 6d 89 3c 1b 44 46 3c c6 1d 2b 3b
       0.004208082 0.016775668 0.012101199 0.0026110276
0000a0 b3 83 5f 3c 03 60 1a 3c a7 d9 ed 3b 1e d1 0f 3c
       0.013642239 0.009422305 0.007258612 0.008777885
0000b0 9a 96 eb 3b 0d 0a 94 3b c1 40 09 3c 45 ee 50 3c
       0.007189584 0.0045177997 0.008377255 0.01275212
0000c0 b4 36 2b 3c 7a 88 d8 3b dc d2 e4 3b be 4a 64 3b
       0.010450054 0.006608066 0.006983144 0.003483459
0000d0 cb c3 4e 3c b0 88 9f 3b cc 5e 59 3b bb 19 19 3c
       0.012619923 0.0048685893 0.0033168076 0.0093445135
0000e0 03 d0 c9 3c 06 b3 4a 3b 5b 85 70 3b 20 7e 34 3c
       0.02463532 0.003092946 0.003670058 0.011016399
0000f0 d0 dc ab 3b c3 af 55 3c 6b c8 b7 3a b6 8d 08 3b
       0.0052448288 0.013042393 0.0014021521 0.002083642

conv3.2.running_var f4 [64]
000000 4a 66 fa 38 c7 ed d3 38 98 14 3a 38 fc 91 39 39
       0.00011939982 0.000101055535 4.4365035e-05 0.00017697358
000010 02 4f 71 39 fc 50 8e 39 a3 7d 60 39 fa c6 0a 39
       0.00023012984 0.0002714469 0.00021409108 0.0001323483
000020 d5 1c 8b 38 54 46 72 39 53 18 fa 38 95 07 1d 3a
       6.633407e-05 0.00023105118 0.0001192546 0.00059902045
000030 96 d7 84 39 a0 10 f5 39 2e 8b 55 39 9e 6f 41 39
       0.00025337626 0.00046742428 0.00020365111 0.00018447495
000040 d1 ce 1f 39 1b ba 5e 39 04 a9 22 39 87 da 10 3a
       0.00015240467 0.000212409 0.00015512487 0.0005525727
000050 8b cd 89 38 1b ab 2e 39 6c 3c d1 39 b4 cc 84 39
       6.5709544e-05 0.00016657675 0.00039908604 0.00025329518
000060 3e 5a 0f 38 47 d1 57 38 7d 89 8a 39 e7 35 b5 38
       3.41779e-05 5.14549e-05 0.00026423848 8.640793e-05
000070 e3 7e 58 39 d9 45 15 39 c3 39 83 38 ef 99 2f 39
       0.00020646634 0.00014235768 6.257326e-05 0.00016746645
000080 08 4b bf 39 6f 4a ba 38 b1 3f 0a 39 e8 1d 41 39
       0.00036486262 8.8830355e-05 0.00013184432 0.00018417055
000090 ae c2 0e 39 14 fd 14 3a 80 5d ea 39 3b e8 7c 38
       0.00013614699 0.00056834635 0.0004470162 6.0297763e-05
0000a0 cf 4a b4 39 4e bc 69 39 73 0a 39 39 8a 85 7d 39
       0.00034388012 0.0002229076 0.00017646867 0.00024177707
0000b0 3e f0 86 39 7a d0 2c 39 a3 06 87 39 0b 00 cb 39
       0.00025737466 0.00016480862 0.0002575415 0.0003871921
0000c0 14 e1 bb 39 55 fd 87 39 b2 c4 73 39 e6 eb a6 38
       0.00035835116 0.00025937954 0.0002324756 7.959436e-05
0000d0 a2 cb d3 39 4f a2 04 39 63 0d a8 38 5a 91 94 39
       0.00040396774 0.00012648966 8.013358e-05 0.00028337055
0000e0 f0 6d 19 3a b1 61 7d 38 6c 4b d0 38 54 f7 a9 39
       0.0005852869 6.0410883e-05 9.932261e-05 0.00032418466
0000f0 04 f5 02 39 33 64 aa 39 b1 0a 00 38 62 23 33 38
       0.00012489042 0.0003249958 3.0527535e-05 4.270988e-05

conv4.0.weight f4 [128, 64, 3, 3]
000000 ec 91 48 b9 ac bf 0b 38 e1 06 1a ba 6e 80 bd b8
       -0.00019127846 3.331869e-05 -0.0005875659 -9.036144e-05
000010 bc 00 98 b9 a3 5d 02 ba 93 b7 f6 b9 6c 06 09 ba
       -0.00028992246 -0.00049730594 -0.0004705755 -0.0005227092
000020 84 26 fd b9 a7 92 50 b8 6b 2d f4 b9 4b 7a 25 ba
       -0.00048284617 -4.9727645e-05 -0.00046573146 -0.00063124736
000030 4c 66 8b b9 30 58 87 b9 6e 41 74 b9 cf d5 d8 38
       -0.00026588363 -0.0002581491 -0.00023294028 0.000103395076
000040 25 78 ca 38 bd 6b 1b ba 53 69 94 39 e4 cc 86 3a
       9.654489e-05 -0.0005928835 0.00028307232 0.0010284451
000050 2f 61 05 3a c8 77 64 3a ec e3 84 3a 4c 18 ad b9
       0.0005088029 0.00087153586 0.0010138727 -0.00033015234
000060 cb 1f 82 b9 9b f4 b2 b9 a8 c2 8d b9 7e 54 05 b9
       -0.0002481922 -0.0003413305 -0.00027038646 -0.00012715344
000070 70 b8 fa b9 27 9e 0f b9 40 3a 12 ba bd fb d9 39
       -0.00047821132 -0.00013696459 -0.0005578138 0.00041577025
000080 65 41 76 ba ff 31 9b ba 32 b8 45 ba 23 06 9e ba
       -0.00093939 -0.0011840462 -0.0007542401 -0.0012056272
000090 5c 58 15 3a ff 55 26 39 01 c7 55 ba 18 f3 80 ba
       0.00056970655 0.0001586303 -0.0008154959 -0.0009838073
0000a0 e9 49 83 b9 d9 e7 37 ba cf ef 72 3a 50 d8 8a b9
       -0.00025041334 -0.0007015444 0.00092673016 -0.00026482577
0000b0 75 7e 24 ba 13 6e b5 b9 f7 48 a6 39 c3 88 80 b9
       -0.0006274947 -0.00034605022 0.0003171635 -0.00024515958
0000c0 40 15 ee b9 36 21 2e 39 20 1d 05 ba 91 04 63 ba
       -0.0004541073 0.00016606305 -0.00050778873 -0.0008660043
0000d0 fd da 9c b9 d4 2f 6c ba 97 89 04 ba 21 55 5a 39
       -0.00029917798 -0.00090098125 -0.0005055903 0.00020821813
0000e0 06 a4 0b b9 d2 dc 73 ba ac 09 10 b8 87 65 93 ba
       -0.00013317176 -0.0009302619 -3.4341283e-05 -0.0011245467
0000f0 46 76 7c 3a ca 00 bc b8 a4 ee 8c ba 54 d4 71 39
       0.0009630661 -8.9646855e-05 -0.0010752273 0.0002306265
000100 18 6a 4c ba f6 a7 cd 39 91 8b ed b9 a3 d1 a4 b8
       -0.00077977916 0.00039225788 -0.00045308148 -7.859177e-05
000110 43 b9 b0 39 bf cd 65 ba 34 9f 60 ba 19 de 14 ba
       0.00033707367 -0.00087663153 -0.0008568645 -0.0005678847
000120 d2 a5 5d b9 be ce 4b 38 04 31 cd 39 42 9c e8 b9
       -0.00021137975 4.8591515e-05 0.00039137166 -0.0004436691
000130 2e 6e cc b9 5c 84 c0 39 c2 35 08 ba d5 23 d7 b9
       -0.00038992002 0.0003671971 -0.0005195999 -0.00041034693
000140 6c f5 cf b8 8d 87 eb b9 d2 b5 33 39 ad e1 76 b8
       -9.9162426e-05 -0.00044923686 0.00017138504 -5.8861147e-05
000150 8d 2f 9f b9 45 39 9b 38 15 44 98 b9 f9 93 26 b9
       -0.0003036227 7.401643e-05 -0.00029042424 -0.00015886118
000160 e9 65 b0 b9 f8 13 d5 b7 19 1a 8d 39 93 56 6a b9
       -0.00033645265 -2.5400877e-05 0.0002691306 -0.0002234823
000170 ed c5 37 ba e0 bf 9f b8 1d 03 ca 37 40 38 01 ba
       -0.0007010389 -7.61745e-05 2.4081726e-05 -0.00049293414
000180 67 a7 3a ba 1c 08 99 b9 41 17 c9 ba 9a a4 1f ba
       -0.0007120282 -0.00029188476 -0.0015342013 -0.0006089896
000190 b6 c5 c0 b9 e3 d7 b9 b8 b2 1e dd b9 28 76 40 b7
       -0.000367684 -8.8616995e-05 -0.00042175275 -1.1471602e-05
0001a0 55 0e b3 b9 70 d2 84 b8 23 18 eb b9 06 23 b5 b9
       -0.0003415222 -6.3334475e-05 -0.00044840676 -0.00034549105
0001b0 c3 f0 03 37 e4 ea a3 b8 be 9c c6 ba 7f 10 74 3a
       7.864265e-06 -7.8161975e-05 -0.0015152914 0.00093103194
0001c0 a0 8e a1 38 eb 10 9f ba d8 86 0f 3a c1 69 51 b9
       7.703644e-05 -0.0012135779 0.00054751104 -0.0001997119
0001d0 4f e4 4e ba cb 29 34 ba bc b0 3f 39 d6 37 94 39
       -0.0007892297 -0.0006872683 0.00018281018 0.0002827036
0001e0 f0 52 9f ba 60 11 1d 39 14 d6 b5 b8 51 7a a0 ba
       -0.0012155455 0.0001497916 -8.670628e-05 -0.0012243484
0001f0 c0 a9 a3 39 5e b4 f8 38 92 cd 13 3a 3f af 5f b8
       0.00031216256 0.000118591575 0.00056382373 -5.3330554e-05
000200 58 14 27 b8 a9 27 7d b7 02 a7 02 39 3c 78 47 ba
       -3.983485e-05 -1.5089209e-05 0.00012459981 -0.0007609164
000210 a1 d6 91 ba 20 7d 5a ba 50 85 37 ba 13 77 11 ba
       -0.0011126586 -0.0008334685 -0.0007000761 -0.00055490545
000220 0e 94 9b b9 1c 29 c3 39 cc 89 0c ba f4 b5 79 39
       -0.00029674213 0.00037223927 -0.00053611095 0.00023814273
000230 96 78 b0 ba 4c 03 9f ba cc b7 84 b8 4c f4 43 ba
       -0.0013463672 -0.001213172 -6.328485e-05 -0.0007475063
000240 b2 39 35 b9 18 cc 8a 38 36 ba c3 b8 f8 c6 4e 39
       -0.00017282998 6.618368e-05 -9.333009e-05 0.00019719813
000250 6e 80 7c ba 6e 4e e4 39 58 99 91 39 fe 1c 5a 38
       -0.00096321746 0.00043545983 0.00027770805 5.200225e-05
000260 2a 2f ae b9 5e 09 2b ba 38 c8 fa 39 08 b6 bc b9
       -0.00033223006 -0.0006524528 0.0004783289 -0.00035993778
000270 71 7b 01 ba 26 26 22 ba b3 3c 46 ba 91 0c 21 ba
       -0.00049393537 -0.0006185494 -0.00075621455 -0.0006143535
000280 0d a0 6c ba 87 7d c1 ba d9 a2 c4 39 e2 67 24 39
       -0.0009026535 -0.0014762142 0.00037505364 0.00015678958
000290 d1 2c 48 39 dd 56 14 3a dc ca 9f ba 3a 5a 2a ba
       0.00019090182 0.00056586956 -0.0012191194 -0.000649843
0002a0 36 e3 28 ba a4 ac 9a ba 37 cf a8 ba fa 10 dc 39
       -0.00064425485 -0.0011800718 -0.0012879138 0.00041974318
0002b0 e7 23 88 3a cb 00 b8 3a bc 79 0b ba 15 3a c3 b9
       0.0010386676 0.0014038322 -0.0005320569 -0.00037236573
0002c0 cb 55 2c ba 9a a1 1b ba 95 3e b5 b9 b4 1c 31 b9
       -0.00065740634 -0.0005936861 -0.00034569638 -0.00016890728
0002d0 a5 11 00 3a 75 78 53 3a de 27 54 3a ab 98 16 3a
       0.0004885442 0.0008066961 0.0008093099 0.0005744795
0002e0 79 c9 27 ba 3c 0b cc b9 85 7a be b9 b6 6a 2b ba
       -0.0006400566 -0.00038918282 -0.00036330908 -0.00065390335
0002f0 65 b0 3e ba bb e3 e4 b8 d4 55 db b9 bb c7 a0 ba
       -0.00072742096 -0.00010914305 -0.00041834882 -0.0012266556
000300 70 e0 0f ba b0 69 c5 ba d9 46 e0 ba 82 df b5 3a
       -0.0005488461 -0.0015061405 -0.0017110958 0.0013875815
000310 db 40 b5 b9 51 49 e7 ba 4f 0b 39 ba c9 fb 4e b7
       -0.0003457133 -0.0017645751 -0.0007058875 -1.233718e-05
000320 58 18 fa 39 d5 28 96 ba 6f 34 15 b8 00 59 a1 ba
       0.00047701853 -0.0011456261 -3.55732e-05 -0.0012309849
000330 16 79 c9 ba ca 8a 2e 3a d5 ba 11 ba 86 ad 5a 3a
       -0.001537117 0.00066582544 -0.0005559151 0.0008341897
000340 6b 4e bc 3a 25 eb 84 3a d4 ed f6 b9 2d 4b 67 39
       0.0014366632 0.0010140879 -0.00047097972 0.00022057882
000350 53 74 2d ba 29 f4 36 ba 43 4e 87 38 05 33 12 ba
       -0.000661676 -0.0006979132 6.451879e-05 -0.00055770605
000360 aa 33 95 b9 33 81 05 ba 0c 95 52 b9 54 e5 a4 b9
       -0.00028457987 -0.00050927995 -0.00020082685 -0.0003145138
000370 1a 05 c5 b9 aa df e7 b9 7c a1 39 b9 be d2 42 b9
       -0.0003757857 -0.00044226396 -0.00017703132 -0.0001857979
000380 f0 2e fe b7 66 6b 00 3a 75 30 14 ba ed 04 a3 b9
       -3.0301017e-05 0.0004898816 -0.00056529726 -0.00031093453
000390 11 05 71 b8 d5 b7 26 b9 91 8b 08 ba 95 df a7 3a
       -5.7463596e-05 -0.00015899476 -0.00052087853 0.0012807722
0003a0 b3 5d 41 38 b1 00 00 ba 36 e7 8a b9 8f d6 df b9
       4.610205e-05 -0.00048829155 -0.00026493677 -0.00042693733
0003b0 52 66 ad b9 18 e0 c9 38 74 ed 72 ba c0 3a 61 ba
       -0.00033073366 9.6261676e-05 -0.00092669507 -0.0008591823
0003c0 da 69 3e ba 5f 4c f5 39 3d 64 8e ba 2e 18 51 39
       -0.0007263698 0.00046786942 -0.0010863614 0.00019940801
0003d0 21 76 b4 b9 61 aa 33 b9 3a c9 23 ba f9 64 4a ba
       -0.00034420288 -0.00017134241 -0.00062479416 -0.00077207346
0003e0 01 3d f9 b9 c3 7e 8c b8 46 b2 f3 b9 cb b8 64 ba
       -0.00047538432 -6.6993314e-05 -0.00046481396 -0.0008725046
0003f0 ca 76 29 ba bd 7e 51 39 c2 2d 49 ba 95 f0 3f b9
       -0.00064645393 0.00019979007 -0.000767436 -0.00018304803

conv4.0.bias f4 [128]
000000 20 c5 3c b9 ba 56 a3 b9 21 2b e7 b9 41 e4 ae 38
       -0.00018002512 -0.000311544 -0.00044091887 8.339482e-05
000010 fd 56 70 b7 8b 79 82 b9 69 e8 86 36 ed f3 3d 39
       -1.4325368e-05 -0.0002488609 4.0205673e-06 0.00018115314
000020 20 01 49 39 ed c9 35 ba c3 73 91 b9 07 30 3b b8
       0.00019169273 -0.00069346913 -0.00027742804 -4.4629003e-05
000030 85 d7 30 b9 fa 4a 00 3a 04 ea 00 3a fb 61 5f ba
       -0.00016864955 0.0004893985 0.00049176835 -0.0008521375
000040 6e 6c 37 39 4b 48 c9 39 9a 53 8b 39 61 e7 78 ba
       0.00017492633 0.0003839157 0.00026574434 -0.00094949274
000050 71 f2 21 3a c2 8d e1 b9 cf 5a 2a 3a 86 4f 1c b7
       0.0006177789 -0.00043020962 0.0006498517 -9.31684e-06
000060 d4 77 a2 b8 2a 9a 21 38 2b 15 e1 b8 2b f5 0a 3a
       -7.747082e-05 3.8528968e-05 -0.00010732779 0.0005300815
000070 88 66 c3 b9 1c 82 33 39 c3 fc 27 39 ce 97 86 ba
       -0.0003726969 0.0001711924 0.00016020522 -0.001026863
000080 f2 c2 7c b9 19 ad 5b ba 72 3d 10 3a b1 24 7e 39
       -0.00024105216 -0.00083799806 0.000550232 0.00024236996
000090 64 e0 ad b8 9d ff 94 38 34 6b 6b b9 e4 22 6e 39
       -8.291079e-05 7.1048016e-05 -0.00022451283 0.00022710447
0000a0 04 53 fc 39 cc ef a8 b9 09 73 fa 38 3f a2 a3 b9
       0.00048127037 -0.0003222212 0.00011942356 -0.00031210665
0000b0 83 b7 81 b9 30 d4 d6 38 57 a1 7e b8 ad f0 08 ba
       -0.00024741524 0.00010243838 -6.070858e-05 -0.0005223852
0000c0 2d 06 7b b9 72 0f 9a b9 17 7d 34 39 f4 3a 87 b9
       -0.00023939526 -0.00029384677 0.00017212737 -0.0002579313
0000d0 f4 9c 28 b9 2e 85 08 b9 59 41 4e ba 30 14 a4 b7
       -0.00016080198 -0.00013019584 -0.0007868014 -1.9559724e-05
0000e0 4f 9f c2 b7 b6 48 2f ba 26 90 d2 38 a4 04 10 39
       -2.3200786e-05 -0.0006686555 0.0001004043 0.00013734639
0000f0 5b 69 05 b9 fe 82 2f ba a8 d6 c6 b9 88 6f ab b7
       -0.00012723116 -0.00066952396 -0.00037925434 -2.0436724e-05
000100 51 46 f7 38 b0 ca 54 38 86 af 3b ba a0 8a 60 b9
       0.00011790975 5.0733506e-05 -0.0007159639 -0.00021413947
000110 43 fd 02 ba 23 41 4a 39 35 35 13 39 9a bc 76 ba
       -0.00049968454 0.00019288487 0.00014038834 -0.0009412259
000120 33 76 0b 3a 59 b8 26 b9 ea 0c 5f 39 68 60 57 38
       0.0005320042 -0.00015899669 0.00021271748 5.134978e-05
000130 94 eb d6 b9 72 88 39 b8 45 ae 1b 37 76 dd 10 39
       -0.0004099278 -4.423451e-05 9.279295e-06 0.00013815411
000140 76 49 08 ba 88 ac eb b8 ac 78 32 3a b4 e3 ca 39
       -0.0005198935 -0.0001123781 0.00068081426 0.00038698094
000150 60 5c 56 b8 b8 0e 65 37 8a 49 6d 39 13 7c aa 39
       -5.1107607e-05 1.3652891e-05 0.00022629477 0.0003251737
000160 1c b9 de b8 86 8c 37 ba cc a9 9b 38 1b 9d c3 b8
       -0.00010620264 -0.00070018356 7.422603e-05 -9.327588e-05
000170 b0 6e 90 b9 7a ab 39 3a d8 a5 13 ba 4d 0d 1b 38
       -0.0002754829 0.0007082742 -0.00056323176 3.6967267e-05
000180 7c d9 9d b9 91 a3 4a ba d5 83 25 b9 0f d4 46 ba
       -0.00030107412 -0.0007730062 -0.00015784737 -0.00075847
000190 a4 e3 eb 39 2d 42 f1 b7 c2 52 98 ba 83 5f ee 39
       0.00044992298 -2.8760254e-05 -0.0011621343 0.0004546606
0001a0 f7 38 c7 39 2c cd e4 39 f7 7b a0 39 ee 3d ce 39
       0.0003799868 0.00043640414 0.0003060994 0.00039337523
0001b0 f1 dd 3e 38 0e 92 bf b9 e6 43 c2 b8 02 3c 67 b7
       4.550623e-05 -0.00036539178 -9.263288e-05 -1.3782645e-05
0001c0 06 29 5e 37 db 1b 07 b8 6e 48 06 b9 9d d9 ab b9
       1.3241783e-05 -3.221245e-05 -0.00012806218 -0.00032777796
0001d0 eb 13 41 b9 e5 3b 79 ba 7e c9 b8 39 ef 75 b1 b9
       -0.00018413334 -0.0009507521 0.00035245338 -0.00033847938
0001e0 70 1a e7 36 e9 24 cd 39 12 2b fc b9 0d d5 22 39
       6.887414e-06 0.00039128147 -0.00048097275 0.00015528892
0001f0 31 e8 10 ba 16 ee fc 39 df aa 82 b9 a0 f8 f7 b9
       -0.0005527763 0.00048242573 -0.0002492284 -0.0004729675

conv4.2.weight f4 [128]
000000 08 ca 2c 3f b3 02 2d 3f f8 d8 2e 3f 26 bd 2e 3f
       0.67495775 0.67582244 0.6829982 0.6825737
000010 4c 73 2e 3f 28 53 2e 3f 4c 03 2d 3f 35 2f 2d 3f
       0.6814468 0.68095636 0.67583156 0.6765016
000020 63 6e 2e 3f ad 05 2d 3f 67 99 2d 3f fa cf 2e 3f
       0.68137187 0.67586786 0.678122 0.682861
000030 e7 f8 2e 3f 23 ec 2e 3f d5 6a 2d 3f 0f 9f 2d 3f
       0.68348545 0.68329066 0.6774114 0.6782083
000040 21 fa 2e 3f d5 81 2e 3f aa 05 2e 3f 84 c6 2e 3f
       0.68350416 0.6816686 0.6797739 0.6827166
000050 8c 59 2d 3f 4e c0 2e 3f 47 ed 2e 3f 05 ca 2d 3f
       0.6771476 0.68262184 0.68330806 0.6788638
000060 5f f6 2d 3f e0 59 2f 3f f1 7b 2e 3f 75 77 2d 3f
       0.6795406 0.68496513 0.6815787 0.677604
000070 56 df 2e 3f 7a bf 2d 3f d5 99 2c 3f f5 23 2f 3f
       0.68309534 0.67870295 0.6742223 0.6841424
000080 2b 18 2d 3f 62 09 2d 3f cb 17 2e 3f 21 04 2e 3f
       0.67615 0.6759244 0.68005055 0.6797505
000090 13 c5 2e 3f 85 43 2d 3f 96 5b 2e 3f 4e 8e 2e 3f
       0.6826946 0.6768115 0.681085 0.6818589
0000a0 58 bb 2e 3f cc 98 2d 3f 64 60 2d 3f f1 9e 2e 3f
       0.68254614 0.67811275 0.67725205 0.68211275
0000b0 0e b2 2e 3f b4 38 2f 3f 26 bf 2e 3f 9f 22 2d 3f
       0.6824044 0.684459 0.6826042 0.6763095
0000c0 f2 ef 2c 3f a3 9f 2e 3f ec d8 2e 3f 05 42 2d 3f
       0.6755363 0.68212336 0.68299747 0.6767886
0000d0 15 b7 2d 3f 58 71 2d 3f b4 73 2f 3f 18 0a 2d 3f
       0.67857486 0.67751074 0.68535924 0.67593527
0000e0 bc 7b 2c 3f ea 37 2e 3f e4 12 2d 3f c5 5b 2d 3f
       0.67376304 0.6805407 0.6760695 0.67718154
0000f0 46 e2 2d 3f 9f 88 2e 3f 71 a9 2d 3f 63 87 2d 3f
       0.6792339 0.6817722 0.6783667 0.6778471
000100 5c 32 2e 3f 15 df 2e 3f 83 bd 2c 3f 0e 09 2d 3f
       0.6804559 0.68309146 0.6747667 0.6759194
000110 e5 b9 2d 3f 3a ac 2c 3f 47 17 2e 3f f7 8a 2e 3f
       0.6786178 0.67450297 0.6800427 0.68180794
000120 8d 4d 2e 3f dd ab 2d 3f 86 6b 2d 3f 0b 0e 2e 3f
       0.68087083 0.6784037 0.6774219 0.6799018
000130 d2 5d 2f 3f 8a 45 2e 3f 23 13 2e 3f 2b 7d 2d 3f
       0.68502533 0.6807486 0.6799795 0.67769116
000140 43 83 2f 3f 69 7c 2e 3f 83 b1 2e 3f cf e9 2d 3f
       0.68559664 0.68158585 0.6823961 0.6793489
000150 83 f2 2d 3f 6c 55 2e 3f 65 04 2d 3f c4 c2 2d 3f
       0.6794817 0.68099093 0.6758483 0.67875314
000160 4b d6 2e 3f 70 8f 2d 3f 34 77 2e 3f 5e c1 2f 3f
       0.68295735 0.67796993 0.6815064 0.6865443
000170 1a 02 2f 3f b8 41 2f 3f 79 aa 2e 3f e6 14 2d 3f
       0.6836258 0.68459654 0.6822887 0.67610013
000180 6b 87 2d 3f 05 49 2f 3f ca 2f 2e 3f 33 d4 2c 3f
       0.67784756 0.68470794 0.6804167 0.6751129
000190 e1 92 2c 3f c3 22 2e 3f 8c 39 2d 3f b0 d1 2d 3f
       0.6741162 0.6802179 0.67665935 0.6789808
0001a0 72 3f 2d 3f ce 04 2e 3f e7 50 2d 3f 18 32 2f 3f
       0.67674935 0.6797608 0.6770157 0.6843581
0001b0 ac bf 2e 3f 9a cd 2d 3f 82 09 2e 3f b7 36 2e 3f
       0.6826122 0.6789185 0.6798326 0.6805224
0001c0 19 a2 2d 3f 4d b6 2d 3f a4 cd 2d 3f fe fe 2d 3f
       0.67825466 0.67856294 0.6789191 0.6796721
0001d0 44 ab 2d 3f 6d 4e 2f 3f 3f 4f 2e 3f 6a c4 2d 3f
       0.67839456 0.68479043 0.6808967 0.6787783
0001e0 0b 4d 2d 3f d2 99 2e 3f 10 9d 2d 3f ff 8e 2e 3f
       0.67695683 0.6820346 0.67817783 0.68186945
0001f0 73 d6 2d 3f a0 12 2f 3f df ec 2d 3f f8 2a 2f 3f
       0.6790535 0.68387794 0.6793956 0.6842494
