hand_gesture_model.pth (torch, 410975 bytes, 26 tensors)

conv1.0.weight f4 [16, 1, 3, 3]
0	0x38b5516f	8.645921e-05
1	0xbd38d307	-0.045123126
2	0xbb12d57c	-0.0022405079
3	0x3d492422	0.049106725
4	0xbd8bbc24	-0.06822994
5	0xbd3b4a0e	-0.04572492
6	0xa8887f9c	-1.5154375e-14
7	0xbc054fbb	-0.008136685
8	0x3c1447d3	0.009050327
9	0x39ff1911	0.00048656066
10	0xbc6870e7	-0.014187074
11	0x3d4e65c2	0.050390013
12	0x3cf86f2a	0.030326445
13	0xbc57c0a8	-0.013168491
14	0xbd75f651	-0.06004936
15	0xbd78d4fd	-0.060749996
16	0x3d0f4883	0.034981262
17	0x3d02da4b	0.03194646
18	0x3bab9cdc	0.005237205
19	0x3db4637b	0.08808037
20	0xbceeef36	-0.029166799
21	0x3af2d532	0.0018526672
22	0x3d26152d	0.04054754
23	0xbd831a55	-0.06401507
24	0x3b0a808a	0.0021133744
25	0xbd44d348	-0.048053056
26	0xbb3ecfb8	-0.002911551
27	0xbd800626	-0.06251173
28	0x39da8248	0.00041677267
29	0xbd42162c	-0.047384426
30	0x3d813e19	0.06310672
31	0x3c2c9e64	0.01053581
32	0x39dd51b8	0.0004221329
33	0xbc7e5bd9	-0.015524828
34	0x3c70ff67	0.01470933
35	0x3d69d9c0	0.05709243
36	0xbd932019	-0.071838565
37	0xbdacfa1c	-0.08446142
38	0xbd6eaabf	-0.058268305
39	0x3cccde2f	0.02500829
40	0x3b000008	0.0019531269
41	0x3c891115	0.016731778
42	0x3d1a6f5f	0.037703868
43	0x3bd62f1e	0.0065363785
44	0xbcfb7a4a	-0.03069796
45	0xbb1cd22e	-0.0023928988
46	0x3db97813	0.090561055
47	0x3bbcb9f1	0.0057594706
48	0xbd579aec	-0.05263798
49	0xbc939b01	-0.018018248
50	0xbdb11ffb	-0.08648678
51	0xb883f8df	-6.2929226e-05
52	0xba2f1ce0	-0.0006680023
53	0xbd95b470	-0.07309806
54	0x3dbd5579	0.09244818
55	0xbb19f017	-0.0023489052
56	0x3d215c3d	0.039394606
57	0x3c00af77	0.007854334
58	0x3da1cde2	0.07900597
59	0xbd9c5d8e	-0.07635032
60	0xbb07d5cd	-0.00207268
61	0x3cab2182	0.020890001
62	0xbc382e84	-0.011241559
63	0x3b6a6b12	0.0035769385
64	0xbba324be	-0.0049787452
65	0x3d022f22	0.03178323
66	0x3b45583f	0.0030112413
67	0xbd8ff561	-0.07029224
68	0xbd5e49c5	-0.05426957
69	0x3daa4b09	0.08315093
70	0xbb2f3686	-0.002673538
71	0xbbdefcf7	-0.006805058
72	0xbd63d261	-0.055620555
73	0x3d189e0e	0.037260108
74	0xbd676b17	-0.056498613
75	0x3c7e1efa	0.015510315
76	0x3be03c88	0.0068431534
77	0x3c1d9ed7	0.00962039
78	0x3c2262ad	0.009911221
79	0xbce0a80b	-0.02742388
80	0x3d1b8f29	0.037978325
81	0x3da4a941	0.08040095
82	0x3d33a65d	0.04385983
83	0x3d0f0ec4	0.03492619
84	0xbb6de869	-0.0036301857
85	0x3d020465	0.031742472
86	0xbd652928	-0.055947453
87	0xbae567a5	-0.0017502202
88	0xbc07b02a	-0.008281747
89	0xbc40bbed	-0.011763555
90	0xba911f23	-0.0011071902
91	0x3da0793e	0.07835625
92	0x3d1d149a	0.038349725
93	0x3c132cc8	0.008982845
94	0x3d95b76a	0.07310374
95	0xbd1d88d7	-0.03846058
96	0x3d59f920	0.0532161
97	0x3cd78a8a	0.026311178
98	0xbba1faf0	-0.004943244
99	0xbd966324	-0.07343128
100	0xbba76eff	-0.0051096673
101	0xbd1ca401	-0.038242344
102	0x3a2d7454	0.00066167605
103	0xbd062753	-0.032752346
104	0xbc9f8587	-0.01947285
105	0xbd14cf14	-0.036330298
106	0x3d49884b	0.049202245
107	0x3a5c3294	0.0008399871
108	0x3d57986b	0.05263559
109	0xbb956138	-0.0045587085
110	0x3d989d56	0.074518844
111	0xbb233244	-0.0024901787
112	0xbbafdab8	-0.0053666495
113	0x3c6b947f	0.014378666
114	0xb9c9dfaa	-0.0003850435
115	0xbbbb3f1e	-0.0057143113
116	0xbabf9390	-0.0014616121
117	0x3ce1f7cc	0.02758398
118	0x3db7dae7	0.08977299
119	0xbc88641b	-0.016649297
120	0x3ab7deca	0.0014028188
121	0xbb66b887	-0.0035205202
122	0xbac59e3e	-0.0015077067
123	0xbd7c0cff	-0.06153583
124	0x3d66a879	0.05631301
125	0xbc15141d	-0.009099034
126	0x3b8ea473	0.0043531
127	0xbbb2137f	-0.005434453
128	0x3a942f84	0.0011305665
129	0xbcaf6daa	-0.021414597
130	0xbba048a3	-0.0048914715
131	0xbc4a8860	-0.012361616
132	0x3d18811e	0.03723251
133	0xbc8581dc	-0.016297273
134	0x3c5c0686	0.01342929
135	0x3bab9685	0.005236449
136	0x3d2c9e68	0.042143255
137	0xbd0896ab	-0.033346813
138	0x3b54760c	0.0032418994
139	0xba8b0821	-0.0010607281
140	0x3d0a54ca	0.033772267
141	0xbda942d7	-0.08264702
142	0xbda56fe5	-0.08077983
143	0x3da5eaa9	0.081013985

conv1.0.bias f4 [16]
0	0xbd56755b	-0.052358013
1	0x3afef287	0.0019450941
2	0xbc834935	-0.016026119
3	0x3ac4ec2c	0.0015023998
4	0x3d95cc73	0.07314386
5	0x3ac33476	0.0014892954
6	0xbd5ded2b	-0.05418126
7	0x3c8bdfd9	0.017074512
8	0x3c9bfdb6	0.019041877
9	0x3ab61fe7	0.0013895006
10	0x37c49a6a	2.3436925e-05
11	0x3c6b9b48	0.014380284
12	0xbb864fef	-0.0040988843
13	0x3b0b5448	0.0021259952
14	0x3c2dbaba	0.010603601
15	0x3bed59b8	0.0072433613

conv1.2.weight f4 [16]
0	0x3f2e908a	0.681893
1	0x3f2fc613	0.6866161
2	0x3f2e6ede	0.6813792
3	0x3f2f960b	0.6858832
4	0x3f2dbf85	0.6787036
5	0x3f30b55e	0.69026744
6	0x3f2e9b40	0.6820564
7	0x3f2de475	0.6792672
8	0x3f2e0a5c	0.6798456
9	0x3f2fadd3	0.6862461
10	0x3f2e3ef2	0.68064797
11	0x3f2f8392	0.68560135
12	0x3f2ebe1d	0.6825884
13	0x3f2e1cb3	0.6801254
14	0x3f2db701	0.67857367
15	0x3f2fba43	0.6864359

conv1.2.bias f4 [16]
0	0xb7eb4a01	-2.8048644e-05
1	0x3a02d6ff	0.00049911434
2	0x38f4e31f	0.00011677131
3	0x3a420d45	0.000740249
4	0x392571c3	0.00015778006
5	0x390d6fa4	0.00013488397
6	0xb9883060	-0.00025975984
7	0xb7274943	-9.971033e-06
8	0x3a34d185	0.0006897676
9	0x3892824a	6.986091e-05
10	0x392cdf18	0.00016486307
11	0x39b5c6de	0.00034671178
12	0xb96da3a6	-0.00022663045
13	0x39c8bd52	0.00038288027
14	0xb7b16bd8	-2.1150263e-05
15	0x3a39525e	0.00070694636

conv1.2.running_mean f4 [16]
0	0x00000000	0.0
1	0x3b5d39ff	0.0033756492
2	0x3b1b32fc	0.0023681512
3	0x3c8b1385	0.016977081
4	0x3be637a9	0.007025678
5	0x39fca3b0	0.00048187142
6	0x3d20ae5e	0.03922879
7	0x3bf6f433	0.007536435
8	0x3bfb20d4	0.0076638255
9	0x3d8ba1e4	0.068179876
10	0x3e1287e2	0.14309648
11	0x3875798e	5.852576e-05
12	0x3d8af748	0.067854464
13	0x3d5f870b	0.054572146
14	0x3beda777	0.0072526294
15	0x3b90e3b3	0.004421675

conv1.2.running_var f4 [16]
0	0x0a41b792	9.327138e-33
1	0x37d960f5	2.5913565e-05
2	0x38be0e90	9.0626185e-05
3	0x39733a43	0.0002319599
4	0x39f77e83	0.0004720577
5	0x36e902a9	6.944251e-06
6	0x3a3bb5df	0.0007160585
7	0x38af9201	8.3718456e-05
8	0x38e6778d	0.00010989523
9	0x3a3792e6	0.00070027856
10	0x3af1c466	0.0018445372
11	0x351df947	5.8849804e-07
12	0x3a2c0edd	0.0006563494
13	0x39da24d0	0.00041607628
14	0x37355151	1.0807374e-05
15	0x38f9d540	0.00011912966

conv2.0.weight f4 [32, 16, 3, 3]
0	0x375b852c	1.3084424e-05
1	0x31bd8517	5.5157545e-09
2	0x35261553	6.187085e-07
3	0xb5093916	-5.111955e-07
4	0xb1c34707	-5.683322e-09
5	0x37689b7b	1.3864478e-05
6	0xb6227219	-2.4206295e-06
7	0xb20d7673	-8.234212e-09
8	0x35072acf	5.0353714e-07
9	0xbb2482c9	-0.0025102368
10	0x397d5770	0.00024160533
11	0x3b212112	0.0024586362
12	0xbac3e8b9	-0.0014946676
13	0xbbac9516	-0.005266796
14	0x3a71b4e3	0.00092203746
15	0xb994ef93	-0.00028407256
16	0xbba360f6	-0.004985924
17	0xbba400ee	-0.0050049936
18	0x3a880b7a	0.0010379397
19	0x3a50d2d9	0.0007965989
20	0x3af4a4f4	0.0018664883
21	0x3a152ba1	0.00056904
22	0x3aa2cb28	0.0012420164
23	0x3a328697	0.00068102166
24	0xb890baa7	-6.901222e-05
25	0x39933e4c	0.0002808444
26	0x398c2a3c	0.00026734348
27	0xbb106b4d	-0.0022036612
28	0x39942a18	0.00028260122
29	0xbaa91b20	-0.0012901761
30	0xbb395d5a	-0.0028284402
31	0xbb4d37f7	-0.0031313875
32	0xbb10ab4a	-0.0022074752
33	0xb9cad7b1	-0.00038689145
34	0xbb9849b8	-0.00464746
35	0xbbb9841a	-0.0056614997
36	0xba0190f8	-0.00049425615
37	0xbaa34233	-0.0012455642
38	0xb9ac8934	-0.0003290862
39	0xb950d376	-0.00019915201
40	0x3a96f9c7	0.0011518531
41	0x3a80b488	0.0009819428
42	0x3920be13	0.00015329597
43	0x39d50a01	0.0004063398
44	0x38db5ec2	0.00010460384
45	0x39b1780b	0.0003384951
46	0xb823ae15	-3.9024355e-05
47	0x39d990ec	0.0004149744
48	0xb96e0303	-0.0002269857
49	0xb98dbab0	-0.0002703271
50	0x39dcf499	0.0004214391
51	0xba374b2a	-0.00069920963
52	0xbac197b8	-0.0014769947
53	0xba8d2347	-0.001076796
54	0xbb0b6734	-0.002127123
55	0x398ef6bb	0.0002726818
56	0x3ad619ae	0.0016334557
57	0x394e8004	0.0001969338
58	0xba9357c3	-0.0011241365
59	0x3aef625e	0.0018263569
60	0xbb1d5387	-0.0024006085
61	0xba38f2f2	-0.00070552446
62	0x3a301fb1	0.00067185896
63	0xba01cc73	-0.0004951425
64	0xbbc1dc32	-0.005916142
65	0xba309fb0	-0.00067376625
66	0x3abfc741	0.0014631526
67	0xbb73fcf3	-0.0037229627
68	0xbbc3ab02	-0.0059713135
69	0xb905cbb5	-0.00012759755
70	0x3b5c534e	0.003361899
71	0xbb881992	-0.004153439
72	0x3b0e59e5	0.0021721062
73	0x3a63503e	0.000867132
74	0xbb8fe1bf	-0.0043909247
75	0xbadc88af	-0.0016825403
76	0x3aafc203	0.001340926
77	0xba0c17a2	-0.0005344098
78	0xba8e2668	-0.0010845186
79	0xbab99693	-0.0014159254
80	0x3b2f108f	0.002671275
81	0xbb5b1da2	-0.003343441
82	0x39f788cc	0.00047213433
83	0x3b127249	0.0022345951
84	0xba9a3a1c	-0.0011766586
85	0xb9b00c54	-0.0003357852
86	0x3ac5e1a9	0.0015097159
87	0xb997eb71	-0.00028976382
88	0xb9425418	-0.00018532609
89	0x3b2c0999	0.0026250838
90	0xba01da7e	-0.00049535173
91	0x3a242c59	0.0006262712
92	0x3a27b3f0	0.0006397357
93	0xbb28b466	-0.0025742291
94	0x397efef4	0.00024318305
95	0x3a7cdada	0.00096456485
96	0x3a9e78ba	0.0012090423
97	0x3846370e	4.7258152e-05
98	0xba0eca6c	-0.00054470333
99	0xb8ab5bd6	-8.171021e-05
100	0x3902ac12	0.00012461867
101	0x393901e1	0.00017643675
102	0x3660c343	3.3492258e-06
103	0xb7c2d02a	-2.3223536e-05
104	0x3a290934	0.000644821
105	0xb9ead538	-0.00044790818
106	0xb9883f06	-0.00025986898
107	0xb989b46a	-0.00026265095
108	0xb9f1fa7b	-0.00046153725
109	0xbaacafeb	-0.0013174986
110	0x3a9ffc9d	0.0012206022
111	0xbae2a86e	-0.0017292628
112	0xba2cf439	-0.00065976713
113	0x3ade59ab	0.0016963979
114	0xbaf45795	-0.0018641824
115	0xba1812f7	-0.0005801166
116	0x3a3a13fb	0.0007098314
117	0xb9e08b77	-0.0004282852
118	0x398496fa	0.00025289488
119	0xb81b863d	-3.70799e-05
120	0x39339aa4	0.00017128378
121	0xbb1ca889	-0.0023904166
122	0x3b2c159c	0.0026257997
123	0x3978713f	0.0002369331
124	0xbab0bf76	-0.0013484794
125	0xba2f5741	-0.0006688722
126	0x3ab897d5	0.0014083335
127	0xbab5ab08	-0.0013860175
128	0xbab232ae	-0.0013595426
129	0xbb2eea6f	-0.0026690026
130	0x38007434	3.06258e-05
131	0xbbb5bb7a	-0.0055460306
132	0xbb1beeb1	-0.0023793394
133	0x3a4c0c99	0.00077838596
134	0x3ad02ed0	0.0015883092
135	0xbb0e5fc7	-0.0021724568
136	0xbac34262	-0.0014897103
137	0xbb802f80	-0.0039119124
138	0x3af0f972	0.0018384887
139	0xbb347974	-0.0027538212
140	0xbb187a37	-0.0023266205
141	0xba46eec8	-0.0007588682
142	0xbb1bdb77	-0.0023781934
143	0xbb1eab37	-0.0024210939
144	0xb3122399	-3.402565e-08
145	0x3353b55e	4.929222e-08
146	0xb702a994	-7.788087e-06
147	0xb31bfd9f	-3.6319417e-08
148	0x33f2043d	1.1269774e-07
149	0xb3297405	-3.9453898e-08
150	0xb28c04eb	-1.6300381e-08
151	0xb481069a	-2.4032926e-07
152	0xb6addab5	-5.1812626e-06
153	0xba0704da	-0.0005150564
154	0x3b1865d7	0.002325406
155	0xba321268	-0.0006792904
156	0xb97ee7bf	-0.0002430966
157	0xba58cba7	-0.00082700927
158	0xbb159731	-0.0022825713
159	0x39dd6668	0.00042228703
160	0xbab30967	-0.0013659418
161	0xbb305ebc	-0.0026911935
162	0xb9b44965	-0.0003438696
163	0xb9bf480c	-0.00036484038
164	0xba98c926	-0.0011656627
165	0xb9ac41cf	-0.00032855428
166	0xba01ef9d	-0.00049566646
167	0xbac0f166	-0.001472038
168	0xba024774	-0.0004969754
169	0xb98f148e	-0.000272904
170	0xbad06d4e	-0.0015901716
171	0x39673872	0.00022050904
172	0xbb181991	-0.0023208598
173	0xbafe65de	-0.0019409021
174	0xbb5784a5	-0.0032885459
175	0xbb8d158f	-0.0043055485
176	0xbb82f106	-0.0039960174
177	0x37db6625	2.61544e-05
178	0xbabc972e	-0.0014388317
179	0xbbe42d2b	-0.0069633923
180	0xbac7cc6a	-0.0015243415
181	0xba87b260	-0.0010352843
182	0xbb0744c7	-0.002064036
183	0xb8ca79e9	-9.654818e-05
184	0xba11e6cd	-0.0005565703
185	0xba3eae68	-0.00072739134
186	0x3b151679	0.002274899
187	0x3a89cde0	0.0010513626
188	0x3a58e82d	0.0008274343
189	0xb8cf5bb0	-9.887607e-05
190	0xb9f2e0ba	-0.0004632527
191	0xba1fa0df	-0.00060893403
192	0xba0b0a1e	-0.0005303937
193	0x391facb3	0.00015227757
194	0xb956e9cc	-0.00020495726
195	0xba1ef394	-0.00060635176
196	0xbac5aca4	-0.0015081358
197	0xbac56463	-0.0015059825
198	0xba5e4afc	-0.00084798015
199	0xbad80e5d	-0.0016483773
200	0xbacda2b3	-0.0015688747
201	0xba87eafd	-0.0010369715
202	0x3946b9ff	0.0001895204
203	0x3a06934e	0.00051336444
204	0xbb04a6eb	-0.0020241092
205	0x39cab142	0.0003866051
206	0x3941d073	0.00018483568
207	0xba82ae60	-0.0009970181
208	0xbb8fe39b	-0.0043911464
209	0xbbca4a20	-0.006173387
210	0x39f354c7	0.00046411736
211	0xbaa08363	-0.0012246188
212	0xba1412d2	-0.00056485564
213	0x3b6dbab1	0.0036274607
214	0x3b8a2bbb	0.004216639
215	0x3bd13052	0.006383934
216	0x3aa0809a	0.0012245358
217	0xbb40af43	-0.002940134
218	0x3a03166e	0.00050005957
219	0xbaf3a7dd	-0.0018589456
220	0xbb07b001	-0.0020704272
221	0xbad79df3	-0.0016450271
222	0xbb0a5295	-0.0021106352
223	0xba94e6f2	-0.0011360331
224	0xbb28b2e0	-0.0025741383
225	0xbaaba8da	-0.0013096586
226	0x3a87b62c	0.0010353974
227	0x3982cf26	0.0002494987
228	0xb920f874	-0.00015351345
229	0x3b552834	0.0032525184
230	0x3b1b6d28	0.0023716185
231	0x3826c160	3.975758e-05
232	0xb8cb0743	-9.681147e-05
233	0xb9db5a60	-0.0004183827
234	0xb9ee10a5	-0.000454073
235	0x3a137994	0.00056257215
236	0x3b3ee741	0.0029129537
237	0xbb27b2c9	-0.0025588742
238	0x3b080241	0.0020753297
239	0x3a7171e6	0.00092103926
240	0x3960ed54	0.00021450716
241	0x3a85d993	0.0010211937
242	0xba1bb948	-0.000594039
243	0xb974354b	-0.00023289506
244	0xb938f7db	-0.00017639941
245	0xb93e2ba5	-0.00018136071
246	0xb9a1491d	-0.00030762787
247	0xb93695a2	-0.00017412615
248	0xb93a0dcc	-0.00017743482
249	0xba1d34cc	-0.0005996942
250	0xb9d863ab	-0.0004127299
251	0xb94bab71	-0.00019423456
252	0xba3b2f14	-0.0007140499
253	0x3ab0c60c	0.0013486757
254	0x3ac228c4	0.0014813174
255	0x3a87e1bb	0.0010366956

conv2.0.bias f4 [32]
0	0xbbb4046d	-0.0054936917
1	0xb9fe0102	-0.00048447406
2	0xbb422f56	-0.0029630265
3	0xbb2a1312	-0.0025951308
4	0xbb94fbb9	-0.0045466092
5	0x3b5632d2	0.00326841
6	0x398a1a26	0.00026340893
7	0xb9d38a97	-0.00040348314
8	0xb9c470e3	-0.0003746814
9	0x3aaa3919	0.0012986987
10	0xba0019ed	-0.0004886676
11	0x3b20f662	0.0024560918
12	0xbac3d9a5	-0.0014942182
13	0xbb29899d	-0.0025869377
14	0x3a2ebdad	0.0006665837
15	0x39484c23	0.0001910185
16	0x3a5c6c20	0.0008408446
17	0xbb4f1c63	-0.0031602613
18	0x3afa63fe	0.0019103286
19	0x39e566cd	0.00043754876
20	0xbb2754c6	-0.0025532707
21	0xbab85543	-0.0014063496
22	0xbbd6ff78	-0.006561216
23	0x39d702f3	0.00041010193
24	0x3af09801	0.0018355848
25	0xba9048cf	-0.0011008027
26	0xbb065833	-0.0020499348
27	0xb92205b9	-0.00015451656
28	0xb9c85def	-0.0003821696
29	0xbb62e45e	-0.003462098
30	0xba48ea9a	-0.0007664353
31	0xbae11c81	-0.0017174633

conv2.2.weight f4 [32]
0	0x3f2e26ad	0.68027765
1	0x3f2d7cd4	0.677686
2	0x3f2e6e73	0.6813728
3	0x3f2d8697	0.6778349
4	0x3f2f7443	0.68536776
5	0x3f2e6a94	0.68131375
6	0x3f2fb9e3	0.68643016
7	0x3f2fb39c	0.6863344
8	0x3f2d8058	0.6777396
9	0x3f2ed3bc	0.6829183
10	0x3f2f34f6	0.68440187
11	0x3f2e1f98	0.6801696
12	0x3f2f4ea2	0.6847936
13	0x3f2e144e	0.6799973
14	0x3f2e9943	0.6820261
15	0x3f2f1c25	0.6840232
16	0x3f2e7ce2	0.68159306
17	0x3f2f0254	0.6836293
18	0x3f2f86ff	0.6856536
19	0x3f2e3773	0.6805336
20	0x3f2f10c3	0.6838495
21	0x3f2fdf8a	0.6870047
22	0x3f2e3b59	0.6805931
23	0x3f2fc143	0.6865427
24	0x3f2f7cff	0.68550104
25	0x3f2dc7a1	0.67882735
26	0x3f2fb6f0	0.68638515
27	0x3f2e1542	0.68001187
28	0x3f2d4791	0.67687327
29	0x3f2e81da	0.6816689
30	0x3f2ef762	0.68346226
31	0x3f2dae1b	0.6784379

conv2.2.bias f4 [32]
0	0xb82596f2	-3.9479644e-05
1	0x39cb2522	0.00038746843
2	0x3924d43c	0.00015719322
3	0x39a34431	0.0003114059
4	0x392ce1d0	0.0001648732
5	0x3a069a74	0.00051347096
6	0x3989f0b5	0.00026310017
7	0xb746e53b	-1.18550915e-05
8	0x39d50373	0.00040629096
9	0x398ec790	0.00027233036
10	0x39678111	0.00022077958
11	0x394dc784	0.00019624649
12	0x399a4a5c	0.0002942857
13	0x39c51364	0.00037589215
14	0x38e5dd00	0.000109607354
15	0x396e6389	0.00022734528
16	0x39010ce0	0.00012307195
17	0x3a1c1bfe	0.0005955099
18	0x39a173a0	0.0003079446
19	0x39f788fa	0.00047213567
20	0xb6dff594	-6.674507e-06
21	0x387ba9f5	6.0001348e-05
22	0x39e76140	0.0004413221
23	0x38cd6354	9.793663e-05
24	0x3927c699	0.00016000344
25	0xb7d299ba	-2.5105535e-05
26	0x38c89b85	9.565711e-05
27	0x39fc6b04	0.00048144918
28	0x39df436c	0.00042584108
29	0x393b7be5	0.00017879864
30	0x39262ae4	0.00015846972
31	0x3989384d	0.00026172624

conv2.2.running_mean f4 [32]
0	0x3b79b3ce	0.0038101557
1	0x3c16389d	0.009168771
2	0x3b874be6	0.004128921
3	0x3bc3ca79	0.0059750644
4	0x3b8551f8	0.0040686093
5	0x3bcee903	0.0063143983
6	0x3b9c40ed	0.004768482
7	0x3bce7f8d	0.0063018263
8	0x3bf8bfb9	0.0075912145
9	0x3bf4b696	0.007468055
10	0x3bc523c8	0.0060162283
11	0x3c04020f	0.008057131
12	0x3be56735	0.0070008286
13	0x3bd0f051	0.006376304
14	0x3be369af	0.0069400887
15	0x3bd1f4a5	0.0064073377
16	0x3be36250	0.00693921
17	0x3b7ad812	0.003827576
18	0x3bd29183	0.0064260378
19	0x3bf67968	0.007521797
20	0x3bacc415	0.0052723982
21	0x3b5e4db7	0.0033920833
22	0x3b420a17	0.0029608065
23	0x3bf816a2	0.0075710574
24	0x3c17688a	0.009241233
25	0x3bd063d0	0.006359555
26	0x3b8b35d3	0.0042483597
27	0x3bcceb2f	0.006253622
28	0x3c195da2	0.009360703
29	0x3b812111	0.0039407094
30	0x3bb3a5f7	0.005482431
31	0x3bf0adb3	0.0073449253

conv2.2.running_var f4 [32]
0	0x382b28e8	4.0807674e-05
1	0x38cf79f0	9.893242e-05
2	0x388a3d86	6.5918124e-05
3	0x38f8d68b	0.00011865523
4	0x3895826c	7.1291666e-05
5	0x38730cd7	5.7947673e-05
6	0x38f51be1	0.00011687703
7	0x38ecb97a	0.000112879046
8	0x390464e8	0.00012626091
9	0x38b6b8a6	8.71283e-05
10	0x389f500b	7.59662e-05
11	0x39196467	0.0001462862
12	0x38c8816a	9.5608484e-05
13	0x3940aaa0	0.0001837411
14	0x392e8ca0	0.0001664632
15	0x3878aad2	5.9286896e-05
16	0x391b2437	0.00014795443
17	0x388e62ae	6.789468e-05
18	0x38c9c659	9.621372e-05
19	0x38ed1946	0.00011305748
20	0x38a9921c	8.085763e-05
21	0x391a0b33	0.00014690757
22	0x3854eede	5.07672e-05
23	0x38d3e7e2	0.000101044556
24	0x38ff45b6	0.00012172332
25	0x394f2a1d	0.00019756747
26	0x38fd94b5	0.00012091679
27	0x3883ed7e	6.290803e-05
28	0x38dcffc8	0.000105380605
29	0x388c474f	6.6890025e-05
30	0x389a5485	7.359035e-05
31	0x39179257	0.00014454998

conv3.0.weight f4 [64, 32, 3, 3]
0	0xbb0a9bbf	-0.002114996
1	0x387ed5de	6.07575e-05
2	0xba592bbb	-0.00082844094
3	0xbb297c52	-0.0025861454
4	0x3b09d97a	0.0021034167
5	0x3b0fa110	0.002191607
6	0xb7961dbb	-1.7895238e-05
7	0x3b7c1e68	0.0038470272
8	0x39031c3d	0.00012503653
9	0x39e87532	0.00044337806
10	0xb99b3fcd	-0.0002961144
11	0xba44fe3e	-0.00075146917
12	0xb9c7ab6d	-0.0003808396
13	0xba7687ea	-0.0009404408
14	0xba46fb49	-0.0007590545
15	0x3a6b8eca	0.0008985816
16	0x3a6f60d5	0.00091315556
17	0xba1427f8	-0.0005651708
18	0xbb2b0d53	-0.002610047
19	0x3772a24d	1.4462113e-05
20	0xba5e4751	-0.0008479255
21	0xbb006ffb	-0.0019597996
22	0xba93ad89	-0.0011266927
23	0x3a3955a9	0.00070699543
24	0xbab1eda8	-0.0013574855
25	0x38d4dbe0	0.00010149903
26	0xbaa6cddd	-0.0012726147
27	0xbb1b86f0	-0.0023731552
28	0xbad3183e	-0.0016105247
29	0xba1f4b84	-0.00060766214
30	0xbb1ee76e	-0.002424683
31	0xba8d2d85	-0.0010771012
32	0x3a980ba8	0.0011600154
33	0x3a425845	0.0007413666
34	0x3b63e4df	0.003477387
35	0x3a361eb7	0.0006947326
36	0xbab20134	-0.0013580681
37	0xbae8d598	-0.0017763851
38	0xba379ee6	-0.00070045737
39	0x3a7c7c03	0.00096315163
40	0xbacbbe90	-0.0015544463
41	0x3a8a7322	0.0010562877
42	0x39d8e9a2	0.000413728
43	0x3b1d47e8	0.0023999158
44	0x3a14958b	0.00056680356
45	0xba827b1f	-0.0009954906
46	0xbad89471	-0.0016523731
47	0xba9280af	-0.0011177267
48	0xba44bea5	-0.0007505215
49	0xbb0967a8	-0.0020966325
50	0xba88db6d	-0.001044137
51	0xbae0df2e	-0.0017156356
52	0xbb0f16d2	-0.002183367
53	0xb939a68c	-0.00017705018
54	0xba1d3902	-0.00059975695
55	0xba104ea3	-0.0005504882
56	0xb819b7b6	-3.6649137e-05
57	0xba36f325	-0.00069789804
58	0xb8b05c3b	-8.409513e-05
59	0x3a948843	0.0011332113
60	0x3a8be77a	0.0010673844
61	0x3a929997	0.0011184689
62	0x3a548bb1	0.0008107974
63	0xba0e44ac	-0.0005427103
64	0xba6506a0	-0.0008736644
65	0x3988d9c4	0.0002610219
66	0x3a1d534a	0.0006001486
67	0xb8bee6c9	-9.102893e-05
68	0x39f15e30	0.00046037277
69	0x3a7e8e88	0.000971057
70	0x3a67d59f	0.00088437827
71	0x398bf789	0.00026696574
72	0xba83bb26	-0.0010050281
73	0xba0ad04b	-0.00052953203
74	0xbb0eb513	-0.002177541
75	0xbad482fe	-0.0016213355
76	0xba9d6b4f	-0.001201013
77	0xb7bee675	-2.275708e-05
78	0xbae461ed	-0.0017424204
79	0x3a8fe6e0	0.001097884
80	0xb98df0c7	-0.0002707301
81	0xbaa62ac1	-0.0012677537
82	0xba9528ba	-0.0011379935
83	0xb6d97dd6	-6.481753e-06
84	0xba869ff4	-0.0010271058
85	0x3906f9da	0.00012872313
86	0x386e8cd4	5.687478e-05
87	0xba7d7049	-0.0009667916
88	0xba22b060	-0.00062060915
89	0xba5e65cc	-0.0008483797
90	0xba913834	-0.0011079372
91	0xb92af6a8	-0.0001630435
92	0xb9e104ad	-0.00042918828
93	0xbb2c02d9	-0.0026246815
94	0xba8f168d	-0.0010916755
95	0x3a6653f4	0.00087863137
96	0xba998825	-0.0011713548
97	0x3a47721b	0.00076082506
98	0x3a90a856	0.0011036496
99	0xbadcac09	-0.0016835938
100	0xba471eb9	-0.00075958256
101	0x3a2d76b1	0.00066171127
102	0xb913ba55	-0.00014088427
103	0xb986ce70	-0.0002571228
104	0x3a5c4ac0	0.00084034726
105	0xb9632949	-0.00021663787
106	0x3a5e6e55	0.00084850687
107	0x3960d8ce	0.0002144307
108	0xba1797b4	-0.00057827984
109	0xba0763c5	-0.0005164708
110	0x391c08e6	0.00014880634
111	0xba40cb33	-0.0007354498
112	0xba485901	-0.0007642657
113	0x38c9e21b	9.626542e-05
114	0x3a8f3d89	0.0010928373
115	0x3add6867	0.0016892076
116	0x39a9e9ac	0.0003240829
117	0xbb18b6fc	-0.0023302427
118	0xba8de794	-0.0010826462
119	0xb9ad1d07	-0.00033018758
120	0xbafd2b29	-0.0019315231
121	0xba90eb81	-0.0011056514
122	0xba56511d	-0.0008175539
123	0xbabdddd2	-0.0014485663
124	0xb8e5ec0b	-0.00010963537
125	0xbae06c98	-0.0017122207
126	0xba72c079	-0.0009260248
127	0x39adb2f7	0.0003313047
128	0xb9690441	-0.00022222196
129	0xb92ea26d	-0.00016654441
130	0xba0ce098	-0.0005374043
131	0xba735b54	-0.00092833233
132	0x3a2e31aa	0.0006644974
133	0x39999425	0.0002929281
134	0xb91a9f44	-0.00014745916
135	0xbb05b92a	-0.0020404556
136	0xb9594d21	-0.00020723465
137	0xba605510	-0.0008557597
138	0xba227c6a	-0.0006198349
139	0xb8da0b43	-0.00010397148
140	0xbab62ba3	-0.0013898503
141	0x37c62183	2.3619044e-05
142	0xb7c76b79	-2.3772694e-05
143	0xbaccf1a5	-0.001563598
144	0xba85a5aa	-0.0010196466
145	0xbab3b336	-0.0013710025
146	0xb98a86fb	-0.0002642198
147	0x394304ca	0.00018598433
148	0xb946e90d	-0.0001896957
149	0x39bf1867	0.0003644854
150	0xb6d27cbd	-6.273009e-06
151	0xba0b9166	-0.0005324095
152	0xb9cd6223	-0.00039173765
153	0xbaaaf735	-0.0013043644
154	0x375dc8ed	1.3219408e-05
155	0xbb12f3f3	-0.0022423237
156	0xb9a47f2b	-0.00031375265
157	0xba982701	-0.0011608304
158	0x39803d1a	0.00024459587
159	0xbaf6d41a	-0.0018831522
160	0x3ae6a358	0.0017596288
161	0x39cac821	0.0003867755
162	0xbab4eb01	-0.0013802947
163	0xba932594	-0.0011226409
164	0x398650a5	0.00025618557
165	0xba0c290b	-0.0005346692
166	0x39256e02	0.00015776607
167	0xb9e21bea	-0.00043126877
168	0xba62b9e8	-0.0008648918
169	0xb9d70de7	-0.00041018354
170	0xba624962	-0.0008632151
171	0xbaf74b3c	-0.0018867026
172	0xba7ac48f	-0.00095660327
173	0xba93314b	-0.00112299
174	0xbadb42c2	-0.0016728269
175	0xbb1d3e0d	-0.0023993284
176	0xb9972df3	-0.000288352
177	0x38a14fc7	7.691938e-05
178	0xba22ba8f	-0.0006207609
179	0xb8825e1a	-6.216411e-05
180	0xbaeec1f0	-0.0018215757
181	0x3a7a4df9	0.0009548362
182	0xba81460a	-0.0009862792
183	0x3a2a5a7a	0.00064984674
184	0xb92f6eb3	-0.00016730539
185	0x3b0b0042	0.002120987
186	0x3af749bc	0.0018866579
187	0x3a0c96f8	0.0005363072
188	0x3a6485a6	0.0008717425
189	0x3a7aa2fa	0.00095610286
190	0x3a3632bf	0.0006950311
191	0x3a2b00c3	0.0006523246
192	0x3abe8318	0.0014534919
193	0x38b1e4ec	8.482658e-05
194	0x3a183e91	0.0005807663
195	0x3a84bce4	0.0010127095
196	0x3a0db6d9	0.00054059696
197	0x3988fef8	0.00026129908
198	0xbb0dbafa	-0.002162634
199	0x3a0bfd37	0.0005340161
200	0x3a65136a	0.00087385497
201	0xba09ba94	-0.00052539376
202	0xba98d12c	-0.0011659018
203	0xbb31a227	-0.0027104707
204	0x3a2b4e71	0.0006534821
205	0x3aa5b82b	0.0012643387
206	0x3aa52266	0.0012598753
207	0x38f49a50	0.000116635696
208	0xb8b9bcdf	-8.8566674e-05
209	0xb9c4f130	-0.00037563732
210	0xba48afb8	-0.00076555787
211	0x3a3a5363	0.00071077625
212	0x3ac8bc33	0.0015314877
213	0xbaeedf73	-0.0018224552
214	0xb89e6066	-7.551983e-05
215	0xba4b94f0	-0.0007766029
216	0xbae3da82	-0.0017383846
217	0x3a15b7ca	0.00057112856
218	0xb8875c14	-6.4544525e-05
219	0xba5a0673	-0.0008317001
220	0xba2498ed	-0.0006278891
221	0x3a1f3381	0.00060730433
222	0x3aac3c05	0.0013140446
223	0x3af8b670	0.0018975269
224	0x38ca03dc	9.6328295e-05
225	0xba4917ef	-0.0007671108
226	0xb9a6c22e	-0.00031806662
227	0xba6aede5	-0.00089618406
228	0xb9b71eca	-0.0003492742
229	0xb956eccc	-0.00020496844
230	0xb925f0df	-0.00015825358
231	0xb6bf06e0	-5.693044e-06
232	0x3a0cc52d	0.00053699577
233	0xb71d337e	-9.369918e-06
234	0xba3bb69a	-0.00071606936
235	0x3988438a	0.00025990262
236	0x39d7853b	0.0004110726
237	0xb9f8bb1d	-0.00047441656
238	0xb9b01a51	-0.00033588943
239	0x3a75594b	0.0009359314
240	0x394cb3bf	0.00019521917
241	0x3a986d87	0.0011629321
242	0x3ab385e0	0.0013696514
243	0x3a51c5ce	0.00080021925
244	0xba6d216d	-0.00090458133
245	0xb9b458f0	-0.0003439854
246	0x3a99be11	0.0011729618
247	0xba6e52d7	-0.00090913236
248	0xba835399	-0.0010019421
249	0x3a299501	0.00064690417
250	0xba08fec4	-0.00052259513
251	0x3986f0db	0.00025737923
252	0xb9d19f59	-0.0003998231
253	0xba81da0d	-0.0009906903
254	0xba9ddc3b	-0.0012043783
255	0xb9d76203	-0.0004108102

conv3.0.bias f4 [64]
0	0xbb6e586f	-0.0036368628
1	0xba9fddd8	-0.0012196852
2	0xba187ed7	-0.00058172405
3	0xbae0c780	-0.0017149299
4	0xbb26310d	-0.0025358826
5	0xba105ab2	-0.0005506679
6	0xba1b690d	-0.00059284345
7	0xba9e8fd9	-0.0012097313
8	0xbabfeb0a	-0.0014642191
9	0xbb2cfe61	-0.0026396739
10	0xbb95dc6e	-0.0045733964
11	0xbaa58981	-0.001262948
12	0xb80d3818	-3.366926e-05
13	0xbb00c137	-0.0019646415
14	0xbaf9b58e	-0.00190513
15	0xbadf90cb	-0.0017056701
16	0xb8fdd76e	-0.00012104107
17	0xbaf71870	-0.0018851887
18	0xbaa15ef9	-0.0012311629
19	0xb9d15234	-0.00039924833
20	0xbb4800b7	-0.0030518004
21	0xbb60ef33	-0.0034322261
22	0xbbea7ba0	-0.0071558505
23	0xbaa1b63e	-0.0012337638
24	0xba9e75b3	-0.001208952
25	0xbb7deab3	-0.0038744628
26	0xbaa00032	-0.001220709
27	0xbb30c1a7	-0.0026970895
28	0x38f87b2d	0.00011848505
29	0xbb2bb1a2	-0.0026198407
30	0xbb29cb3b	-0.0025908488
31	0xb994c519	-0.0002837561
32	0xba272b0f	-0.00063769607
33	0xbb03cd43	-0.002011136
34	0xbac66780	-0.0015137047
35	0xba9e917e	-0.0012097803
36	0xbaa5034e	-0.0012589486
37	0x397fb64e	0.00024386609
38	0xbb1c1150	-0.002381403
39	0xba77857f	-0.0009442195
40	0xbb1dae48	-0.0024060179
41	0xba4e69d9	-0.0007874049
42	0xbb0f1f1b	-0.0021838609
43	0xbae54938	-0.0017493134
44	0xbab937b3	-0.001413098
45	0xb9fcd28e	-0.0004822206
46	0xba0b2249	-0.0005307538
47	0xbb8a70bc	-0.0042248648
48	0xba971ea3	-0.0011529516
49	0xbaac6dfc	-0.0013155336
50	0x3a425417	0.0007413043
51	0xbb1d3a87	-0.0023991184
52	0xb96e6b56	-0.00022737434
53	0xba2e06ac	-0.00066385674
54	0xba3eaffc	-0.00072741485
55	0xba95df8e	-0.0011434422
56	0xbadaf096	-0.001670378
57	0xbb27fed2	-0.0025634062
58	0xba5499dd	-0.00081100856
59	0xbaa4bcee	-0.0012568512
60	0xba1c9498	-0.000597307
61	0xbb13bfa4	-0.0022544647
62	0xba38e878	-0.00070536835
63	0xb9f32d21	-0.00046382195

conv3.2.weight f4 [64]
0	0x3f2f1413	0.68390006
1	0x3f2eb74a	0.68248427
2	0x3f2d8378	0.6777873
3	0x3f2ef986	0.6834949
4	0x3f2e0f1f	0.6799182
5	0x3f2efd6a	0.6835543
6	0x3f2fb508	0.68635607
7	0x3f2ddeed	0.6791828
8	0x3f2db413	0.67852896
9	0x3f2e7add	0.68156224
10	0x3f2dcf33	0.67894286
11	0x3f2e1d17	0.6801314
12	0x3f2f02fd	0.68363935
13	0x3f2cf305	0.6755832
14	0x3f2f49a4	0.6847174
15	0x3f2e5071	0.68091494
16	0x3f2fd70c	0.6868751
17	0x3f2d5a91	0.6771632
18	0x3f2e8722	0.68174946
19	0x3f2d7d22	0.6776906
20	0x3f2f4358	0.68462133
21	0x3f2de34f	0.6792497
22	0x3f2f3a36	0.684482
23	0x3f2f27c7	0.6842007
24	0x3f2de126	0.67921674
25	0x3f2f9002	0.68579113
26	0x3f2fc1a1	0.6865483
27	0x3f2edc25	0.68304664
28	0x3f2fbab9	0.6864429
29	0x3f2f4747	0.68468136
30	0x3f2fb9b7	0.68642753
31	0x3f2f142c	0.68390155
32	0x3f2ee6d0	0.6832094
33	0x3f2ea810	0.68225193
34	0x3f2f4488	0.68463945
35	0x3f2f4c1f	0.68475527
36	0x3f2cef46	0.675526
37	0x3f2dd529	0.6790338
38	0x3f2ed79a	0.6829773
39	0x3f2faea2	0.68625844
40	0x3f2f8f3c	0.68577933
41	0x3f2f93ed	0.6858509
42	0x3f2d2af9	0.67643696
43	0x3f2e8b6b	0.68181485
44	0x3f2f0971	0.6837378
45	0x3f2f2754	0.68419385
46	0x3f2f167e	0.68393695
47	0x3f2dccee	0.6789082
48	0x3f2e7b28	0.6815667
49	0x3f2e575e	0.6810206
50	0x3f2f9fba	0.686031
51	0x3f2f5f3a	0.6850468
52	0x3f2eb35f	0.6824245
53	0x3f2e698f	0.6812982
54	0x3f2e6c7d	0.6813429
55	0x3f2e316c	0.6804416
56	0x3f2ee930	0.68324566
57	0x3f2f137a	0.68389094
58	0x3f2ec4ac	0.6826885
59	0x3f2e1ba1	0.6801091
60	0x3f2f0dc9	0.6838041
61	0x3f2da707	0.6783299
62	0x3f2f3e57	0.684545
63	0x3f2eefba	0.68334544

conv3.2.bias f4 [64]
0	0xb881ad3c	-6.183467e-05
1	0xb870b4f0	-5.738897e-05
2	0xb92dbc2c	-0.00016568665
3	0xb8fd4029	-0.00012075931
4	0xb8825d5b	-6.216272e-05
5	0xb8e93d08	-0.00011121674
6	0xb8a84cee	-8.0251935e-05
7	0xb8b60abc	-8.680436e-05
8	0xb8c79a64	-9.517817e-05
9	0xb86fff93	-5.7220062e-05
10	0x37d6e6ba	2.5618228e-05
11	0xb8c44894	-9.359527e-05
12	0xb8a25ac6	-7.74167e-05
13	0xb7ccc934	-2.4412388e-05
14	0xb8d12e2c	-9.974497e-05
15	0xb89d19dd	-7.491161e-05
16	0xb8589ea9	-5.1646177e-05
17	0xb90b2ece	-0.00013273509
18	0xb82a21d5	-4.0562667e-05
19	0xb852de6e	-5.0275055e-05
20	0xb8ce0cea	-9.825251e-05
21	0xb81411fd	-3.5302703e-05
22	0xb914f959	-0.00014207269
23	0xb8fa0a24	-0.00011922818
24	0xb83f10ce	-4.55536e-05
25	0xb894cfd3	-7.0959e-05
26	0xb8db1f0a	-0.00010448515
27	0xb8850eb7	-6.344675e-05
28	0xb8db7e87	-0.00010466301
29	0xb8f5e2ab	-0.000117247306
30	0xb9118ae3	-0.00013880017
31	0xb8e4c391	-0.00010908314
32	0xb8e3f757	-0.00010870274
33	0xb79d4c87	-1.8751494e-05
34	0xb8d76a06	-0.00010271747
35	0xb8ad58b7	-8.265807e-05
36	0xb944b265	-0.00018758474
37	0xb904cef9	-0.00012665604
38	0xb8a7ff61	-8.0107486e-05
39	0xb8af84c2	-8.369378e-05
40	0xb8f0599d	-0.000114607836
41	0x36a4745d	4.9011273e-06
42	0xb8d47cfe	-0.00010132229
43	0xb91825dd	-0.00014509955
44	0xb88a25bd	-6.587382e-05
45	0xb89a7061	-7.3642244e-05
46	0xb9202cf0	-0.0001527553
47	0xb8acf00a	-8.24631e-05
48	0xb8a01987	-7.6341494e-05
49	0xb89c50da	-7.4537194e-05
50	0xb8a0d9f9	-7.669995e-05
51	0xb88b4bd0	-6.642158e-05
52	0xb870cf23	-5.741337e-05
53	0xb8d31c58	-0.000100665435
54	0xb8ba9ecd	-8.89875e-05
55	0xb87c44f8	-6.0145714e-05
56	0xb84e27be	-4.915124e-05
57	0xb8ade5de	-8.292099e-05
58	0xb8a65da4	-7.932939e-05
59	0xb8ad100b	-8.252271e-05
60	0xb8ba50d7	-8.884229e-05
61	0xb84ff7da	-4.9583476e-05
62	0xb8c7de9e	-9.530525e-05
63	0xb8ceecfc	-9.866987e-05

conv3.2.running_mean f4 [64]
0	0x3b1dde36	0.0024088747
1	0x3b53d9e3	0.0032325916
2	0x3c4062ae	0.011742277
3	0x3bc7ac6f	0.0060935537
4	0x3b4a2878	0.0030846875
5	0x3bf4c23f	0.007469445
6	0x3ba36ab0	0.0049870834
7	0x3b8255ac	0.003977498
8	0x3bc8a03a	0.006122616
9	0x3b51b0b1	0.0031996185
10	0x3a5e647f	0.0008483603
11	0x3c193695	0.009351392
12	0x3c7ad3e9	0.015309312
13	0x3b8d7765	0.0043172115
14	0x3b4f6b7c	0.003164976
15	0x3b88a266	0.00416975
16	0x3cd6f2f9	0.026238905
17	0x3b0925c3	0.0020927049
18	0x3c13db38	0.009024434
19	0x3bbbc56a	0.0057303207
20	0x3b0f3953	0.0021854236
21	0x3ad6c90c	0.0016386821
22	0x3acc7e60	0.0015601628
23	0x3be2296c	0.0069019105
24	0x3bc8489a	0.0061121704
25	0x3ba061fd	0.0048944936
26	0x3c1bb228	0.009502925
27	0x3aec416c	0.0018024868
28	0x3d006460	0.031345725
29	0x3b07e3b6	0.0020735092
30	0x3bac45b4	0.0052573327
31	0x3c244bf4	0.010027874
32	0x3c170f03	0.009219888
33	0x3c1dbb0c	0.009627115
34	0x3b27bd74	0.00255951
35	0x3be06a94	0.0068486426
36	0x3c3b87f4	0.011445988
37	0x3d034bee	0.032054834
38	0x3b59b047	0.0033216642
39	0x3bd97210	0.0066359118
40	0x3b3076ee	0.0026926356
41	0x3b6a29e0	0.0035730526
42	0x3b60807b	0.0034256268
43	0x3b992ee1	0.004674778
44	0x3c0075a2	0.007840546
45	0x3c417690	0.011808053
46	0x3c6f5b3c	0.014609154
47	0x3a96246a	0.0011454944
48	0x3bfb46c6	0.007668349
49	0x3c36f468	0.011166669
50	0x3cabf353	0.02099005
51	0x3b1d372c	0.0023989184
52	0x3b61720b	0.003440025
53	0x3bebbe81	0.0071943407
54	0x3c425211	0.0118603865
55	0x3c070dda	0.008243049
56	0x3ba8000b	0.0051269582
57	0x3b5f06a8	0.0034031067
58	0x3c217b9d	0.009856132
59	0x3b38ff21	0.002822824
60	0x3b2c1be9	0.0026261753
61	0x3b482baa	0.0030543604
62	0x3ca94e8f	0.020667342
63	0x3c3b79b9	0.011442595

conv3.2.running_var f4 [64]
0	0x38743a05	5.822817e-05
1	0x3887acc6	6.469483e-05
2	0x3983d637	0.0002514587
3	0x3929afc1	0.0001618257
4	0x38c1aaac	9.234747e-05
5	0x393edb70	0.00018201559
6	0x38e91b20	0.00011115358
7	0x39241962	0.00015649715
8	0x392392d6	0.00015599592
9	0x38bb287b	8.924395e-05
10	0x38307608	4.2071595e-05
11	0x39631897	0.00021657567
12	0x39b9b9dc	0.00035424426
13	0x38ca5c2b	9.649278e-05
14	0x38857ecf	6.365554e-05
15	0x38ce9086	9.849765e-05
16	0x3a041926	0.0005039148
17	0x383a5183	4.442177e-05
18	0x39961d6a	0.00028632145
19	0x393f5713	0.00018247617
20	0x3883c0be	6.282468e-05
21	0x38280189	4.005575e-05
22	0x3838a741	4.4024786e-05
23	0x3959b0c0	0.00020760577
24	0x390966b8	0.00013103604
25	0x39097f1e	0.00013112693
26	0x3986e3dc	0.0002572824
27	0x38557e25	5.090064e-05
28	0x3a2fb79c	0.000670308
29	0x3849835d	4.8044476e-05
30	0x3938d213	0.00017625866
31	0x39635385	0.0002167952
32	0x395c759c	0.00021024648
33	0x3994ace3	0.0002835757
34	0x38a559a9	7.8845136e-05
35	0x3966d864	0.00022015121
36	0x39ae342f	0.00033226746
37	0x3a0dc8b1	0.00054086285
38	0x38bcdabb	9.00528e-05
39	0x39116078	0.00013864215
40	0x38885e65	6.502568e-05
41	0x3906c83b	0.00012853828
42	0x38b1ed48	8.484215e-05
43	0x3916e9fc	0.0001439228
44	0x39348c44	0.0001721839
45	0x3999ae20	0.00029312167
46	0x39c3855b	0.00037292656
47	0x37dd9ddb	2.641876e-05
48	0x397478c3	0.0002331464
49	0x399c9768	0.00029867445
50	0x3a01ee35	0.0004956455
51	0x38757649	5.8522714e-05
52	0x38bae5ee	8.911999e-05
53	0x3934b69b	0.00017234164
54	0x39e56644	0.00043754478
55	0x398e829d	0.00027181665
56	0x39080227	0.00012970773
57	0x3897c4c9	7.236895e-05
58	0x3988ca2f	0.0002609058
59	0x388e0ef7	6.773875e-05
60	0x38927fc2	6.985619e-05
61	0x38ae7bad	8.320003e-05
62	0x3a057e9a	0.00050924125
63	0x39af331e	0.00033416686

conv4.0.weight f4 [128, 64, 3, 3]
0	0xb9e69e31	-0.0004398688
1	0xb91beeba	-0.00014870884
2	0x3a8f50bb	0.0010934094
3	0xba0eea91	-0.0005451823
4	0xb9c94dbf	-0.00038395633
5	0x3a783f32	0.0009469866
6	0xb9d8b2de	-0.00041331997
7	0xb80c8807	-3.3505286e-05
8	0xb9c3ebaa	-0.00037368882
9	0xba56881f	-0.0008183736
10	0xb988661c	-0.0002601602
11	0x39014c94	0.00012330926
12	0xba0f7d89	-0.0005473723
13	0xb8f3b476	-0.000116207564
14	0x398f62fe	0.0002734884
15	0x37485842	1.1941478e-05
16	0x39eb6f0a	0.00044905423
17	0x39f4ae3b	0.00046669118
18	0xbac60805	-0.0015108591
19	0xba8aa806	-0.0010578639
20	0x3980b455	0.0002454842
21	0xbad5e0f7	-0.0016317655
22	0xb9ed21d2	-0.0004522936
23	0x39e8f8d8	0.0004443589
24	0xba289f5a	-0.00064324366
25	0xb9928569	-0.00027946688
26	0xb9e9a856	-0.00044566643
27	0xb98add65	-0.00026486363
28	0xb9ca3383	-0.00038566822
29	0x3845128f	4.6985744e-05
30	0xb9e84c49	-0.00044307325
31	0xb8bf5a74	-9.124438e-05
32	0x398df0e2	0.00027073087
33	0xb9e685f3	-0.00043968818
34	0xba813451	-0.000985751
35	0xbaa51df8	-0.0012597432
36	0xba43508f	-0.0007450664
37	0xb8fa700c	-0.00011941799
38	0x39e2b62d	0.0004324181
39	0xba0f8ddf	-0.00054761575
40	0xb72aef4d	-1.0188506e-05
41	0x397a95b3	0.00023897625
42	0xba5a5a3c	-0.0008329486
43	0xb9072ae6	-0.00012890584
44	0x3a36e271	0.00069764914
45	0xbaa9b3dc	-0.0012947279
46	0xba40e9d7	-0.00073590636
47	0xb99ef3ff	-0.000303179
48	0xba5a09a8	-0.0008317479
49	0x38fb8c57	0.00011994753
50	0xb84c024e	-4.8639537e-05
51	0xba44264c	-0.00074825133
52	0xb90c62fe	-0.00013388318
53	0xba5d8713	-0.00084506086
54	0xba9cfccf	-0.0011977198
55	0xba72c9dc	-0.0009261647
56	0x395e0596	0.00021173651
57	0xb9ae5340	-0.00033249892
58	0xb943ffe7	-0.0001869198
59	0xba078283	-0.0005169289
60	0x3abec12e	0.0014553422
61	0xb7b8bef4	-2.2023429e-05
62	0xba327bff	-0.0006808638
63	0xbad78419	-0.0016442566
64	0xbac83c2b	-0.001527672
65	0xba861866	-0.001023066
66	0xb925be2e	-0.00015806474
67	0x3748b9c2	1.1964179e-05
68	0x3935e525	0.00017346868
69	0xb909d4fa	-0.00013144678
70	0x3775829c	1.4633548e-05
71	0x3997aabb	0.00028928168
72	0xbafd3cb1	-0.0019320456
73	0xba1f1318	-0.0006068214
74	0xba64dc61	-0.0008730349
75	0xb9dcdf8d	-0.00042128228
76	0x39be4800	0.00036293268
77	0x3a2036f9	0.0006111707
78	0xba09c214	-0.0005255055
79	0xba02e850	-0.00049937237
80	0xb97bd19a	-0.00024015308
81	0x3adbe390	0.0016776193
82	0xb8b3fe05	-8.5827e-05
83	0xb9c26143	-0.0003707503
84	0x39877957	0.00025839612
85	0xb9bb34b3	-0.00035706683
86	0xb9a86e9a	-0.00032125862
87	0xba763383	-0.0009391831
88	0x396ef6cb	0.00022789386
89	0x37c2ff75	2.3245559e-05
90	0xbad5e034	-0.0016317428
91	0xb8ad0241	-8.249703e-05
92	0xb7f3cfe8	-2.9064671e-05
93	0xbad12ec4	-0.0015959372
94	0x39583b2a	0.00020621406
95	0xb96ab97b	-0.00022385076
96	0x3908dd58	0.00013052428
97	0xb9e48e22	-0.00043593446
98	0xba844dbf	-0.0010093971
99	0xba53f4dd	-0.00080854987
100	0xb9b12e4a	-0.0003379456
101	0x368f3ba7	4.2686765e-06
102	0xba8b3c36	-0.0010622803
103	0xb88af5f3	-6.6261644e-05
104	0x37d1c3bb	2.5005886e-05
105	0xba87ac26	-0.0010350987
106	0xb955f557	-0.00020404659
107	0xba749e6a	-0.0009331467
108	0x39d54fbb	0.0004068593
109	0xba23863f	-0.0006237961
110	0x39c7e39c	0.0003812582
111	0x3a25a056	0.00063181424
112	0xb99e0535	-0.00030139988
113	0x39516249	0.00019968407
114	0xb830dd8d	-4.2168005e-05
115	0x39a8f9d0	0.00032229582
116	0x39288fd5	0.0001607531
117	0xb82226ed	-3.8660062e-05
118	0xb9a54af4	-0.00031527097
119	0xb9ceb399	-0.00039425193
120	0xb8ad2e37	-8.257891e-05
121	0xba5adc7b	-0.0008348894
122	0xb6b3640e	-5.3462636e-06
123	0xb98c2e98	-0.00026737596
124	0xb93ea6dd	-0.00018181973
125	0x38a11f37	7.6828925e-05
126	0x3717e753	9.054161e-06
127	0xb9357e12	-0.0001730847
128	0x3996c4c5	0.00028756834
129	0x3a008737	0.0004902961
130	0xb8a2f83d	-7.771e-05
131	0x39983183	0.00029028588
132	0xb887af75	-6.469983e-05
133	0x3a2582c7	0.0006313738
134	0xb8f21777	-0.0001154383
135	0xba5ff311	-0.00085429946
136	0xba4f4697	-0.0007906942
137	0xb8d05581	-9.934139e-05
138	0x3a353a0a	0.00069132505
139	0xb9e5f485	-0.00043860465
140	0x3849195f	4.7945763e-05
141	0x3a1429c9	0.00056519784
142	0x39f989c1	0.00047595616
143	0xba382613	-0.00070247165
144	0x393f4a43	0.00018242844
145	0xb851a1e1	-4.9980245e-05
146	0xb9295cc6	-0.00016151657
147	0x39a9916d	0.00032342543
148	0xb97be503	-0.00024022539
149	0xb92a09d3	-0.00016216123
150	0x39689b50	0.00022183103
151	0xb995188f	-0.00028437792
152	0xb9aed184	-0.00033343968
153	0xbaead12a	-0.0017915119
154	0xba84cb03	-0.0010131303
155	0xb93fa7c0	-0.00018277671
156	0xba93f6c0	-0.0011288747
157	0x3a51ac16	0.000799836
158	0xb9c026d7	-0.00036650032
159	0xb8f0b3d0	-0.000114775845
160	0x3adebb61	0.0016993099
161	0xba563403	-0.00081712025
162	0x3a4e01b8	0.00078585325
163	0xb8912119	-6.920304e-05
164	0xb9672ab1	-0.0002204578
165	0xb9b0d909	-0.0003373104
166	0xb937ad42	-0.00017516784
167	0xb924a94f	-0.00015703331
168	0xba4bd78f	-0.0007775956
169	0xb8ada03d	-8.2791295e-05
170	0x36b38090	5.3495824e-06
171	0xb9876eac	-0.00025831664
172	0xb7d64bda	-2.554611e-05
173	0xba0426e4	-0.00050411955
174	0x3a52689a	0.0008026451
175	0xb8e21b12	-0.00010781562
176	0xba14ff64	-0.0005683808
177	0x39d1c62f	0.00040011245
178	0x3a2c3c3d	0.00065702555
179	0xba0d35de	-0.000538675
180	0xba3b52fb	-0.0007145849
181	0xba08b0f4	-0.00052143564
182	0xb974efd2	-0.00023358993
183	0xba85cf4d	-0.0010208875
184	0xba26856f	-0.00063522806
185	0xb9c2b1b6	-0.00037134968
186	0xba286e4c	-0.0006425127
187	0x397e8367	0.00024272279
188	0xb8f6edd5	-0.00011774494
189	0xba3a4dc3	-0.00071069243
190	0xb9b3daa6	-0.00034304446
191	0xb963e78e	-0.00021734668
192	0xba09c823	-0.0005255958
193	0xb95741e9	-0.00020528551
194	0xb89f185b	-7.5862474e-05
195	0x391415e3	0.00014122533
196	0xb9019979	-0.00012359572
197	0xb7e9508a	-2.7813268e-05
198	0xb3c8faa0	-9.358814e-08
199	0xb9861721	-0.00025575704
200	0x387a545f	5.968322e-05
201	0xb9fb416e	-0.000479232
202	0x396600fe	0.00021934879
203	0x39d59c5b	0.0004074302
204	0xba007522	-0.00049002666
205	0x39ce1182	0.00039304426
206	0xb9a0de6e	-0.000306833
207	0xba2fd28e	-0.00067070953
208	0xbaa979ba	-0.0012929954
209	0xb9f9c756	-0.00047641498
210	0x3aa2e9d8	0.001242931
211	0xb96345e3	-0.00021674442
212	0x39e7ac1a	0.0004418798
213	0x3a85262e	0.0010158473
214	0xb92ce26c	-0.00016487547
215	0x39ab0608	0.00032620155
216	0xba64d2ab	-0.0008728902
217	0x3ab9cf33	0.001417613
218	0xba29405d	-0.0006456429
219	0xba3aa3cb	-0.0007119744
220	0x3a33159b	0.00068315276
221	0xb9931334	-0.00028052332
222	0xba265fef	-0.00063466927
223	0x39cb2f3c	0.0003875437
224	0x38da9669	0.00010423066
225	0x3a3917a3	0.0007060712
226	0x38bf2580	9.114575e-05
227	0x3a16c53f	0.0005751438
228	0x3abf204c	0.0014581769
229	0xba26624d	-0.00063470454
230	0x39eeca6f	0.00045545722
231	0x3a9640d2	0.001146341
232	0xb9ed1e26	-0.00045226625
233	0xba1eac37	-0.00060528837
234	0xba090eb7	-0.0005228328
235	0xba95b6b6	-0.001142225
236	0xba1472c3	-0.0005662853
237	0xba16a0ac	-0.0005745988
238	0xba5323aa	-0.00080543256
239	0xb9019370	-0.00012357323
240	0xba442055	-0.00074816245
241	0x39e87d9a	0.0004434407
242	0x3930ef3c	0.0001687379
243	0xba074f35	-0.0005161644
244	0xb923e8c4	-0.00015631603
245	0xb9cb85d0	-0.00038818875
246	0xb9d04974	-0.00039727578
247	0x3a933c33	0.0011233151
248	0xba62c2ec	-0.00086502614
249	0xb985a286	-0.00025488826
250	0xba077670	-0.000516749
251	0xba17dad4	-0.0005792801
252	0x3a512b02	0.0007979126
253	0xba11484b	-0.00055420835
254	0xb9455a50	-0.00018821028
255	0x398d3654	0.00026934093

conv4.0.bias f4 [128]
0	0x38e0b96d	0.000107156906
1	0xb92637c8	-0.00015851774
2	0xba04d3e0	-0.0005066972
3	0x39d099f5	0.00039787558
4	0xba135779	-0.00056206394
5	0x3a100ea7	0.00054953474
6	0x3a2761f0	0.0006385138
7	0x3961ddc7	0.0002154029
8	0xba2b9551	-0.0006545382
9	0x39e3a848	0.00043422193
10	0x399614d1	0.0002862574
11	0xb9befc72	-0.0003642771
12	0x393f17c2	0.0001822403
13	0x39a7bc30	0.00031992933
14	0xb839b903	-4.4279743e-05
15	0x38f38b06	0.00011613038
16	0xb900dab2	-0.00012288502
17	0x3986bb23	0.000256979
18	0x39ccbec0	0.00039052032
19	0xb996cb65	-0.0002876177
20	0xb8b6e5ed	-8.721263e-05
21	0x39a52acf	0.00031503147
22	0x39eb22e1	0.0004484868
23	0x39e15ca2	0.0004298436
24	0x38916815	6.9335256e-05
25	0xb9c508b6	-0.00037581258
26	0xb99f590e	-0.00030393194
27	0xb9a712ba	-0.00031866675
28	0x390c4734	0.00013377966
29	0xb98da68b	-0.000270177
30	0xb9324a69	-0.00017003123
31	0x392b627f	0.00016344523
32	0x3a4ed151	0.0007889467
33	0xba0e6868	-0.0005432428
34	0xb9c8a960	-0.00038273167
35	0x3a0dddb5	0.000541176
36	0x39ad6131	0.00033069545
37	0xb9ac2aeb	-0.00032838373
38	0xb8c1fbd2	-9.249862e-05
39	0x3883e86a	6.289857e-05
40	0x3a192fb8	0.00058435975
41	0x39eb9ea7	0.00044940898
42	0xb88dcaba	-6.761165e-05
43	0xba13f3c9	-0.0005643932
44	0xba5ac721	-0.00083457126
45	0x38b85063	8.788777e-05
46	0xba113a56	-0.0005540004
47	0x3924e32c	0.00015724887
48	0x39df218d	0.00042558872
49	0x39baa929	0.0003560272
50	0x3929beb2	0.00016188135
51	0xb741c90c	-1.1550506e-05
52	0x39050eac	0.00012689334
53	0xb892dc44	-7.00285e-05
54	0xb90d5503	-0.00013478477
55	0x39f6dec2	0.00047086744
56	0x39211630	0.00015362422
57	0x39e6bfe0	0.00044011977
58	0xb85ba9ca	-5.2371797e-05
59	0xba877bab	-0.0010336539
60	0xb9091736	-0.00013073985
61	0xb994e6bb	-0.00028400667
62	0xba4a9cc3	-0.0007729048
63	0x3910f1c8	0.0001382298
64	0xb9ad8c84	-0.00033101824
65	0xba322579	-0.0006795745
66	0x391938ea	0.00014612419
67	0x39a8e9fe	0.00032217795
68	0xb99b60d0	-0.00029636035
69	0xb9a623d2	-0.00031688676
70	0xba295c48	-0.00064605894
71	0xb9ace165	-0.00032974328
72	0xb9ff7ae8	-0.00048728962
73	0x38bf3868	9.118096e-05
74	0x39491d55	0.00019179781
75	0xb7a27c57	-1.9369805e-05
76	0x399cef0f	0.0002993275
77	0xb8be37e1	-9.070314e-05
78	0xb9a2eba6	-0.0003107462
79	0x39f8d403	0.00047460207
80	0xba0b839f	-0.0005322042
81	0xb9c23872	-0.00037044619
82	0xb9ce03e8	-0.00039294292
83	0xb9ed2daf	-0.000452382
84	0xb92b0929	-0.00016311243
85	0xb91054a6	-0.00013764444
86	0x3a1d755b	0.0006006562
87	0x399654b7	0.00028673347
88	0x39995698	0.0002924695
89	0xb9623f7d	-0.00021576691
90	0xb9d8f4f4	-0.00041381235
91	0xb8a5ce9c	-7.906297e-05
92	0x391c6128	0.00014913513
93	0xba0f3513	-0.0005462926
94	0xba327afd	-0.0006808488
95	0xb8e000a7	-0.00010681274
96	0xb90ad1b8	-0.00013238832
97	0x389f9508	7.60947e-05
98	0x389fe4d7	7.6243356e-05
99	0xb986b80d	-0.000256956
100	0xba20bada	-0.00061313587
101	0xb98a5731	-0.00026386374
102	0xba0c9a09	-0.0005363529
103	0xba49572c	-0.0007680531
104	0x37ce86ae	2.4619829e-05
105	0xb89d527d	-7.501708e-05
106	0x395d50a1	0.00021106239
107	0xba143f64	-0.0005655198
108	0xb7461530	-1.1806653e-05
109	0xb8800ea3	-6.106242e-05
110	0xb9cef589	-0.0003947432
111	0x35b4cbf8	1.3470408e-06
112	0x3a59431c	0.0008287893
113	0x395a1d7e	0.00020801087
114	0x3a286b34	0.0006424666
115	0x39488487	0.00019122857
116	0x39d5aec3	0.00040756734
117	0xb981b8a7	-0.00024742374
118	0x38dfd19b	0.00010672511
119	0xb9211145	-0.0001536059
120	0xb98d8f64	-0.0002700045
121	0xb947274a	-0.00018992755
122	0x390679cb	0.00012824607
123	0xb963209f	-0.0002166056
124	0xba3243c1	-0.0006800257
125	0x39216ecd	0.00015395433
126	0x39dda6e9	0.00042276763
127	0xb982d823	-0.00024956567

conv4.2.weight f4 [128]
0	0x3f2e1f14	0.6801617
1	0x3f2e658c	0.681237
2	0x3f2d82f9	0.67777973
3	0x3f2c7041	0.67358786
4	0x3f2d7979	0.6776348
5	0x3f2cbda3	0.6747686
6	0x3f2e775f	0.68150896
7	0x3f2d11bb	0.6760518
8	0x3f2e5a25	0.681063
9	0x3f2ceacd	0.6754578
10	0x3f2d5ada	0.67716753
11	0x3f2d5b77	0.6771769
12	0x3f2e5f6d	0.6811436
13	0x3f2efde2	0.68356144
14	0x3f2d97db	0.6780984
15	0x3f2d8df9	0.6779476
16	0x3f2d3406	0.67657506
17	0x3f2e5f54	0.6811421
18	0x3f2e8c52	0.6818286
19	0x3f2d6a8a	0.6774069
20	0x3f2ce42d	0.6753567
21	0x3f2d0df7	0.67599434
22	0x3f2d8825	0.67785865
23	0x3f2de509	0.67927605
24	0x3f2e1212	0.67996323
25	0x3f2ecfb2	0.6828567
26	0x3f2e7698	0.6814971
27	0x3f2f60b2	0.6850692
28	0x3f2f018c	0.68361735
29	0x3f2e559d	0.68099385
30	0x3f2cbcea	0.6747576
31	0x3f2ee2e0	0.68314934
32	0x3f2eb990	0.68251896
33	0x3f2d5d3e	0.677204
34	0x3f2d9fd1	0.67821985
35	0x3f2d5ee4	0.67722917
36	0x3f2dcf47	0.67894405
37	0x3f2e488a	0.68079436
38	0x3f2e94f1	0.68196017
39	0x3f2d7b8e	0.67766654
40	0x3f2cf100	0.67555237
41	0x3f2df3b0	0.6794996
42	0x3f2d42b8	0.6767993
43	0x3f2e153a	0.6800114
44	0x3f2df5c3	0.6795313
45	0x3f2e2f43	0.68040866
46	0x3f2db490	0.6785364
47	0x3f2e2b47	0.68034786
48	0x3f2e6da2	0.68136036
49	0x3f2ce33c	0.6753423
50	0x3f2d204e	0.6762742
51	0x3f2df008	0.67944384
52	0x3f2ccf2e	0.6750363
53	0x3f2d8ab1	0.6778975
54	0x3f2e4f49	0.6808973
55	0x3f2d3d69	0.6767183
56	0x3f2db931	0.67860705
57	0x3f2f5d9e	0.68502223
58	0x3f2d51fe	0.67703235
59	0x3f2fa7e2	0.68615544
60	0x3f2d5f86	0.6772388
61	0x3f2f1ec5	0.68406326
62	0x3f2cbb4b	0.67473286
63	0x3f2cfca7	0.67573017
64	0x3f2da8b5	0.6783555
65	0x3f2ee444	0.68317056
66	0x3f2ec397	0.68267196
67	0x3f2d8cf5	0.6779321
68	0x3f2f60d4	0.68507123
69	0x3f2d6900	0.6773834
70	0x3f2cb81c	0.6746843
71	0x3f2f16d6	0.6839422
72	0x3f2ddcbc	0.6791494
73	0x3f2e0f96	0.6799253
74	0x3f2ce361	0.6753445
75	0x3f2f75b6	0.6853899
76	0x3f2dc6c7	0.67881435
77	0x3f2cc3ef	0.6748647
78	0x3f2e2446	0.680241
79	0x3f2ee05b	0.6831109
80	0x3f2dddde	0.6791667
81	0x3f2e2b3b	0.68034714
82	0x3f2ecb2c	0.68278766
83	0x3f2c4bee	0.6730336
84	0x3f2e3a0d	0.6805733
85	0x3f2e60e7	0.6811661
86	0x3f2f17d5	0.6839574
87	0x3f2d9e46	0.6781963
88	0x3f2cea8e	0.675454
89	0x3f2f2120	0.6840992
90	0x3f2d021a	0.6758133
91	0x3f2cf228	0.67557
92	0x3f2fa8ed	0.68617135
93	0x3f2e0e3b	0.67990464
94	0x3f2e95a0	0.6819706
95	0x3f2ce15b	0.67531365
96	0x3f2de0bc	0.6792104
97	0x3f2e495a	0.68080676
98	0x3f2d86f2	0.67784035
99	0x3f2e69b6	0.6813005
100	0x3f2d1a55	0.67618304
101	0x3f2e5ad4	0.6810734
102	0x3f2d045a	0.67584765
103	0x3f2ecf37	0.68284935
104	0x3f2df628	0.6795373
105	0x3f2d7335	0.67753917
106	0x3f2ce361	0.6753445
107	0x3f2dc614	0.6788037
108	0x3f2f6417	0.685121
109	0x3f2eaba7	0.6823067
110	0x3f2e6346	0.6812023
111	0x3f2df836	0.67956865
112	0x3f2d5fa1	0.67724043
113	0x3f2e2e51	0.68039423
114	0x3f2f5c24	0.6849997
115	0x3f2cfd99	0.6757446
116	0x3f2d62eb	0.6772906
117	0x3f2f6188	0.68508196
118	0x3f2ecbe3	0.68279856
119	0x3f2e4dbe	0.68087375
120	0x3f2eb2b8	0.68241453
121	0x3f2df76c	0.6795566
122	0x3f2dedc6	0.6794094
123	0x3f2c57ed	0.67321664
124	0x3f2e957c	0.68196845
125	0x3f2ed7e8	0.68298197
126	0x3f2f010f	0.6836099
127	0x3f2c971c	0.67418075
